name: "h36mc2f3dhm"
#-------------save training pred skeleton map on MPII and Human3.6M




#-----randomly generate index for h36m
layer {
  name: "gen_rand_ind"
  type: "GenRandIndex"
  top: "image_index"
  gen_rand_index_param {
     index_lower_bound: 0
     index_upper_bound: 1559571
     batch_size: 3
  }
  include {
     phase: TRAIN
  }
}



#-----randomly generate index for h36m
layer {
  name: "gen_rand_ind"
  type: "GenRandIndex"
  top: "image_index"
  gen_rand_index_param {
     index_lower_bound: 1559572
     index_upper_bound: 2108570
     #index_lower_bound: 0
     #index_upper_bound: 1559571
     batch_size: 3
  }
  include {
     phase: TEST
  }
}







#----- Read bbx x1 bbx y1 bbx x2 bbx y2 H36M
layer {
  name: "read_bbx_H36M"
  type: "ReadBlobFromFileIndexing"
  bottom: "image_index"
  top: "bbx_H36M"
  read_blob_from_file_indexing_param {
     file_prefix: "/data/wqf/h36m/mine/Human3.6M/bbx_all_new/"
	 num_to_read: 4
  }

 }
 

layer {
 name: "slice_bbx"
 type: "Slice"
 bottom: "bbx_H36M"
 top: "bbx_x1_H36M"
 top: "bbx_y1_H36M"
 top: "bbx_x2_H36M"
 top: "bbx_y2_H36M"
 slice_param {
    axis: 1
	slice_point: 1
	slice_point: 2
	slice_point: 3
 }
}








#=========read objpos.x
layer {
  name: "center_x"
  type: "ReadBlobFromFileIndexing"
  bottom: "image_index"
  top: "center_x"
  read_blob_from_file_indexing_param {
     file_prefix: "/data/wqf/h36m/mine/Human3.6M/center_x/"
   num_to_read: 1
  }  
  
}


#=========read objpos.y
layer {
  name: "center_y"
  type: "ReadBlobFromFileIndexing"
  bottom: "image_index"
  top: "center_y"
  read_blob_from_file_indexing_param {
     file_prefix: "/data/wqf/h36m/mine/Human3.6M/center_y/"
   num_to_read: 1
  }  
 
}

#========read scale (* 200)
layer {
 name: "scale"
  type: "ReadBlobFromFileIndexing"
  bottom: "image_index"
  top: "scale"
  read_blob_from_file_indexing_param {
     file_prefix: "/data/wqf/h36m/mine/Human3.6M/scale/"
   num_to_read: 1
  }  
  
}

#=======/ 200.0
layer {
  name: "scale_provided"
  bottom: "scale"
  top: "scale_provided"
  type: "ScaleVector"
  scale_vector_param {
     scale_factor: 0.005
  }
 
}





#----- Read GT joint 2d raw Human3.6M (on 256 bbx for training)
layer {
  name: "gt_joint_2d_raw_H36M_all"
  type: "ReadBlobFromFileIndexing"
  bottom: "image_index"
  top: "gt_joint_2d_raw_H36M_all"
  read_blob_from_file_indexing_param {
     file_prefix: "/data/wqf/h36m/mine/Human3.6M/gt_joint_2d_raw_new/"
     num_to_read: 64
  }  
  
}






#======= during training because of data aug "crop_gt_joint_2d" is augmented joint 2d in cropped bbx (16 joints)
layer {
  name: "gt_joint_2d_raw_H36M"
  type: "DeepHumanModelConvert2D"
  bottom: "gt_joint_2d_raw_H36M_all"
  top: "gt_joint_2d_raw_H36M"
 
}


#=======generate unified augmented image and augmented 2d annotation (name gt joint 2d raw H36M all is a bit tricky)
layer {
  type: "GenUnifiedDataAndLabel"
  bottom: "image_index"
  bottom: "center_x"
  bottom: "center_y"
  bottom: "scale_provided"
  bottom: "gt_joint_2d_raw_H36M"
  top: "image"
  top: "crop_gt_joint_2d_scale" 

  transform_param {
    stride: 4
    max_rotate_degree: 40.0
    crop_size_x: 256
    crop_size_y: 256
    scale_prob: 1.0
    scale_min: 0.699999988079
    scale_max: 1.29999995232
    #target_dist: 1.17100000381
    target_dist: 1.0
    center_perterb_max: 0.0
    do_clahe: false
    put_gaussian: false
    file_name_file_prefix:  "/data/wqf/h36m/mine/Human3.6M/image_path_file/"
    transform_body_joint: true
    num_parts: 16
    minus_pixel_value: 128.0
  }
  include {
    phase: TRAIN
  }
}




#=======generate unified augmented image and augmented 2d annotation (name gt joint 2d raw H36M all is a bit tricky)
layer {
  type: "GenUnifiedDataAndLabel"
  bottom: "image_index"
  bottom: "center_x"
  bottom: "center_y"
  bottom: "scale_provided"
  bottom: "gt_joint_2d_raw_H36M"
  top: "image"
  top: "crop_gt_joint_2d_scale" 

  transform_param {
    stride: 4
    max_rotate_degree: 0.0
    crop_size_x: 256
    crop_size_y: 256
    scale_prob: -1.0
    flip_prob: -1.0
    scale_min: 0.699999988079
    scale_max: 1.29999995232
    #target_dist: 1.17100000381
    target_dist: 1.0
    center_perterb_max: 0.0
    do_clahe: false
    put_gaussian: false
    file_name_file_prefix:  "/data/wqf/h36m/mine/Human3.6M/image_path_file/"
    transform_body_joint: true
    num_parts: 16
    minus_pixel_value: 128.0
  }
  include {
    phase: TEST
  }
}





#======to get [0, 256] cropped gt 2d -> cropped gt 2d in range [0, 1]
layer {
 type: "ScaleVector"
 bottom: "crop_gt_joint_2d_scale"
 top: "crop_gt_joint_2d"
 name: "crop_gt_joint_2d"
 scale_vector_param {
    scale_factor: 0.00390625
 }
 
}




#----- Read gt mono 3d
layer {
  name: "gt_joint_3d_mono_raw_all"
  type: "ReadBlobFromFileIndexing"
  bottom: "image_index"
  top: "gt_joint_3d_mono_raw_all"
  read_blob_from_file_indexing_param {
     file_prefix: "/data/wqf/h36m/mine/Human3.6M/gt_joint_3d_mono_raw/"
     num_to_read: 96
  }  
}






#======= 32 -> 16
layer {
  name: "gt_joint_3d_mono_raw"
  type: "DeepHumanModelConvert3D"
  bottom: "gt_joint_3d_mono_raw_all"
  top: "gt_joint_3d_mono_raw"
}


#========aug 2D -> aug 3D
layer {
  type: "DeepHumanModelH36MGenAug3D"
  bottom: "crop_gt_joint_2d_scale"
  bottom: "gt_joint_3d_mono_raw"
  bottom: "bbx_x1_H36M"
  bottom: "bbx_y1_H36M"
  bottom: "bbx_x2_H36M"
  bottom: "bbx_y2_H36M"
  bottom: "image_index"
  top: "aug_3d"
  name: "aug_3d"
  gen_aug_3d_param {
      joint_num: 16
      camera_parameters_prefix: "/data/wqf/h36m/mine/Human3.6M/camera_all/"
      crop_bbx_size: 256
  }
  
}

#=======convert current annotation 3D -> only depth annotation
layer {
  type: "DeepHumanModelConvertDepth"
  bottom: "aug_3d"
  bottom: "gt_joint_3d_mono_raw"
  top: "annot_depth"
  name: "annot_depth"
  convert_depth_param {
      joint_num: 16
      depth_lb:  -1005.185902
      depth_ub:  980.8599
      root_joint_id: 0
  }
  
}




#=======generate 2d heatmap ground truth
layer {
  type: "GenHeatmapAllChannels"
  bottom: "crop_gt_joint_2d"
  top: "label_2dhm"
  name: "label_2dhm"
  gen_heatmap_all_channels_param {
       gen_size: 64
       all_one: false
       joint_num: 16
       use_baseline_render: true
       use_cpm_render: false
       stride: 4
       render_sigma: 2
  }
}

#=====generate 3d heatmap ground truth

layer {
  name: "gen_3d_hm"
  bottom: "annot_depth"
  bottom: "crop_gt_joint_2d"

  top: "label_3dhm"
  type: "DeepHumanModelGen3DHeatmapInMoreDetailV3"
  deep_human_model_gen_3d_heatmap_in_more_detail_v3_param {
    depth_dims: 2
  map_size: 64
  crop_size: 256

  stride: 4
  render_sigma: 2
  x_lower_bound: 0.0
  x_upper_bound: 1.0
  y_lower_bound: 0.0
  y_upper_bound: 1.0
  z_lower_bound: 0.0
  z_upper_bound: 1.0

  
  joint_num: 16
  }
}




layer {
 name: "conv_1"
 type: "Convolution" 
 bottom: "image"
 top: "conv_1" 
  param {
 	 lr_mult: 1
 	 decay_mult: 1
 }
 param {
 	 lr_mult: 2
 	 decay_mult: 0
 }
 convolution_param { 
 num_output: 64
 pad: 3
 kernel_size: 7
 stride:2
 weight_filler { 
 type: "gaussian"
 std: 0.01
 }
 bias_filler {
 type: "constant"
 }
 }
 
 }
 
 
 
 
 
layer {
 name: "bn_1"
 type: "BatchNorm" 
 bottom: "conv_1" 
 top: "bn_1" 
 param { 
 lr_mult: 0 
 } 
 param { 
 lr_mult: 0 
 } 
 param { 
 lr_mult: 0 
 } 
 batch_norm_param { 
    use_global_stats: false
 } 
 include { 
  phase: TRAIN 
 } 
}
layer {
 name: "bn_1"
 type: "BatchNorm" 
 bottom: "conv_1" 
 top: "bn_1" 
 param { 
 lr_mult: 0 
 } 
 param { 
 lr_mult: 0 
 } 
 param { 
 lr_mult: 0 
 } 
 batch_norm_param { 
    use_global_stats: false
 } 
 include { 
  phase: TEST 
 } 
}
layer {
 name: "scale_1"
 type: "Scale" 
 bottom: "bn_1" 
 top: "scale_1" 
 scale_param { 
 bias_term: true 
 } 
 }
layer {
 name: "residual_1_branch1_bn1"
 type: "BatchNorm" 
 bottom: "scale_1" 
 top: "residual_1_branch1_bn1" 
 param { 
 lr_mult: 0 
 } 
 param { 
 lr_mult: 0 
 } 
 param { 
 lr_mult: 0 
 } 
 batch_norm_param { 
    use_global_stats: false
 } 
 include { 
  phase: TRAIN 
 } 
}
layer {
 name: "residual_1_branch1_bn1"
 type: "BatchNorm" 
 bottom: "scale_1" 
 top: "residual_1_branch1_bn1" 
 param { 
 lr_mult: 0 
 } 
 param { 
 lr_mult: 0 
 } 
 param { 
 lr_mult: 0 
 } 
 batch_norm_param { 
    use_global_stats: false
 } 
 include { 
  phase: TEST 
 } 
}
layer {
 name: "residual_1_branch1_scale1"
 type: "Scale" 
 bottom: "residual_1_branch1_bn1" 
 top: "residual_1_branch1_scale1" 
 scale_param { 
 bias_term: true 
 } 
 }
layer {
 name: "residual_1_branch1_relu1"
 type: "ReLU" 
 bottom: "residual_1_branch1_scale1" 
 top: "residual_1_branch1_relu1" 
}
layer {
 name: "residual_1_branch1_conv1"
 type: "Convolution" 
 bottom: "residual_1_branch1_relu1" 
 top: "residual_1_branch1_conv1" 
  param {
 	 lr_mult: 1
 	 decay_mult: 1
 }
 param {
 	 lr_mult: 2
 	 decay_mult: 0
 }
 convolution_param { 
 num_output: 64
 pad: 0
 kernel_size: 1
 stride:1
 weight_filler { 
 type: "gaussian"
 std: 0.01
 }
 bias_filler {
 type: "constant"
 }
 }
 }
layer {
 name: "residual_1_branch1_bn2"
 type: "BatchNorm" 
 bottom: "residual_1_branch1_conv1" 
 top: "residual_1_branch1_bn2" 
 param { 
 lr_mult: 0 
 } 
 param { 
 lr_mult: 0 
 } 
 param { 
 lr_mult: 0 
 } 
 batch_norm_param { 
    use_global_stats: false
 } 
 include { 
  phase: TRAIN 
 } 
}
layer {
 name: "residual_1_branch1_bn2"
 type: "BatchNorm" 
 bottom: "residual_1_branch1_conv1" 
 top: "residual_1_branch1_bn2" 
 param { 
 lr_mult: 0 
 } 
 param { 
 lr_mult: 0 
 } 
 param { 
 lr_mult: 0 
 } 
 batch_norm_param { 
    use_global_stats: false
 } 
 include { 
  phase: TEST 
 } 
}
layer {
 name: "residual_1_branch1_scale2"
 type: "Scale" 
 bottom: "residual_1_branch1_bn2" 
 top: "residual_1_branch1_scale2" 
 scale_param { 
 bias_term: true 
 } 
 }
layer {
 name: "residual_1_branch1_relu2"
 type: "ReLU" 
 bottom: "residual_1_branch1_scale2" 
 top: "residual_1_branch1_relu2" 
}
layer {
 name: "residual_1_branch1_conv2"
 type: "Convolution" 
 bottom: "residual_1_branch1_relu2" 
 top: "residual_1_branch1_conv2" 
  param {
 	 lr_mult: 1
 	 decay_mult: 1
 }
 param {
 	 lr_mult: 2
 	 decay_mult: 0
 }
 convolution_param { 
 num_output: 64
 pad: 1
 kernel_size: 3
 stride:1
 weight_filler { 
 type: "gaussian"
 std: 0.01
 }
 bias_filler {
 type: "constant"
 }
 }
 }
layer {
 name: "residual_1_branch1_bn3"
 type: "BatchNorm" 
 bottom: "residual_1_branch1_conv2" 
 top: "residual_1_branch1_bn3" 
 param { 
 lr_mult: 0 
 } 
 param { 
 lr_mult: 0 
 } 
 param { 
 lr_mult: 0 
 } 
 batch_norm_param { 
    use_global_stats: false
 } 
 include { 
  phase: TRAIN 
 } 
}
layer {
 name: "residual_1_branch1_bn3"
 type: "BatchNorm" 
 bottom: "residual_1_branch1_conv2" 
 top: "residual_1_branch1_bn3" 
 param { 
 lr_mult: 0 
 } 
 param { 
 lr_mult: 0 
 } 
 param { 
 lr_mult: 0 
 } 
 batch_norm_param { 
    use_global_stats: false
 } 
 include { 
  phase: TEST 
 } 
}
layer {
 name: "residual_1_branch1_scale3"
 type: "Scale" 
 bottom: "residual_1_branch1_bn3" 
 top: "residual_1_branch1_scale3" 
 scale_param { 
 bias_term: true 
 } 
 }
layer {
 name: "residual_1_branch1_relu3"
 type: "ReLU" 
 bottom: "residual_1_branch1_scale3" 
 top: "residual_1_branch1_relu3" 
}
layer {
 name: "residual_1_branch1_conv3"
 type: "Convolution" 
 bottom: "residual_1_branch1_relu3" 
 top: "residual_1_branch1_conv3" 
  param {
 	 lr_mult: 1
 	 decay_mult: 1
 }
 param {
 	 lr_mult: 2
 	 decay_mult: 0
 }
 convolution_param { 
 num_output: 128
 pad: 0
 kernel_size: 1
 stride:1
 weight_filler { 
 type: "gaussian"
 std: 0.01
 }
 bias_filler {
 type: "constant"
 }
 }
 }
layer {
 name: "residual_1_branch2_conv"
 type: "Convolution" 
 bottom: "scale_1" 
 top: "residual_1_branch2_conv" 
  param {
 	 lr_mult: 1
 	 decay_mult: 1
 }
 param {
 	 lr_mult: 2
 	 decay_mult: 0
 }
 convolution_param { 
 num_output: 128
 pad: 0
 kernel_size: 1
 stride:1
 weight_filler { 
 type: "gaussian"
 std: 0.01
 }
 bias_filler {
 type: "constant"
 }
 }
 }
layer {
 name: "residual_1"
 type: "Eltwise" 
 bottom: "residual_1_branch1_conv3" 
 top: "residual_1" 
 bottom: "residual_1_branch2_conv" 
 eltwise_param { 
 operation: SUM 
 } 
 }
layer {
 name: "pooling"
 type: "Pooling" 
 bottom: "residual_1" 
 top: "pooling" 
 pooling_param { 
 pool: MAX 
 kernel_size: 2 
 stride: 2 
 } 
 }
layer {
 name: "residual_2_branch1_bn1"
 type: "BatchNorm" 
 bottom: "pooling" 
 top: "residual_2_branch1_bn1" 
 param { 
 lr_mult: 0 
 } 
 param { 
 lr_mult: 0 
 } 
 param { 
 lr_mult: 0 
 } 
 batch_norm_param { 
    use_global_stats: false
 } 
 include { 
  phase: TRAIN 
 } 
}
layer {
 name: "residual_2_branch1_bn1"
 type: "BatchNorm" 
 bottom: "pooling" 
 top: "residual_2_branch1_bn1" 
 param { 
 lr_mult: 0 
 } 
 param { 
 lr_mult: 0 
 } 
 param { 
 lr_mult: 0 
 } 
 batch_norm_param { 
    use_global_stats: false
 } 
 include { 
  phase: TEST 
 } 
}
layer {
 name: "residual_2_branch1_scale1"
 type: "Scale" 
 bottom: "residual_2_branch1_bn1" 
 top: "residual_2_branch1_scale1" 
 scale_param { 
 bias_term: true 
 } 
 }
layer {
 name: "residual_2_branch1_relu1"
 type: "ReLU" 
 bottom: "residual_2_branch1_scale1" 
 top: "residual_2_branch1_relu1" 
}
layer {
 name: "residual_2_branch1_conv1"
 type: "Convolution" 
 bottom: "residual_2_branch1_relu1" 
 top: "residual_2_branch1_conv1" 
  param {
 	 lr_mult: 1
 	 decay_mult: 1
 }
 param {
 	 lr_mult: 2
 	 decay_mult: 0
 }
 convolution_param { 
 num_output: 64
 pad: 0
 kernel_size: 1
 stride:1
 weight_filler { 
 type: "gaussian"
 std: 0.01
 }
 bias_filler {
 type: "constant"
 }
 }
 }
layer {
 name: "residual_2_branch1_bn2"
 type: "BatchNorm" 
 bottom: "residual_2_branch1_conv1" 
 top: "residual_2_branch1_bn2" 
 param { 
 lr_mult: 0 
 } 
 param { 
 lr_mult: 0 
 } 
 param { 
 lr_mult: 0 
 } 
 batch_norm_param { 
    use_global_stats: false
 } 
 include { 
  phase: TRAIN 
 } 
}
layer {
 name: "residual_2_branch1_bn2"
 type: "BatchNorm" 
 bottom: "residual_2_branch1_conv1" 
 top: "residual_2_branch1_bn2" 
 param { 
 lr_mult: 0 
 } 
 param { 
 lr_mult: 0 
 } 
 param { 
 lr_mult: 0 
 } 
 batch_norm_param { 
    use_global_stats: false
 } 
 include { 
  phase: TEST 
 } 
}
layer {
 name: "residual_2_branch1_scale2"
 type: "Scale" 
 bottom: "residual_2_branch1_bn2" 
 top: "residual_2_branch1_scale2" 
 scale_param { 
 bias_term: true 
 } 
 }
layer {
 name: "residual_2_branch1_relu2"
 type: "ReLU" 
 bottom: "residual_2_branch1_scale2" 
 top: "residual_2_branch1_relu2" 
}
layer {
 name: "residual_2_branch1_conv2"
 type: "Convolution" 
 bottom: "residual_2_branch1_relu2" 
 top: "residual_2_branch1_conv2" 
  param {
 	 lr_mult: 1
 	 decay_mult: 1
 }
 param {
 	 lr_mult: 2
 	 decay_mult: 0
 }
 convolution_param { 
 num_output: 64
 pad: 1
 kernel_size: 3
 stride:1
 weight_filler { 
 type: "gaussian"
 std: 0.01
 }
 bias_filler {
 type: "constant"
 }
 }
 }
layer {
 name: "residual_2_branch1_bn3"
 type: "BatchNorm" 
 bottom: "residual_2_branch1_conv2" 
 top: "residual_2_branch1_bn3" 
 param { 
 lr_mult: 0 
 } 
 param { 
 lr_mult: 0 
 } 
 param { 
 lr_mult: 0 
 } 
 batch_norm_param { 
    use_global_stats: false
 } 
 include { 
  phase: TRAIN 
 } 
}
layer {
 name: "residual_2_branch1_bn3"
 type: "BatchNorm" 
 bottom: "residual_2_branch1_conv2" 
 top: "residual_2_branch1_bn3" 
 param { 
 lr_mult: 0 
 } 
 param { 
 lr_mult: 0 
 } 
 param { 
 lr_mult: 0 
 } 
 batch_norm_param { 
    use_global_stats: false
 } 
 include { 
  phase: TEST 
 } 
}
layer {
 name: "residual_2_branch1_scale3"
 type: "Scale" 
 bottom: "residual_2_branch1_bn3" 
 top: "residual_2_branch1_scale3" 
 scale_param { 
 bias_term: true 
 } 
 }
layer {
 name: "residual_2_branch1_relu3"
 type: "ReLU" 
 bottom: "residual_2_branch1_scale3" 
 top: "residual_2_branch1_relu3" 
}
layer {
 name: "residual_2_branch1_conv3"
 type: "Convolution" 
 bottom: "residual_2_branch1_relu3" 
 top: "residual_2_branch1_conv3" 
  param {
 	 lr_mult: 1
 	 decay_mult: 1
 }
 param {
 	 lr_mult: 2
 	 decay_mult: 0
 }
 convolution_param { 
 num_output: 128
 pad: 0
 kernel_size: 1
 stride:1
 weight_filler { 
 type: "gaussian"
 std: 0.01
 }
 bias_filler {
 type: "constant"
 }
 }
 }
layer {
 name: "residual_2_branch2_conv"
 type: "Convolution" 
 bottom: "pooling" 
 top: "residual_2_branch2_conv" 
  param {
 	 lr_mult: 1
 	 decay_mult: 1
 }
 param {
 	 lr_mult: 2
 	 decay_mult: 0
 }
 convolution_param { 
 num_output: 128
 pad: 0
 kernel_size: 1
 stride:1
 weight_filler { 
 type: "gaussian"
 std: 0.01
 }
 bias_filler {
 type: "constant"
 }
 }
 }
layer {
 name: "residual_2"
 type: "Eltwise" 
 bottom: "residual_2_branch1_conv3" 
 top: "residual_2" 
 bottom: "residual_2_branch2_conv" 
 eltwise_param { 
 operation: SUM 
 } 
 }
layer {
 name: "residual_3_branch1_bn1"
 type: "BatchNorm" 
 bottom: "residual_2" 
 top: "residual_3_branch1_bn1" 
 param { 
 lr_mult: 0 
 } 
 param { 
 lr_mult: 0 
 } 
 param { 
 lr_mult: 0 
 } 
 batch_norm_param { 
    use_global_stats: false
 } 
 include { 
  phase: TRAIN 
 } 
}
layer {
 name: "residual_3_branch1_bn1"
 type: "BatchNorm" 
 bottom: "residual_2" 
 top: "residual_3_branch1_bn1" 
 param { 
 lr_mult: 0 
 } 
 param { 
 lr_mult: 0 
 } 
 param { 
 lr_mult: 0 
 } 
 batch_norm_param { 
    use_global_stats: false
 } 
 include { 
  phase: TEST 
 } 
}
layer {
 name: "residual_3_branch1_scale1"
 type: "Scale" 
 bottom: "residual_3_branch1_bn1" 
 top: "residual_3_branch1_scale1" 
 scale_param { 
 bias_term: true 
 } 
 }
layer {
 name: "residual_3_branch1_relu1"
 type: "ReLU" 
 bottom: "residual_3_branch1_scale1" 
 top: "residual_3_branch1_relu1" 
}
layer {
 name: "residual_3_branch1_conv1"
 type: "Convolution" 
 bottom: "residual_3_branch1_relu1" 
 top: "residual_3_branch1_conv1" 
  param {
 	 lr_mult: 1
 	 decay_mult: 1
 }
 param {
 	 lr_mult: 2
 	 decay_mult: 0
 }
 convolution_param { 
 num_output: 64
 pad: 0
 kernel_size: 1
 stride:1
 weight_filler { 
 type: "gaussian"
 std: 0.01
 }
 bias_filler {
 type: "constant"
 }
 }
 }
layer {
 name: "residual_3_branch1_bn2"
 type: "BatchNorm" 
 bottom: "residual_3_branch1_conv1" 
 top: "residual_3_branch1_bn2" 
 param { 
 lr_mult: 0 
 } 
 param { 
 lr_mult: 0 
 } 
 param { 
 lr_mult: 0 
 } 
 batch_norm_param { 
    use_global_stats: false
 } 
 include { 
  phase: TRAIN 
 } 
}
layer {
 name: "residual_3_branch1_bn2"
 type: "BatchNorm" 
 bottom: "residual_3_branch1_conv1" 
 top: "residual_3_branch1_bn2" 
 param { 
 lr_mult: 0 
 } 
 param { 
 lr_mult: 0 
 } 
 param { 
 lr_mult: 0 
 } 
 batch_norm_param { 
    use_global_stats: false
 } 
 include { 
  phase: TEST 
 } 
}
layer {
 name: "residual_3_branch1_scale2"
 type: "Scale" 
 bottom: "residual_3_branch1_bn2" 
 top: "residual_3_branch1_scale2" 
 scale_param { 
 bias_term: true 
 } 
 }
layer {
 name: "residual_3_branch1_relu2"
 type: "ReLU" 
 bottom: "residual_3_branch1_scale2" 
 top: "residual_3_branch1_relu2" 
}
layer {
 name: "residual_3_branch1_conv2"
 type: "Convolution" 
 bottom: "residual_3_branch1_relu2" 
 top: "residual_3_branch1_conv2" 
  param {
 	 lr_mult: 1
 	 decay_mult: 1
 }
 param {
 	 lr_mult: 2
 	 decay_mult: 0
 }
 convolution_param { 
 num_output: 64
 pad: 1
 kernel_size: 3
 stride:1
 weight_filler { 
 type: "gaussian"
 std: 0.01
 }
 bias_filler {
 type: "constant"
 }
 }
 }
layer {
 name: "residual_3_branch1_bn3"
 type: "BatchNorm" 
 bottom: "residual_3_branch1_conv2" 
 top: "residual_3_branch1_bn3" 
 param { 
 lr_mult: 0 
 } 
 param { 
 lr_mult: 0 
 } 
 param { 
 lr_mult: 0 
 } 
 batch_norm_param { 
    use_global_stats: false
 } 
 include { 
  phase: TRAIN 
 } 
}
layer {
 name: "residual_3_branch1_bn3"
 type: "BatchNorm" 
 bottom: "residual_3_branch1_conv2" 
 top: "residual_3_branch1_bn3" 
 param { 
 lr_mult: 0 
 } 
 param { 
 lr_mult: 0 
 } 
 param { 
 lr_mult: 0 
 } 
 batch_norm_param { 
    use_global_stats: false
 } 
 include { 
  phase: TEST 
 } 
}
layer {
 name: "residual_3_branch1_scale3"
 type: "Scale" 
 bottom: "residual_3_branch1_bn3" 
 top: "residual_3_branch1_scale3" 
 scale_param { 
 bias_term: true 
 } 
 }
layer {
 name: "residual_3_branch1_relu3"
 type: "ReLU" 
 bottom: "residual_3_branch1_scale3" 
 top: "residual_3_branch1_relu3" 
}
layer {
 name: "residual_3_branch1_conv3"
 type: "Convolution" 
 bottom: "residual_3_branch1_relu3" 
 top: "residual_3_branch1_conv3" 
  param {
 	 lr_mult: 1
 	 decay_mult: 1
 }
 param {
 	 lr_mult: 2
 	 decay_mult: 0
 }
 convolution_param { 
 num_output: 128
 pad: 0
 kernel_size: 1
 stride:1
 weight_filler { 
 type: "gaussian"
 std: 0.01
 }
 bias_filler {
 type: "constant"
 }
 }
 }
layer {
 name: "residual_3_branch2_conv"
 type: "Convolution" 
 bottom: "residual_2" 
 top: "residual_3_branch2_conv" 
  param {
 	 lr_mult: 1
 	 decay_mult: 1
 }
 param {
 	 lr_mult: 2
 	 decay_mult: 0
 }
 convolution_param { 
 num_output: 128
 pad: 0
 kernel_size: 1
 stride:1
 weight_filler { 
 type: "gaussian"
 std: 0.01
 }
 bias_filler {
 type: "constant"
 }
 }
 }
layer {
 name: "residual_3"
 type: "Eltwise" 
 bottom: "residual_3_branch1_conv3" 
 top: "residual_3" 
 bottom: "residual_3_branch2_conv" 
 eltwise_param { 
 operation: SUM 
 } 
 }
layer {
 name: "residual_4_branch1_bn1"
 type: "BatchNorm" 
 bottom: "residual_3" 
 top: "residual_4_branch1_bn1" 
 param { 
 lr_mult: 0 
 } 
 param { 
 lr_mult: 0 
 } 
 param { 
 lr_mult: 0 
 } 
 batch_norm_param { 
    use_global_stats: false
 } 
 include { 
  phase: TRAIN 
 } 
}
layer {
 name: "residual_4_branch1_bn1"
 type: "BatchNorm" 
 bottom: "residual_3" 
 top: "residual_4_branch1_bn1" 
 param { 
 lr_mult: 0 
 } 
 param { 
 lr_mult: 0 
 } 
 param { 
 lr_mult: 0 
 } 
 batch_norm_param { 
    use_global_stats: false
 } 
 include { 
  phase: TEST 
 } 
}
layer {
 name: "residual_4_branch1_scale1"
 type: "Scale" 
 bottom: "residual_4_branch1_bn1" 
 top: "residual_4_branch1_scale1" 
 scale_param { 
 bias_term: true 
 } 
 }
layer {
 name: "residual_4_branch1_relu1"
 type: "ReLU" 
 bottom: "residual_4_branch1_scale1" 
 top: "residual_4_branch1_relu1" 
}
layer {
 name: "residual_4_branch1_conv1"
 type: "Convolution" 
 bottom: "residual_4_branch1_relu1" 
 top: "residual_4_branch1_conv1" 
  param {
 	 lr_mult: 1
 	 decay_mult: 1
 }
 param {
 	 lr_mult: 2
 	 decay_mult: 0
 }
 convolution_param { 
 num_output: 128
 pad: 0
 kernel_size: 1
 stride:1
 weight_filler { 
 type: "gaussian"
 std: 0.01
 }
 bias_filler {
 type: "constant"
 }
 }
 }
layer {
 name: "residual_4_branch1_bn2"
 type: "BatchNorm" 
 bottom: "residual_4_branch1_conv1" 
 top: "residual_4_branch1_bn2" 
 param { 
 lr_mult: 0 
 } 
 param { 
 lr_mult: 0 
 } 
 param { 
 lr_mult: 0 
 } 
 batch_norm_param { 
    use_global_stats: false
 } 
 include { 
  phase: TRAIN 
 } 
}
layer {
 name: "residual_4_branch1_bn2"
 type: "BatchNorm" 
 bottom: "residual_4_branch1_conv1" 
 top: "residual_4_branch1_bn2" 
 param { 
 lr_mult: 0 
 } 
 param { 
 lr_mult: 0 
 } 
 param { 
 lr_mult: 0 
 } 
 batch_norm_param { 
    use_global_stats: false
 } 
 include { 
  phase: TEST 
 } 
}
layer {
 name: "residual_4_branch1_scale2"
 type: "Scale" 
 bottom: "residual_4_branch1_bn2" 
 top: "residual_4_branch1_scale2" 
 scale_param { 
 bias_term: true 
 } 
 }
layer {
 name: "residual_4_branch1_relu2"
 type: "ReLU" 
 bottom: "residual_4_branch1_scale2" 
 top: "residual_4_branch1_relu2" 
}
layer {
 name: "residual_4_branch1_conv2"
 type: "Convolution" 
 bottom: "residual_4_branch1_relu2" 
 top: "residual_4_branch1_conv2" 
  param {
 	 lr_mult: 1
 	 decay_mult: 1
 }
 param {
 	 lr_mult: 2
 	 decay_mult: 0
 }
 convolution_param { 
 num_output: 128
 pad: 1
 kernel_size: 3
 stride:1
 weight_filler { 
 type: "gaussian"
 std: 0.01
 }
 bias_filler {
 type: "constant"
 }
 }
 }
layer {
 name: "residual_4_branch1_bn3"
 type: "BatchNorm" 
 bottom: "residual_4_branch1_conv2" 
 top: "residual_4_branch1_bn3" 
 param { 
 lr_mult: 0 
 } 
 param { 
 lr_mult: 0 
 } 
 param { 
 lr_mult: 0 
 } 
 batch_norm_param { 
    use_global_stats: false
 } 
 include { 
  phase: TRAIN 
 } 
}
layer {
 name: "residual_4_branch1_bn3"
 type: "BatchNorm" 
 bottom: "residual_4_branch1_conv2" 
 top: "residual_4_branch1_bn3" 
 param { 
 lr_mult: 0 
 } 
 param { 
 lr_mult: 0 
 } 
 param { 
 lr_mult: 0 
 } 
 batch_norm_param { 
    use_global_stats: false
 } 
 include { 
  phase: TEST 
 } 
}
layer {
 name: "residual_4_branch1_scale3"
 type: "Scale" 
 bottom: "residual_4_branch1_bn3" 
 top: "residual_4_branch1_scale3" 
 scale_param { 
 bias_term: true 
 } 
 }
layer {
 name: "residual_4_branch1_relu3"
 type: "ReLU" 
 bottom: "residual_4_branch1_scale3" 
 top: "residual_4_branch1_relu3" 
}
layer {
 name: "residual_4_branch1_conv3"
 type: "Convolution" 
 bottom: "residual_4_branch1_relu3" 
 top: "residual_4_branch1_conv3" 
  param {
 	 lr_mult: 1
 	 decay_mult: 1
 }
 param {
 	 lr_mult: 2
 	 decay_mult: 0
 }
 convolution_param { 
 num_output: 256
 pad: 0
 kernel_size: 1
 stride:1
 weight_filler { 
 type: "gaussian"
 std: 0.01
 }
 bias_filler {
 type: "constant"
 }
 }
 }
layer {
 name: "residual_4_branch2_conv"
 type: "Convolution" 
 bottom: "residual_3" 
 top: "residual_4_branch2_conv" 
  param {
 	 lr_mult: 1
 	 decay_mult: 1
 }
 param {
 	 lr_mult: 2
 	 decay_mult: 0
 }
 convolution_param { 
 num_output: 256
 pad: 0
 kernel_size: 1
 stride:1
 weight_filler { 
 type: "gaussian"
 std: 0.01
 }
 bias_filler {
 type: "constant"
 }
 }
 }
layer {
 name: "residual_4"
 type: "Eltwise" 
 bottom: "residual_4_branch1_conv3" 
 top: "residual_4" 
 bottom: "residual_4_branch2_conv" 
 eltwise_param { 
 operation: SUM 
 } 
 }
layer {
 name: "hourglass1_pooling"
 type: "Pooling" 
 bottom: "residual_4" 
 top: "hourglass1_pooling" 
 pooling_param { 
 pool: MAX 
 kernel_size: 2 
 stride: 2 
 } 
 }
layer {
 name: "hourglass1_branch1_res1_branch1_sub1_bn1"
 type: "BatchNorm" 
 bottom: "hourglass1_pooling" 
 top: "hourglass1_branch1_res1_branch1_sub1_bn1" 
 param { 
 lr_mult: 0 
 } 
 param { 
 lr_mult: 0 
 } 
 param { 
 lr_mult: 0 
 } 
 batch_norm_param { 
    use_global_stats: false
 } 
 include { 
  phase: TRAIN 
 } 
}
layer {
 name: "hourglass1_branch1_res1_branch1_sub1_bn1"
 type: "BatchNorm" 
 bottom: "hourglass1_pooling" 
 top: "hourglass1_branch1_res1_branch1_sub1_bn1" 
 param { 
 lr_mult: 0 
 } 
 param { 
 lr_mult: 0 
 } 
 param { 
 lr_mult: 0 
 } 
 batch_norm_param { 
    use_global_stats: false
 } 
 include { 
  phase: TEST 
 } 
}
layer {
 name: "hourglass1_branch1_res1_branch1_sub1_scale1"
 type: "Scale" 
 bottom: "hourglass1_branch1_res1_branch1_sub1_bn1" 
 top: "hourglass1_branch1_res1_branch1_sub1_scale1" 
 scale_param { 
 bias_term: true 
 } 
 }
layer {
 name: "hourglass1_branch1_res1_branch1_sub1_relu1"
 type: "ReLU" 
 bottom: "hourglass1_branch1_res1_branch1_sub1_scale1" 
 top: "hourglass1_branch1_res1_branch1_sub1_relu1" 
}
layer {
 name: "hourglass1_branch1_res1_branch1_sub1_conv1"
 type: "Convolution" 
 bottom: "hourglass1_branch1_res1_branch1_sub1_relu1" 
 top: "hourglass1_branch1_res1_branch1_sub1_conv1" 
  param {
 	 lr_mult: 1
 	 decay_mult: 1
 }
 param {
 	 lr_mult: 2
 	 decay_mult: 0
 }
 convolution_param { 
 num_output: 128
 pad: 0
 kernel_size: 1
 stride:1
 weight_filler { 
 type: "gaussian"
 std: 0.01
 }
 bias_filler {
 type: "constant"
 }
 }
 }
layer {
 name: "hourglass1_branch1_res1_branch1_sub1_bn2"
 type: "BatchNorm" 
 bottom: "hourglass1_branch1_res1_branch1_sub1_conv1" 
 top: "hourglass1_branch1_res1_branch1_sub1_bn2" 
 param { 
 lr_mult: 0 
 } 
 param { 
 lr_mult: 0 
 } 
 param { 
 lr_mult: 0 
 } 
 batch_norm_param { 
    use_global_stats: false
 } 
 include { 
  phase: TRAIN 
 } 
}
layer {
 name: "hourglass1_branch1_res1_branch1_sub1_bn2"
 type: "BatchNorm" 
 bottom: "hourglass1_branch1_res1_branch1_sub1_conv1" 
 top: "hourglass1_branch1_res1_branch1_sub1_bn2" 
 param { 
 lr_mult: 0 
 } 
 param { 
 lr_mult: 0 
 } 
 param { 
 lr_mult: 0 
 } 
 batch_norm_param { 
    use_global_stats: false
 } 
 include { 
  phase: TEST 
 } 
}
layer {
 name: "hourglass1_branch1_res1_branch1_sub1_scale2"
 type: "Scale" 
 bottom: "hourglass1_branch1_res1_branch1_sub1_bn2" 
 top: "hourglass1_branch1_res1_branch1_sub1_scale2" 
 scale_param { 
 bias_term: true 
 } 
 }
layer {
 name: "hourglass1_branch1_res1_branch1_sub1_relu2"
 type: "ReLU" 
 bottom: "hourglass1_branch1_res1_branch1_sub1_scale2" 
 top: "hourglass1_branch1_res1_branch1_sub1_relu2" 
}
layer {
 name: "hourglass1_branch1_res1_branch1_sub1_conv2"
 type: "Convolution" 
 bottom: "hourglass1_branch1_res1_branch1_sub1_relu2" 
 top: "hourglass1_branch1_res1_branch1_sub1_conv2" 
  param {
 	 lr_mult: 1
 	 decay_mult: 1
 }
 param {
 	 lr_mult: 2
 	 decay_mult: 0
 }
 convolution_param { 
 num_output: 128
 pad: 1
 kernel_size: 3
 stride:1
 weight_filler { 
 type: "gaussian"
 std: 0.01
 }
 bias_filler {
 type: "constant"
 }
 }
 }
layer {
 name: "hourglass1_branch1_res1_branch1_sub1_bn3"
 type: "BatchNorm" 
 bottom: "hourglass1_branch1_res1_branch1_sub1_conv2" 
 top: "hourglass1_branch1_res1_branch1_sub1_bn3" 
 param { 
 lr_mult: 0 
 } 
 param { 
 lr_mult: 0 
 } 
 param { 
 lr_mult: 0 
 } 
 batch_norm_param { 
    use_global_stats: false
 } 
 include { 
  phase: TRAIN 
 } 
}
layer {
 name: "hourglass1_branch1_res1_branch1_sub1_bn3"
 type: "BatchNorm" 
 bottom: "hourglass1_branch1_res1_branch1_sub1_conv2" 
 top: "hourglass1_branch1_res1_branch1_sub1_bn3" 
 param { 
 lr_mult: 0 
 } 
 param { 
 lr_mult: 0 
 } 
 param { 
 lr_mult: 0 
 } 
 batch_norm_param { 
    use_global_stats: false
 } 
 include { 
  phase: TEST 
 } 
}
layer {
 name: "hourglass1_branch1_res1_branch1_sub1_scale3"
 type: "Scale" 
 bottom: "hourglass1_branch1_res1_branch1_sub1_bn3" 
 top: "hourglass1_branch1_res1_branch1_sub1_scale3" 
 scale_param { 
 bias_term: true 
 } 
 }
layer {
 name: "hourglass1_branch1_res1_branch1_sub1_relu3"
 type: "ReLU" 
 bottom: "hourglass1_branch1_res1_branch1_sub1_scale3" 
 top: "hourglass1_branch1_res1_branch1_sub1_relu3" 
}
layer {
 name: "hourglass1_branch1_res1_branch1_sub1_conv3"
 type: "Convolution" 
 bottom: "hourglass1_branch1_res1_branch1_sub1_relu3" 
 top: "hourglass1_branch1_res1_branch1_sub1_conv3" 
  param {
 	 lr_mult: 1
 	 decay_mult: 1
 }
 param {
 	 lr_mult: 2
 	 decay_mult: 0
 }
 convolution_param { 
 num_output: 128
 pad: 1
 kernel_size: 3
 stride:1
 weight_filler { 
 type: "gaussian"
 std: 0.01
 }
 bias_filler {
 type: "constant"
 }
 }
 }
layer {
 name: "hourglass1_branch1_res1_branch1_sub2_bn1"
 type: "BatchNorm" 
 bottom: "hourglass1_pooling" 
 top: "hourglass1_branch1_res1_branch1_sub2_bn1" 
 param { 
 lr_mult: 0 
 } 
 param { 
 lr_mult: 0 
 } 
 param { 
 lr_mult: 0 
 } 
 batch_norm_param { 
    use_global_stats: false
 } 
 include { 
  phase: TRAIN 
 } 
}
layer {
 name: "hourglass1_branch1_res1_branch1_sub2_bn1"
 type: "BatchNorm" 
 bottom: "hourglass1_pooling" 
 top: "hourglass1_branch1_res1_branch1_sub2_bn1" 
 param { 
 lr_mult: 0 
 } 
 param { 
 lr_mult: 0 
 } 
 param { 
 lr_mult: 0 
 } 
 batch_norm_param { 
    use_global_stats: false
 } 
 include { 
  phase: TEST 
 } 
}
layer {
 name: "hourglass1_branch1_res1_branch1_sub2_scale1"
 type: "Scale" 
 bottom: "hourglass1_branch1_res1_branch1_sub2_bn1" 
 top: "hourglass1_branch1_res1_branch1_sub2_scale1" 
 scale_param { 
 bias_term: true 
 } 
 }
layer {
 name: "hourglass1_branch1_res1_branch1_sub2_relu1"
 type: "ReLU" 
 bottom: "hourglass1_branch1_res1_branch1_sub2_scale1" 
 top: "hourglass1_branch1_res1_branch1_sub2_relu1" 
}
layer {
 name: "hourglass1_branch1_res1_branch1_sub2_conv1"
 type: "Convolution" 
 bottom: "hourglass1_branch1_res1_branch1_sub2_relu1" 
 top: "hourglass1_branch1_res1_branch1_sub2_conv1" 
  param {
 	 lr_mult: 1
 	 decay_mult: 1
 }
 param {
 	 lr_mult: 2
 	 decay_mult: 0
 }
 convolution_param { 
 num_output: 128
 pad: 0
 kernel_size: 1
 stride:1
 weight_filler { 
 type: "gaussian"
 std: 0.01
 }
 bias_filler {
 type: "constant"
 }
 }
 }
layer {
 name: "hourglass1_branch1_res1_branch1_sub2_bn2"
 type: "BatchNorm" 
 bottom: "hourglass1_branch1_res1_branch1_sub2_conv1" 
 top: "hourglass1_branch1_res1_branch1_sub2_bn2" 
 param { 
 lr_mult: 0 
 } 
 param { 
 lr_mult: 0 
 } 
 param { 
 lr_mult: 0 
 } 
 batch_norm_param { 
    use_global_stats: false
 } 
 include { 
  phase: TRAIN 
 } 
}
layer {
 name: "hourglass1_branch1_res1_branch1_sub2_bn2"
 type: "BatchNorm" 
 bottom: "hourglass1_branch1_res1_branch1_sub2_conv1" 
 top: "hourglass1_branch1_res1_branch1_sub2_bn2" 
 param { 
 lr_mult: 0 
 } 
 param { 
 lr_mult: 0 
 } 
 param { 
 lr_mult: 0 
 } 
 batch_norm_param { 
    use_global_stats: false
 } 
 include { 
  phase: TEST 
 } 
}
layer {
 name: "hourglass1_branch1_res1_branch1_sub2_scale2"
 type: "Scale" 
 bottom: "hourglass1_branch1_res1_branch1_sub2_bn2" 
 top: "hourglass1_branch1_res1_branch1_sub2_scale2" 
 scale_param { 
 bias_term: true 
 } 
 }
layer {
 name: "hourglass1_branch1_res1_branch1_sub2_relu2"
 type: "ReLU" 
 bottom: "hourglass1_branch1_res1_branch1_sub2_scale2" 
 top: "hourglass1_branch1_res1_branch1_sub2_relu2" 
}
layer {
 name: "hourglass1_branch1_res1_branch1_sub2_conv2"
 type: "Convolution" 
 bottom: "hourglass1_branch1_res1_branch1_sub2_relu2" 
 top: "hourglass1_branch1_res1_branch1_sub2_conv2" 
  param {
 	 lr_mult: 1
 	 decay_mult: 1
 }
 param {
 	 lr_mult: 2
 	 decay_mult: 0
 }
 convolution_param { 
 num_output: 128
 pad: 1
 kernel_size: 3
 stride:1
 weight_filler { 
 type: "gaussian"
 std: 0.01
 }
 bias_filler {
 type: "constant"
 }
 }
 }
layer {
 name: "hourglass1_branch1_res1_branch1_concat"
 type: "Concat" 
 bottom: "hourglass1_branch1_res1_branch1_sub1_conv3" 
 top: "hourglass1_branch1_res1_branch1_concat" 
 bottom: "hourglass1_branch1_res1_branch1_sub2_conv2"
 concat_param { 
 axis: 1
 } 
}
layer {
 name: "hourglass1_branch1_res1_branch1_conv_linear"
 type: "Convolution" 
 bottom: "hourglass1_branch1_res1_branch1_concat" 
 top: "hourglass1_branch1_res1_branch1_conv_linear" 
  param {
 	 lr_mult: 1
 	 decay_mult: 1
 }
 param {
 	 lr_mult: 2
 	 decay_mult: 0
 }
 convolution_param { 
 num_output: 256
 pad: 0
 kernel_size: 1
 stride:1
 weight_filler { 
 type: "gaussian"
 std: 0.01
 }
 bias_filler {
 type: "constant"
 }
 }
 }
layer {
 name: "hourglass1_branch1_res1_branch1_linear_batch"
 type: "BatchNorm" 
 bottom: "hourglass1_branch1_res1_branch1_conv_linear" 
 top: "hourglass1_branch1_res1_branch1_linear_batch" 
 param { 
 lr_mult: 0 
 } 
 param { 
 lr_mult: 0 
 } 
 param { 
 lr_mult: 0 
 } 
 batch_norm_param { 
    use_global_stats: false
 } 
 include { 
  phase: TRAIN 
 } 
}
layer {
 name: "hourglass1_branch1_res1_branch1_linear_batch"
 type: "BatchNorm" 
 bottom: "hourglass1_branch1_res1_branch1_conv_linear" 
 top: "hourglass1_branch1_res1_branch1_linear_batch" 
 param { 
 lr_mult: 0 
 } 
 param { 
 lr_mult: 0 
 } 
 param { 
 lr_mult: 0 
 } 
 batch_norm_param { 
    use_global_stats: false
 } 
 include { 
  phase: TEST 
 } 
}
layer {
 name: "hourglass1_branch1_res1_branch1_linear_scale"
 type: "Scale" 
 bottom: "hourglass1_branch1_res1_branch1_linear_batch" 
 top: "hourglass1_branch1_res1_branch1_linear_scale" 
 scale_param { 
 bias_term: true 
 } 
 }
layer {
 name: "hourglass1_branch1_res1_branch2_conv"
 type: "Convolution" 
 bottom: "hourglass1_pooling" 
 top: "hourglass1_branch1_res1_branch2_conv" 
  param {
 	 lr_mult: 1
 	 decay_mult: 1
 }
 param {
 	 lr_mult: 2
 	 decay_mult: 0
 }
 convolution_param { 
 num_output: 256
 pad: 0
 kernel_size: 1
 stride:1
 weight_filler { 
 type: "gaussian"
 std: 0.01
 }
 bias_filler {
 type: "constant"
 }
 }
 }
layer {
 name: "hourglass1_branch1_res1"
 type: "Eltwise" 
 bottom: "hourglass1_branch1_res1_branch1_linear_scale" 
 top: "hourglass1_branch1_res1" 
 bottom: "hourglass1_branch1_res1_branch2_conv" 
 eltwise_param { 
 operation: SUM 
 } 
 }
layer {
 name: "hourglass1_branch1_res2_branch1_sub1_bn1"
 type: "BatchNorm" 
 bottom: "hourglass1_branch1_res1" 
 top: "hourglass1_branch1_res2_branch1_sub1_bn1" 
 param { 
 lr_mult: 0 
 } 
 param { 
 lr_mult: 0 
 } 
 param { 
 lr_mult: 0 
 } 
 batch_norm_param { 
    use_global_stats: false
 } 
 include { 
  phase: TRAIN 
 } 
}
layer {
 name: "hourglass1_branch1_res2_branch1_sub1_bn1"
 type: "BatchNorm" 
 bottom: "hourglass1_branch1_res1" 
 top: "hourglass1_branch1_res2_branch1_sub1_bn1" 
 param { 
 lr_mult: 0 
 } 
 param { 
 lr_mult: 0 
 } 
 param { 
 lr_mult: 0 
 } 
 batch_norm_param { 
    use_global_stats: false
 } 
 include { 
  phase: TEST 
 } 
}
layer {
 name: "hourglass1_branch1_res2_branch1_sub1_scale1"
 type: "Scale" 
 bottom: "hourglass1_branch1_res2_branch1_sub1_bn1" 
 top: "hourglass1_branch1_res2_branch1_sub1_scale1" 
 scale_param { 
 bias_term: true 
 } 
 }
layer {
 name: "hourglass1_branch1_res2_branch1_sub1_relu1"
 type: "ReLU" 
 bottom: "hourglass1_branch1_res2_branch1_sub1_scale1" 
 top: "hourglass1_branch1_res2_branch1_sub1_relu1" 
}
layer {
 name: "hourglass1_branch1_res2_branch1_sub1_conv1"
 type: "Convolution" 
 bottom: "hourglass1_branch1_res2_branch1_sub1_relu1" 
 top: "hourglass1_branch1_res2_branch1_sub1_conv1" 
  param {
 	 lr_mult: 1
 	 decay_mult: 1
 }
 param {
 	 lr_mult: 2
 	 decay_mult: 0
 }
 convolution_param { 
 num_output: 128
 pad: 0
 kernel_size: 1
 stride:1
 weight_filler { 
 type: "gaussian"
 std: 0.01
 }
 bias_filler {
 type: "constant"
 }
 }
 }
layer {
 name: "hourglass1_branch1_res2_branch1_sub1_bn2"
 type: "BatchNorm" 
 bottom: "hourglass1_branch1_res2_branch1_sub1_conv1" 
 top: "hourglass1_branch1_res2_branch1_sub1_bn2" 
 param { 
 lr_mult: 0 
 } 
 param { 
 lr_mult: 0 
 } 
 param { 
 lr_mult: 0 
 } 
 batch_norm_param { 
    use_global_stats: false
 } 
 include { 
  phase: TRAIN 
 } 
}
layer {
 name: "hourglass1_branch1_res2_branch1_sub1_bn2"
 type: "BatchNorm" 
 bottom: "hourglass1_branch1_res2_branch1_sub1_conv1" 
 top: "hourglass1_branch1_res2_branch1_sub1_bn2" 
 param { 
 lr_mult: 0 
 } 
 param { 
 lr_mult: 0 
 } 
 param { 
 lr_mult: 0 
 } 
 batch_norm_param { 
    use_global_stats: false
 } 
 include { 
  phase: TEST 
 } 
}
layer {
 name: "hourglass1_branch1_res2_branch1_sub1_scale2"
 type: "Scale" 
 bottom: "hourglass1_branch1_res2_branch1_sub1_bn2" 
 top: "hourglass1_branch1_res2_branch1_sub1_scale2" 
 scale_param { 
 bias_term: true 
 } 
 }
layer {
 name: "hourglass1_branch1_res2_branch1_sub1_relu2"
 type: "ReLU" 
 bottom: "hourglass1_branch1_res2_branch1_sub1_scale2" 
 top: "hourglass1_branch1_res2_branch1_sub1_relu2" 
}
layer {
 name: "hourglass1_branch1_res2_branch1_sub1_conv2"
 type: "Convolution" 
 bottom: "hourglass1_branch1_res2_branch1_sub1_relu2" 
 top: "hourglass1_branch1_res2_branch1_sub1_conv2" 
  param {
 	 lr_mult: 1
 	 decay_mult: 1
 }
 param {
 	 lr_mult: 2
 	 decay_mult: 0
 }
 convolution_param { 
 num_output: 128
 pad: 1
 kernel_size: 3
 stride:1
 weight_filler { 
 type: "gaussian"
 std: 0.01
 }
 bias_filler {
 type: "constant"
 }
 }
 }
layer {
 name: "hourglass1_branch1_res2_branch1_sub1_bn3"
 type: "BatchNorm" 
 bottom: "hourglass1_branch1_res2_branch1_sub1_conv2" 
 top: "hourglass1_branch1_res2_branch1_sub1_bn3" 
 param { 
 lr_mult: 0 
 } 
 param { 
 lr_mult: 0 
 } 
 param { 
 lr_mult: 0 
 } 
 batch_norm_param { 
    use_global_stats: false
 } 
 include { 
  phase: TRAIN 
 } 
}
layer {
 name: "hourglass1_branch1_res2_branch1_sub1_bn3"
 type: "BatchNorm" 
 bottom: "hourglass1_branch1_res2_branch1_sub1_conv2" 
 top: "hourglass1_branch1_res2_branch1_sub1_bn3" 
 param { 
 lr_mult: 0 
 } 
 param { 
 lr_mult: 0 
 } 
 param { 
 lr_mult: 0 
 } 
 batch_norm_param { 
    use_global_stats: false
 } 
 include { 
  phase: TEST 
 } 
}
layer {
 name: "hourglass1_branch1_res2_branch1_sub1_scale3"
 type: "Scale" 
 bottom: "hourglass1_branch1_res2_branch1_sub1_bn3" 
 top: "hourglass1_branch1_res2_branch1_sub1_scale3" 
 scale_param { 
 bias_term: true 
 } 
 }
layer {
 name: "hourglass1_branch1_res2_branch1_sub1_relu3"
 type: "ReLU" 
 bottom: "hourglass1_branch1_res2_branch1_sub1_scale3" 
 top: "hourglass1_branch1_res2_branch1_sub1_relu3" 
}
layer {
 name: "hourglass1_branch1_res2_branch1_sub1_conv3"
 type: "Convolution" 
 bottom: "hourglass1_branch1_res2_branch1_sub1_relu3" 
 top: "hourglass1_branch1_res2_branch1_sub1_conv3" 
  param {
 	 lr_mult: 1
 	 decay_mult: 1
 }
 param {
 	 lr_mult: 2
 	 decay_mult: 0
 }
 convolution_param { 
 num_output: 128
 pad: 1
 kernel_size: 3
 stride:1
 weight_filler { 
 type: "gaussian"
 std: 0.01
 }
 bias_filler {
 type: "constant"
 }
 }
 }
layer {
 name: "hourglass1_branch1_res2_branch1_sub2_bn1"
 type: "BatchNorm" 
 bottom: "hourglass1_branch1_res1" 
 top: "hourglass1_branch1_res2_branch1_sub2_bn1" 
 param { 
 lr_mult: 0 
 } 
 param { 
 lr_mult: 0 
 } 
 param { 
 lr_mult: 0 
 } 
 batch_norm_param { 
    use_global_stats: false
 } 
 include { 
  phase: TRAIN 
 } 
}
layer {
 name: "hourglass1_branch1_res2_branch1_sub2_bn1"
 type: "BatchNorm" 
 bottom: "hourglass1_branch1_res1" 
 top: "hourglass1_branch1_res2_branch1_sub2_bn1" 
 param { 
 lr_mult: 0 
 } 
 param { 
 lr_mult: 0 
 } 
 param { 
 lr_mult: 0 
 } 
 batch_norm_param { 
    use_global_stats: false
 } 
 include { 
  phase: TEST 
 } 
}
layer {
 name: "hourglass1_branch1_res2_branch1_sub2_scale1"
 type: "Scale" 
 bottom: "hourglass1_branch1_res2_branch1_sub2_bn1" 
 top: "hourglass1_branch1_res2_branch1_sub2_scale1" 
 scale_param { 
 bias_term: true 
 } 
 }
layer {
 name: "hourglass1_branch1_res2_branch1_sub2_relu1"
 type: "ReLU" 
 bottom: "hourglass1_branch1_res2_branch1_sub2_scale1" 
 top: "hourglass1_branch1_res2_branch1_sub2_relu1" 
}
layer {
 name: "hourglass1_branch1_res2_branch1_sub2_conv1"
 type: "Convolution" 
 bottom: "hourglass1_branch1_res2_branch1_sub2_relu1" 
 top: "hourglass1_branch1_res2_branch1_sub2_conv1" 
  param {
 	 lr_mult: 1
 	 decay_mult: 1
 }
 param {
 	 lr_mult: 2
 	 decay_mult: 0
 }
 convolution_param { 
 num_output: 128
 pad: 0
 kernel_size: 1
 stride:1
 weight_filler { 
 type: "gaussian"
 std: 0.01
 }
 bias_filler {
 type: "constant"
 }
 }
 }
layer {
 name: "hourglass1_branch1_res2_branch1_sub2_bn2"
 type: "BatchNorm" 
 bottom: "hourglass1_branch1_res2_branch1_sub2_conv1" 
 top: "hourglass1_branch1_res2_branch1_sub2_bn2" 
 param { 
 lr_mult: 0 
 } 
 param { 
 lr_mult: 0 
 } 
 param { 
 lr_mult: 0 
 } 
 batch_norm_param { 
    use_global_stats: false
 } 
 include { 
  phase: TRAIN 
 } 
}
layer {
 name: "hourglass1_branch1_res2_branch1_sub2_bn2"
 type: "BatchNorm" 
 bottom: "hourglass1_branch1_res2_branch1_sub2_conv1" 
 top: "hourglass1_branch1_res2_branch1_sub2_bn2" 
 param { 
 lr_mult: 0 
 } 
 param { 
 lr_mult: 0 
 } 
 param { 
 lr_mult: 0 
 } 
 batch_norm_param { 
    use_global_stats: false
 } 
 include { 
  phase: TEST 
 } 
}
layer {
 name: "hourglass1_branch1_res2_branch1_sub2_scale2"
 type: "Scale" 
 bottom: "hourglass1_branch1_res2_branch1_sub2_bn2" 
 top: "hourglass1_branch1_res2_branch1_sub2_scale2" 
 scale_param { 
 bias_term: true 
 } 
 }
layer {
 name: "hourglass1_branch1_res2_branch1_sub2_relu2"
 type: "ReLU" 
 bottom: "hourglass1_branch1_res2_branch1_sub2_scale2" 
 top: "hourglass1_branch1_res2_branch1_sub2_relu2" 
}
layer {
 name: "hourglass1_branch1_res2_branch1_sub2_conv2"
 type: "Convolution" 
 bottom: "hourglass1_branch1_res2_branch1_sub2_relu2" 
 top: "hourglass1_branch1_res2_branch1_sub2_conv2" 
  param {
 	 lr_mult: 1
 	 decay_mult: 1
 }
 param {
 	 lr_mult: 2
 	 decay_mult: 0
 }
 convolution_param { 
 num_output: 128
 pad: 1
 kernel_size: 3
 stride:1
 weight_filler { 
 type: "gaussian"
 std: 0.01
 }
 bias_filler {
 type: "constant"
 }
 }
 }
layer {
 name: "hourglass1_branch1_res2_branch1_concat"
 type: "Concat" 
 bottom: "hourglass1_branch1_res2_branch1_sub1_conv3" 
 top: "hourglass1_branch1_res2_branch1_concat" 
 bottom: "hourglass1_branch1_res2_branch1_sub2_conv2"
 concat_param { 
 axis: 1
 } 
}
layer {
 name: "hourglass1_branch1_res2_branch1_conv_linear"
 type: "Convolution" 
 bottom: "hourglass1_branch1_res2_branch1_concat" 
 top: "hourglass1_branch1_res2_branch1_conv_linear" 
  param {
 	 lr_mult: 1
 	 decay_mult: 1
 }
 param {
 	 lr_mult: 2
 	 decay_mult: 0
 }
 convolution_param { 
 num_output: 256
 pad: 0
 kernel_size: 1
 stride:1
 weight_filler { 
 type: "gaussian"
 std: 0.01
 }
 bias_filler {
 type: "constant"
 }
 }
 }
layer {
 name: "hourglass1_branch1_res2_branch1_linear_batch"
 type: "BatchNorm" 
 bottom: "hourglass1_branch1_res2_branch1_conv_linear" 
 top: "hourglass1_branch1_res2_branch1_linear_batch" 
 param { 
 lr_mult: 0 
 } 
 param { 
 lr_mult: 0 
 } 
 param { 
 lr_mult: 0 
 } 
 batch_norm_param { 
    use_global_stats: false
 } 
 include { 
  phase: TRAIN 
 } 
}
layer {
 name: "hourglass1_branch1_res2_branch1_linear_batch"
 type: "BatchNorm" 
 bottom: "hourglass1_branch1_res2_branch1_conv_linear" 
 top: "hourglass1_branch1_res2_branch1_linear_batch" 
 param { 
 lr_mult: 0 
 } 
 param { 
 lr_mult: 0 
 } 
 param { 
 lr_mult: 0 
 } 
 batch_norm_param { 
    use_global_stats: false
 } 
 include { 
  phase: TEST 
 } 
}
layer {
 name: "hourglass1_branch1_res2_branch1_linear_scale"
 type: "Scale" 
 bottom: "hourglass1_branch1_res2_branch1_linear_batch" 
 top: "hourglass1_branch1_res2_branch1_linear_scale" 
 scale_param { 
 bias_term: true 
 } 
 }
layer {
 name: "hourglass1_branch1_res2_branch2_conv"
 type: "Convolution" 
 bottom: "hourglass1_branch1_res1" 
 top: "hourglass1_branch1_res2_branch2_conv" 
  param {
 	 lr_mult: 1
 	 decay_mult: 1
 }
 param {
 	 lr_mult: 2
 	 decay_mult: 0
 }
 convolution_param { 
 num_output: 256
 pad: 0
 kernel_size: 1
 stride:1
 weight_filler { 
 type: "gaussian"
 std: 0.01
 }
 bias_filler {
 type: "constant"
 }
 }
 }
layer {
 name: "hourglass1_branch1_res2"
 type: "Eltwise" 
 bottom: "hourglass1_branch1_res2_branch1_linear_scale" 
 top: "hourglass1_branch1_res2" 
 bottom: "hourglass1_branch1_res2_branch2_conv" 
 eltwise_param { 
 operation: SUM 
 } 
 }
layer {
 name: "hourglass1_branch1_res3_branch1_sub1_bn1"
 type: "BatchNorm" 
 bottom: "hourglass1_branch1_res2" 
 top: "hourglass1_branch1_res3_branch1_sub1_bn1" 
 param { 
 lr_mult: 0 
 } 
 param { 
 lr_mult: 0 
 } 
 param { 
 lr_mult: 0 
 } 
 batch_norm_param { 
    use_global_stats: false
 } 
 include { 
  phase: TRAIN 
 } 
}
layer {
 name: "hourglass1_branch1_res3_branch1_sub1_bn1"
 type: "BatchNorm" 
 bottom: "hourglass1_branch1_res2" 
 top: "hourglass1_branch1_res3_branch1_sub1_bn1" 
 param { 
 lr_mult: 0 
 } 
 param { 
 lr_mult: 0 
 } 
 param { 
 lr_mult: 0 
 } 
 batch_norm_param { 
    use_global_stats: false
 } 
 include { 
  phase: TEST 
 } 
}
layer {
 name: "hourglass1_branch1_res3_branch1_sub1_scale1"
 type: "Scale" 
 bottom: "hourglass1_branch1_res3_branch1_sub1_bn1" 
 top: "hourglass1_branch1_res3_branch1_sub1_scale1" 
 scale_param { 
 bias_term: true 
 } 
 }
layer {
 name: "hourglass1_branch1_res3_branch1_sub1_relu1"
 type: "ReLU" 
 bottom: "hourglass1_branch1_res3_branch1_sub1_scale1" 
 top: "hourglass1_branch1_res3_branch1_sub1_relu1" 
}
layer {
 name: "hourglass1_branch1_res3_branch1_sub1_conv1"
 type: "Convolution" 
 bottom: "hourglass1_branch1_res3_branch1_sub1_relu1" 
 top: "hourglass1_branch1_res3_branch1_sub1_conv1" 
  param {
 	 lr_mult: 1
 	 decay_mult: 1
 }
 param {
 	 lr_mult: 2
 	 decay_mult: 0
 }
 convolution_param { 
 num_output: 128
 pad: 0
 kernel_size: 1
 stride:1
 weight_filler { 
 type: "gaussian"
 std: 0.01
 }
 bias_filler {
 type: "constant"
 }
 }
 }
layer {
 name: "hourglass1_branch1_res3_branch1_sub1_bn2"
 type: "BatchNorm" 
 bottom: "hourglass1_branch1_res3_branch1_sub1_conv1" 
 top: "hourglass1_branch1_res3_branch1_sub1_bn2" 
 param { 
 lr_mult: 0 
 } 
 param { 
 lr_mult: 0 
 } 
 param { 
 lr_mult: 0 
 } 
 batch_norm_param { 
    use_global_stats: false
 } 
 include { 
  phase: TRAIN 
 } 
}
layer {
 name: "hourglass1_branch1_res3_branch1_sub1_bn2"
 type: "BatchNorm" 
 bottom: "hourglass1_branch1_res3_branch1_sub1_conv1" 
 top: "hourglass1_branch1_res3_branch1_sub1_bn2" 
 param { 
 lr_mult: 0 
 } 
 param { 
 lr_mult: 0 
 } 
 param { 
 lr_mult: 0 
 } 
 batch_norm_param { 
    use_global_stats: false
 } 
 include { 
  phase: TEST 
 } 
}
layer {
 name: "hourglass1_branch1_res3_branch1_sub1_scale2"
 type: "Scale" 
 bottom: "hourglass1_branch1_res3_branch1_sub1_bn2" 
 top: "hourglass1_branch1_res3_branch1_sub1_scale2" 
 scale_param { 
 bias_term: true 
 } 
 }
layer {
 name: "hourglass1_branch1_res3_branch1_sub1_relu2"
 type: "ReLU" 
 bottom: "hourglass1_branch1_res3_branch1_sub1_scale2" 
 top: "hourglass1_branch1_res3_branch1_sub1_relu2" 
}
layer {
 name: "hourglass1_branch1_res3_branch1_sub1_conv2"
 type: "Convolution" 
 bottom: "hourglass1_branch1_res3_branch1_sub1_relu2" 
 top: "hourglass1_branch1_res3_branch1_sub1_conv2" 
  param {
 	 lr_mult: 1
 	 decay_mult: 1
 }
 param {
 	 lr_mult: 2
 	 decay_mult: 0
 }
 convolution_param { 
 num_output: 128
 pad: 1
 kernel_size: 3
 stride:1
 weight_filler { 
 type: "gaussian"
 std: 0.01
 }
 bias_filler {
 type: "constant"
 }
 }
 }
layer {
 name: "hourglass1_branch1_res3_branch1_sub1_bn3"
 type: "BatchNorm" 
 bottom: "hourglass1_branch1_res3_branch1_sub1_conv2" 
 top: "hourglass1_branch1_res3_branch1_sub1_bn3" 
 param { 
 lr_mult: 0 
 } 
 param { 
 lr_mult: 0 
 } 
 param { 
 lr_mult: 0 
 } 
 batch_norm_param { 
    use_global_stats: false
 } 
 include { 
  phase: TRAIN 
 } 
}
layer {
 name: "hourglass1_branch1_res3_branch1_sub1_bn3"
 type: "BatchNorm" 
 bottom: "hourglass1_branch1_res3_branch1_sub1_conv2" 
 top: "hourglass1_branch1_res3_branch1_sub1_bn3" 
 param { 
 lr_mult: 0 
 } 
 param { 
 lr_mult: 0 
 } 
 param { 
 lr_mult: 0 
 } 
 batch_norm_param { 
    use_global_stats: false
 } 
 include { 
  phase: TEST 
 } 
}
layer {
 name: "hourglass1_branch1_res3_branch1_sub1_scale3"
 type: "Scale" 
 bottom: "hourglass1_branch1_res3_branch1_sub1_bn3" 
 top: "hourglass1_branch1_res3_branch1_sub1_scale3" 
 scale_param { 
 bias_term: true 
 } 
 }
layer {
 name: "hourglass1_branch1_res3_branch1_sub1_relu3"
 type: "ReLU" 
 bottom: "hourglass1_branch1_res3_branch1_sub1_scale3" 
 top: "hourglass1_branch1_res3_branch1_sub1_relu3" 
}
layer {
 name: "hourglass1_branch1_res3_branch1_sub1_conv3"
 type: "Convolution" 
 bottom: "hourglass1_branch1_res3_branch1_sub1_relu3" 
 top: "hourglass1_branch1_res3_branch1_sub1_conv3" 
  param {
 	 lr_mult: 1
 	 decay_mult: 1
 }
 param {
 	 lr_mult: 2
 	 decay_mult: 0
 }
 convolution_param { 
 num_output: 128
 pad: 1
 kernel_size: 3
 stride:1
 weight_filler { 
 type: "gaussian"
 std: 0.01
 }
 bias_filler {
 type: "constant"
 }
 }
 }
layer {
 name: "hourglass1_branch1_res3_branch1_sub2_bn1"
 type: "BatchNorm" 
 bottom: "hourglass1_branch1_res2" 
 top: "hourglass1_branch1_res3_branch1_sub2_bn1" 
 param { 
 lr_mult: 0 
 } 
 param { 
 lr_mult: 0 
 } 
 param { 
 lr_mult: 0 
 } 
 batch_norm_param { 
    use_global_stats: false
 } 
 include { 
  phase: TRAIN 
 } 
}
layer {
 name: "hourglass1_branch1_res3_branch1_sub2_bn1"
 type: "BatchNorm" 
 bottom: "hourglass1_branch1_res2" 
 top: "hourglass1_branch1_res3_branch1_sub2_bn1" 
 param { 
 lr_mult: 0 
 } 
 param { 
 lr_mult: 0 
 } 
 param { 
 lr_mult: 0 
 } 
 batch_norm_param { 
    use_global_stats: false
 } 
 include { 
  phase: TEST 
 } 
}
layer {
 name: "hourglass1_branch1_res3_branch1_sub2_scale1"
 type: "Scale" 
 bottom: "hourglass1_branch1_res3_branch1_sub2_bn1" 
 top: "hourglass1_branch1_res3_branch1_sub2_scale1" 
 scale_param { 
 bias_term: true 
 } 
 }
layer {
 name: "hourglass1_branch1_res3_branch1_sub2_relu1"
 type: "ReLU" 
 bottom: "hourglass1_branch1_res3_branch1_sub2_scale1" 
 top: "hourglass1_branch1_res3_branch1_sub2_relu1" 
}
layer {
 name: "hourglass1_branch1_res3_branch1_sub2_conv1"
 type: "Convolution" 
 bottom: "hourglass1_branch1_res3_branch1_sub2_relu1" 
 top: "hourglass1_branch1_res3_branch1_sub2_conv1" 
  param {
 	 lr_mult: 1
 	 decay_mult: 1
 }
 param {
 	 lr_mult: 2
 	 decay_mult: 0
 }
 convolution_param { 
 num_output: 128
 pad: 0
 kernel_size: 1
 stride:1
 weight_filler { 
 type: "gaussian"
 std: 0.01
 }
 bias_filler {
 type: "constant"
 }
 }
 }
layer {
 name: "hourglass1_branch1_res3_branch1_sub2_bn2"
 type: "BatchNorm" 
 bottom: "hourglass1_branch1_res3_branch1_sub2_conv1" 
 top: "hourglass1_branch1_res3_branch1_sub2_bn2" 
 param { 
 lr_mult: 0 
 } 
 param { 
 lr_mult: 0 
 } 
 param { 
 lr_mult: 0 
 } 
 batch_norm_param { 
    use_global_stats: false
 } 
 include { 
  phase: TRAIN 
 } 
}
layer {
 name: "hourglass1_branch1_res3_branch1_sub2_bn2"
 type: "BatchNorm" 
 bottom: "hourglass1_branch1_res3_branch1_sub2_conv1" 
 top: "hourglass1_branch1_res3_branch1_sub2_bn2" 
 param { 
 lr_mult: 0 
 } 
 param { 
 lr_mult: 0 
 } 
 param { 
 lr_mult: 0 
 } 
 batch_norm_param { 
    use_global_stats: false
 } 
 include { 
  phase: TEST 
 } 
}
layer {
 name: "hourglass1_branch1_res3_branch1_sub2_scale2"
 type: "Scale" 
 bottom: "hourglass1_branch1_res3_branch1_sub2_bn2" 
 top: "hourglass1_branch1_res3_branch1_sub2_scale2" 
 scale_param { 
 bias_term: true 
 } 
 }
layer {
 name: "hourglass1_branch1_res3_branch1_sub2_relu2"
 type: "ReLU" 
 bottom: "hourglass1_branch1_res3_branch1_sub2_scale2" 
 top: "hourglass1_branch1_res3_branch1_sub2_relu2" 
}
layer {
 name: "hourglass1_branch1_res3_branch1_sub2_conv2"
 type: "Convolution" 
 bottom: "hourglass1_branch1_res3_branch1_sub2_relu2" 
 top: "hourglass1_branch1_res3_branch1_sub2_conv2" 
  param {
 	 lr_mult: 1
 	 decay_mult: 1
 }
 param {
 	 lr_mult: 2
 	 decay_mult: 0
 }
 convolution_param { 
 num_output: 128
 pad: 1
 kernel_size: 3
 stride:1
 weight_filler { 
 type: "gaussian"
 std: 0.01
 }
 bias_filler {
 type: "constant"
 }
 }
 }
layer {
 name: "hourglass1_branch1_res3_branch1_concat"
 type: "Concat" 
 bottom: "hourglass1_branch1_res3_branch1_sub1_conv3" 
 top: "hourglass1_branch1_res3_branch1_concat" 
 bottom: "hourglass1_branch1_res3_branch1_sub2_conv2"
 concat_param { 
 axis: 1
 } 
}
layer {
 name: "hourglass1_branch1_res3_branch1_conv_linear"
 type: "Convolution" 
 bottom: "hourglass1_branch1_res3_branch1_concat" 
 top: "hourglass1_branch1_res3_branch1_conv_linear" 
  param {
 	 lr_mult: 1
 	 decay_mult: 1
 }
 param {
 	 lr_mult: 2
 	 decay_mult: 0
 }
 convolution_param { 
 num_output: 256
 pad: 0
 kernel_size: 1
 stride:1
 weight_filler { 
 type: "gaussian"
 std: 0.01
 }
 bias_filler {
 type: "constant"
 }
 }
 }
layer {
 name: "hourglass1_branch1_res3_branch1_linear_batch"
 type: "BatchNorm" 
 bottom: "hourglass1_branch1_res3_branch1_conv_linear" 
 top: "hourglass1_branch1_res3_branch1_linear_batch" 
 param { 
 lr_mult: 0 
 } 
 param { 
 lr_mult: 0 
 } 
 param { 
 lr_mult: 0 
 } 
 batch_norm_param { 
    use_global_stats: false
 } 
 include { 
  phase: TRAIN 
 } 
}
layer {
 name: "hourglass1_branch1_res3_branch1_linear_batch"
 type: "BatchNorm" 
 bottom: "hourglass1_branch1_res3_branch1_conv_linear" 
 top: "hourglass1_branch1_res3_branch1_linear_batch" 
 param { 
 lr_mult: 0 
 } 
 param { 
 lr_mult: 0 
 } 
 param { 
 lr_mult: 0 
 } 
 batch_norm_param { 
    use_global_stats: false
 } 
 include { 
  phase: TEST 
 } 
}
layer {
 name: "hourglass1_branch1_res3_branch1_linear_scale"
 type: "Scale" 
 bottom: "hourglass1_branch1_res3_branch1_linear_batch" 
 top: "hourglass1_branch1_res3_branch1_linear_scale" 
 scale_param { 
 bias_term: true 
 } 
 }
layer {
 name: "hourglass1_branch1_res3_branch2_conv"
 type: "Convolution" 
 bottom: "hourglass1_branch1_res2" 
 top: "hourglass1_branch1_res3_branch2_conv" 
  param {
 	 lr_mult: 1
 	 decay_mult: 1
 }
 param {
 	 lr_mult: 2
 	 decay_mult: 0
 }
 convolution_param { 
 num_output: 256
 pad: 0
 kernel_size: 1
 stride:1
 weight_filler { 
 type: "gaussian"
 std: 0.01
 }
 bias_filler {
 type: "constant"
 }
 }
 }
layer {
 name: "hourglass1_branch1_res3"
 type: "Eltwise" 
 bottom: "hourglass1_branch1_res3_branch1_linear_scale" 
 top: "hourglass1_branch1_res3" 
 bottom: "hourglass1_branch1_res3_branch2_conv" 
 eltwise_param { 
 operation: SUM 
 } 
 }
layer {
 name: "hourglass1_branch1_level4_pooling"
 type: "Pooling" 
 bottom: "hourglass1_branch1_res3" 
 top: "hourglass1_branch1_level4_pooling" 
 pooling_param { 
 pool: MAX 
 kernel_size: 2 
 stride: 2 
 } 
 }
layer {
 name: "hourglass1_branch1_level4_branch1_res1_branch1_bn1"
 type: "BatchNorm" 
 bottom: "hourglass1_branch1_level4_pooling" 
 top: "hourglass1_branch1_level4_branch1_res1_branch1_bn1" 
 param { 
 lr_mult: 0 
 } 
 param { 
 lr_mult: 0 
 } 
 param { 
 lr_mult: 0 
 } 
 batch_norm_param { 
    use_global_stats: false
 } 
 include { 
  phase: TRAIN 
 } 
}
layer {
 name: "hourglass1_branch1_level4_branch1_res1_branch1_bn1"
 type: "BatchNorm" 
 bottom: "hourglass1_branch1_level4_pooling" 
 top: "hourglass1_branch1_level4_branch1_res1_branch1_bn1" 
 param { 
 lr_mult: 0 
 } 
 param { 
 lr_mult: 0 
 } 
 param { 
 lr_mult: 0 
 } 
 batch_norm_param { 
    use_global_stats: false
 } 
 include { 
  phase: TEST 
 } 
}
layer {
 name: "hourglass1_branch1_level4_branch1_res1_branch1_scale1"
 type: "Scale" 
 bottom: "hourglass1_branch1_level4_branch1_res1_branch1_bn1" 
 top: "hourglass1_branch1_level4_branch1_res1_branch1_scale1" 
 scale_param { 
 bias_term: true 
 } 
 }
layer {
 name: "hourglass1_branch1_level4_branch1_res1_branch1_relu1"
 type: "ReLU" 
 bottom: "hourglass1_branch1_level4_branch1_res1_branch1_scale1" 
 top: "hourglass1_branch1_level4_branch1_res1_branch1_relu1" 
}
layer {
 name: "hourglass1_branch1_level4_branch1_res1_branch1_conv1"
 type: "Convolution" 
 bottom: "hourglass1_branch1_level4_branch1_res1_branch1_relu1" 
 top: "hourglass1_branch1_level4_branch1_res1_branch1_conv1" 
  param {
 	 lr_mult: 1
 	 decay_mult: 1
 }
 param {
 	 lr_mult: 2
 	 decay_mult: 0
 }
 convolution_param { 
 num_output: 128
 pad: 0
 kernel_size: 1
 stride:1
 weight_filler { 
 type: "gaussian"
 std: 0.01
 }
 bias_filler {
 type: "constant"
 }
 }
 }
layer {
 name: "hourglass1_branch1_level4_branch1_res1_branch1_bn2"
 type: "BatchNorm" 
 bottom: "hourglass1_branch1_level4_branch1_res1_branch1_conv1" 
 top: "hourglass1_branch1_level4_branch1_res1_branch1_bn2" 
 param { 
 lr_mult: 0 
 } 
 param { 
 lr_mult: 0 
 } 
 param { 
 lr_mult: 0 
 } 
 batch_norm_param { 
    use_global_stats: false
 } 
 include { 
  phase: TRAIN 
 } 
}
layer {
 name: "hourglass1_branch1_level4_branch1_res1_branch1_bn2"
 type: "BatchNorm" 
 bottom: "hourglass1_branch1_level4_branch1_res1_branch1_conv1" 
 top: "hourglass1_branch1_level4_branch1_res1_branch1_bn2" 
 param { 
 lr_mult: 0 
 } 
 param { 
 lr_mult: 0 
 } 
 param { 
 lr_mult: 0 
 } 
 batch_norm_param { 
    use_global_stats: false
 } 
 include { 
  phase: TEST 
 } 
}
layer {
 name: "hourglass1_branch1_level4_branch1_res1_branch1_scale2"
 type: "Scale" 
 bottom: "hourglass1_branch1_level4_branch1_res1_branch1_bn2" 
 top: "hourglass1_branch1_level4_branch1_res1_branch1_scale2" 
 scale_param { 
 bias_term: true 
 } 
 }
layer {
 name: "hourglass1_branch1_level4_branch1_res1_branch1_relu2"
 type: "ReLU" 
 bottom: "hourglass1_branch1_level4_branch1_res1_branch1_scale2" 
 top: "hourglass1_branch1_level4_branch1_res1_branch1_relu2" 
}
layer {
 name: "hourglass1_branch1_level4_branch1_res1_branch1_conv2"
 type: "Convolution" 
 bottom: "hourglass1_branch1_level4_branch1_res1_branch1_relu2" 
 top: "hourglass1_branch1_level4_branch1_res1_branch1_conv2" 
  param {
 	 lr_mult: 1
 	 decay_mult: 1
 }
 param {
 	 lr_mult: 2
 	 decay_mult: 0
 }
 convolution_param { 
 num_output: 128
 pad: 1
 kernel_size: 3
 stride:1
 weight_filler { 
 type: "gaussian"
 std: 0.01
 }
 bias_filler {
 type: "constant"
 }
 }
 }
layer {
 name: "hourglass1_branch1_level4_branch1_res1_branch1_bn3"
 type: "BatchNorm" 
 bottom: "hourglass1_branch1_level4_branch1_res1_branch1_conv2" 
 top: "hourglass1_branch1_level4_branch1_res1_branch1_bn3" 
 param { 
 lr_mult: 0 
 } 
 param { 
 lr_mult: 0 
 } 
 param { 
 lr_mult: 0 
 } 
 batch_norm_param { 
    use_global_stats: false
 } 
 include { 
  phase: TRAIN 
 } 
}
layer {
 name: "hourglass1_branch1_level4_branch1_res1_branch1_bn3"
 type: "BatchNorm" 
 bottom: "hourglass1_branch1_level4_branch1_res1_branch1_conv2" 
 top: "hourglass1_branch1_level4_branch1_res1_branch1_bn3" 
 param { 
 lr_mult: 0 
 } 
 param { 
 lr_mult: 0 
 } 
 param { 
 lr_mult: 0 
 } 
 batch_norm_param { 
    use_global_stats: false
 } 
 include { 
  phase: TEST 
 } 
}
layer {
 name: "hourglass1_branch1_level4_branch1_res1_branch1_scale3"
 type: "Scale" 
 bottom: "hourglass1_branch1_level4_branch1_res1_branch1_bn3" 
 top: "hourglass1_branch1_level4_branch1_res1_branch1_scale3" 
 scale_param { 
 bias_term: true 
 } 
 }
layer {
 name: "hourglass1_branch1_level4_branch1_res1_branch1_relu3"
 type: "ReLU" 
 bottom: "hourglass1_branch1_level4_branch1_res1_branch1_scale3" 
 top: "hourglass1_branch1_level4_branch1_res1_branch1_relu3" 
}
layer {
 name: "hourglass1_branch1_level4_branch1_res1_branch1_conv3"
 type: "Convolution" 
 bottom: "hourglass1_branch1_level4_branch1_res1_branch1_relu3" 
 top: "hourglass1_branch1_level4_branch1_res1_branch1_conv3" 
  param {
 	 lr_mult: 1
 	 decay_mult: 1
 }
 param {
 	 lr_mult: 2
 	 decay_mult: 0
 }
 convolution_param { 
 num_output: 256
 pad: 0
 kernel_size: 1
 stride:1
 weight_filler { 
 type: "gaussian"
 std: 0.01
 }
 bias_filler {
 type: "constant"
 }
 }
 }
layer {
 name: "hourglass1_branch1_level4_branch1_res1_branch2_conv"
 type: "Convolution" 
 bottom: "hourglass1_branch1_level4_pooling" 
 top: "hourglass1_branch1_level4_branch1_res1_branch2_conv" 
  param {
 	 lr_mult: 1
 	 decay_mult: 1
 }
 param {
 	 lr_mult: 2
 	 decay_mult: 0
 }
 convolution_param { 
 num_output: 256
 pad: 0
 kernel_size: 1
 stride:1
 weight_filler { 
 type: "gaussian"
 std: 0.01
 }
 bias_filler {
 type: "constant"
 }
 }
 }
layer {
 name: "hourglass1_branch1_level4_branch1_res1"
 type: "Eltwise" 
 bottom: "hourglass1_branch1_level4_branch1_res1_branch1_conv3" 
 top: "hourglass1_branch1_level4_branch1_res1" 
 bottom: "hourglass1_branch1_level4_branch1_res1_branch2_conv" 
 eltwise_param { 
 operation: SUM 
 } 
 }
layer {
 name: "hourglass1_branch1_level4_branch1_res2_branch1_bn1"
 type: "BatchNorm" 
 bottom: "hourglass1_branch1_level4_branch1_res1" 
 top: "hourglass1_branch1_level4_branch1_res2_branch1_bn1" 
 param { 
 lr_mult: 0 
 } 
 param { 
 lr_mult: 0 
 } 
 param { 
 lr_mult: 0 
 } 
 batch_norm_param { 
    use_global_stats: false
 } 
 include { 
  phase: TRAIN 
 } 
}
layer {
 name: "hourglass1_branch1_level4_branch1_res2_branch1_bn1"
 type: "BatchNorm" 
 bottom: "hourglass1_branch1_level4_branch1_res1" 
 top: "hourglass1_branch1_level4_branch1_res2_branch1_bn1" 
 param { 
 lr_mult: 0 
 } 
 param { 
 lr_mult: 0 
 } 
 param { 
 lr_mult: 0 
 } 
 batch_norm_param { 
    use_global_stats: false
 } 
 include { 
  phase: TEST 
 } 
}
layer {
 name: "hourglass1_branch1_level4_branch1_res2_branch1_scale1"
 type: "Scale" 
 bottom: "hourglass1_branch1_level4_branch1_res2_branch1_bn1" 
 top: "hourglass1_branch1_level4_branch1_res2_branch1_scale1" 
 scale_param { 
 bias_term: true 
 } 
 }
layer {
 name: "hourglass1_branch1_level4_branch1_res2_branch1_relu1"
 type: "ReLU" 
 bottom: "hourglass1_branch1_level4_branch1_res2_branch1_scale1" 
 top: "hourglass1_branch1_level4_branch1_res2_branch1_relu1" 
}
layer {
 name: "hourglass1_branch1_level4_branch1_res2_branch1_conv1"
 type: "Convolution" 
 bottom: "hourglass1_branch1_level4_branch1_res2_branch1_relu1" 
 top: "hourglass1_branch1_level4_branch1_res2_branch1_conv1" 
  param {
 	 lr_mult: 1
 	 decay_mult: 1
 }
 param {
 	 lr_mult: 2
 	 decay_mult: 0
 }
 convolution_param { 
 num_output: 128
 pad: 0
 kernel_size: 1
 stride:1
 weight_filler { 
 type: "gaussian"
 std: 0.01
 }
 bias_filler {
 type: "constant"
 }
 }
 }
layer {
 name: "hourglass1_branch1_level4_branch1_res2_branch1_bn2"
 type: "BatchNorm" 
 bottom: "hourglass1_branch1_level4_branch1_res2_branch1_conv1" 
 top: "hourglass1_branch1_level4_branch1_res2_branch1_bn2" 
 param { 
 lr_mult: 0 
 } 
 param { 
 lr_mult: 0 
 } 
 param { 
 lr_mult: 0 
 } 
 batch_norm_param { 
    use_global_stats: false
 } 
 include { 
  phase: TRAIN 
 } 
}
layer {
 name: "hourglass1_branch1_level4_branch1_res2_branch1_bn2"
 type: "BatchNorm" 
 bottom: "hourglass1_branch1_level4_branch1_res2_branch1_conv1" 
 top: "hourglass1_branch1_level4_branch1_res2_branch1_bn2" 
 param { 
 lr_mult: 0 
 } 
 param { 
 lr_mult: 0 
 } 
 param { 
 lr_mult: 0 
 } 
 batch_norm_param { 
    use_global_stats: false
 } 
 include { 
  phase: TEST 
 } 
}
layer {
 name: "hourglass1_branch1_level4_branch1_res2_branch1_scale2"
 type: "Scale" 
 bottom: "hourglass1_branch1_level4_branch1_res2_branch1_bn2" 
 top: "hourglass1_branch1_level4_branch1_res2_branch1_scale2" 
 scale_param { 
 bias_term: true 
 } 
 }
layer {
 name: "hourglass1_branch1_level4_branch1_res2_branch1_relu2"
 type: "ReLU" 
 bottom: "hourglass1_branch1_level4_branch1_res2_branch1_scale2" 
 top: "hourglass1_branch1_level4_branch1_res2_branch1_relu2" 
}
layer {
 name: "hourglass1_branch1_level4_branch1_res2_branch1_conv2"
 type: "Convolution" 
 bottom: "hourglass1_branch1_level4_branch1_res2_branch1_relu2" 
 top: "hourglass1_branch1_level4_branch1_res2_branch1_conv2" 
  param {
 	 lr_mult: 1
 	 decay_mult: 1
 }
 param {
 	 lr_mult: 2
 	 decay_mult: 0
 }
 convolution_param { 
 num_output: 128
 pad: 1
 kernel_size: 3
 stride:1
 weight_filler { 
 type: "gaussian"
 std: 0.01
 }
 bias_filler {
 type: "constant"
 }
 }
 }
layer {
 name: "hourglass1_branch1_level4_branch1_res2_branch1_bn3"
 type: "BatchNorm" 
 bottom: "hourglass1_branch1_level4_branch1_res2_branch1_conv2" 
 top: "hourglass1_branch1_level4_branch1_res2_branch1_bn3" 
 param { 
 lr_mult: 0 
 } 
 param { 
 lr_mult: 0 
 } 
 param { 
 lr_mult: 0 
 } 
 batch_norm_param { 
    use_global_stats: false
 } 
 include { 
  phase: TRAIN 
 } 
}
layer {
 name: "hourglass1_branch1_level4_branch1_res2_branch1_bn3"
 type: "BatchNorm" 
 bottom: "hourglass1_branch1_level4_branch1_res2_branch1_conv2" 
 top: "hourglass1_branch1_level4_branch1_res2_branch1_bn3" 
 param { 
 lr_mult: 0 
 } 
 param { 
 lr_mult: 0 
 } 
 param { 
 lr_mult: 0 
 } 
 batch_norm_param { 
    use_global_stats: false
 } 
 include { 
  phase: TEST 
 } 
}
layer {
 name: "hourglass1_branch1_level4_branch1_res2_branch1_scale3"
 type: "Scale" 
 bottom: "hourglass1_branch1_level4_branch1_res2_branch1_bn3" 
 top: "hourglass1_branch1_level4_branch1_res2_branch1_scale3" 
 scale_param { 
 bias_term: true 
 } 
 }
layer {
 name: "hourglass1_branch1_level4_branch1_res2_branch1_relu3"
 type: "ReLU" 
 bottom: "hourglass1_branch1_level4_branch1_res2_branch1_scale3" 
 top: "hourglass1_branch1_level4_branch1_res2_branch1_relu3" 
}
layer {
 name: "hourglass1_branch1_level4_branch1_res2_branch1_conv3"
 type: "Convolution" 
 bottom: "hourglass1_branch1_level4_branch1_res2_branch1_relu3" 
 top: "hourglass1_branch1_level4_branch1_res2_branch1_conv3" 
  param {
 	 lr_mult: 1
 	 decay_mult: 1
 }
 param {
 	 lr_mult: 2
 	 decay_mult: 0
 }
 convolution_param { 
 num_output: 256
 pad: 0
 kernel_size: 1
 stride:1
 weight_filler { 
 type: "gaussian"
 std: 0.01
 }
 bias_filler {
 type: "constant"
 }
 }
 }
layer {
 name: "hourglass1_branch1_level4_branch1_res2_branch2_conv"
 type: "Convolution" 
 bottom: "hourglass1_branch1_level4_branch1_res1" 
 top: "hourglass1_branch1_level4_branch1_res2_branch2_conv" 
  param {
 	 lr_mult: 1
 	 decay_mult: 1
 }
 param {
 	 lr_mult: 2
 	 decay_mult: 0
 }
 convolution_param { 
 num_output: 256
 pad: 0
 kernel_size: 1
 stride:1
 weight_filler { 
 type: "gaussian"
 std: 0.01
 }
 bias_filler {
 type: "constant"
 }
 }
 }
layer {
 name: "hourglass1_branch1_level4_branch1_res2"
 type: "Eltwise" 
 bottom: "hourglass1_branch1_level4_branch1_res2_branch1_conv3" 
 top: "hourglass1_branch1_level4_branch1_res2" 
 bottom: "hourglass1_branch1_level4_branch1_res2_branch2_conv" 
 eltwise_param { 
 operation: SUM 
 } 
 }
layer {
 name: "hourglass1_branch1_level4_branch1_res3_branch1_bn1"
 type: "BatchNorm" 
 bottom: "hourglass1_branch1_level4_branch1_res2" 
 top: "hourglass1_branch1_level4_branch1_res3_branch1_bn1" 
 param { 
 lr_mult: 0 
 } 
 param { 
 lr_mult: 0 
 } 
 param { 
 lr_mult: 0 
 } 
 batch_norm_param { 
    use_global_stats: false
 } 
 include { 
  phase: TRAIN 
 } 
}
layer {
 name: "hourglass1_branch1_level4_branch1_res3_branch1_bn1"
 type: "BatchNorm" 
 bottom: "hourglass1_branch1_level4_branch1_res2" 
 top: "hourglass1_branch1_level4_branch1_res3_branch1_bn1" 
 param { 
 lr_mult: 0 
 } 
 param { 
 lr_mult: 0 
 } 
 param { 
 lr_mult: 0 
 } 
 batch_norm_param { 
    use_global_stats: false
 } 
 include { 
  phase: TEST 
 } 
}
layer {
 name: "hourglass1_branch1_level4_branch1_res3_branch1_scale1"
 type: "Scale" 
 bottom: "hourglass1_branch1_level4_branch1_res3_branch1_bn1" 
 top: "hourglass1_branch1_level4_branch1_res3_branch1_scale1" 
 scale_param { 
 bias_term: true 
 } 
 }
layer {
 name: "hourglass1_branch1_level4_branch1_res3_branch1_relu1"
 type: "ReLU" 
 bottom: "hourglass1_branch1_level4_branch1_res3_branch1_scale1" 
 top: "hourglass1_branch1_level4_branch1_res3_branch1_relu1" 
}
layer {
 name: "hourglass1_branch1_level4_branch1_res3_branch1_conv1"
 type: "Convolution" 
 bottom: "hourglass1_branch1_level4_branch1_res3_branch1_relu1" 
 top: "hourglass1_branch1_level4_branch1_res3_branch1_conv1" 
  param {
 	 lr_mult: 1
 	 decay_mult: 1
 }
 param {
 	 lr_mult: 2
 	 decay_mult: 0
 }
 convolution_param { 
 num_output: 128
 pad: 0
 kernel_size: 1
 stride:1
 weight_filler { 
 type: "gaussian"
 std: 0.01
 }
 bias_filler {
 type: "constant"
 }
 }
 }
layer {
 name: "hourglass1_branch1_level4_branch1_res3_branch1_bn2"
 type: "BatchNorm" 
 bottom: "hourglass1_branch1_level4_branch1_res3_branch1_conv1" 
 top: "hourglass1_branch1_level4_branch1_res3_branch1_bn2" 
 param { 
 lr_mult: 0 
 } 
 param { 
 lr_mult: 0 
 } 
 param { 
 lr_mult: 0 
 } 
 batch_norm_param { 
    use_global_stats: false
 } 
 include { 
  phase: TRAIN 
 } 
}
layer {
 name: "hourglass1_branch1_level4_branch1_res3_branch1_bn2"
 type: "BatchNorm" 
 bottom: "hourglass1_branch1_level4_branch1_res3_branch1_conv1" 
 top: "hourglass1_branch1_level4_branch1_res3_branch1_bn2" 
 param { 
 lr_mult: 0 
 } 
 param { 
 lr_mult: 0 
 } 
 param { 
 lr_mult: 0 
 } 
 batch_norm_param { 
    use_global_stats: false
 } 
 include { 
  phase: TEST 
 } 
}
layer {
 name: "hourglass1_branch1_level4_branch1_res3_branch1_scale2"
 type: "Scale" 
 bottom: "hourglass1_branch1_level4_branch1_res3_branch1_bn2" 
 top: "hourglass1_branch1_level4_branch1_res3_branch1_scale2" 
 scale_param { 
 bias_term: true 
 } 
 }
layer {
 name: "hourglass1_branch1_level4_branch1_res3_branch1_relu2"
 type: "ReLU" 
 bottom: "hourglass1_branch1_level4_branch1_res3_branch1_scale2" 
 top: "hourglass1_branch1_level4_branch1_res3_branch1_relu2" 
}
layer {
 name: "hourglass1_branch1_level4_branch1_res3_branch1_conv2"
 type: "Convolution" 
 bottom: "hourglass1_branch1_level4_branch1_res3_branch1_relu2" 
 top: "hourglass1_branch1_level4_branch1_res3_branch1_conv2" 
  param {
 	 lr_mult: 1
 	 decay_mult: 1
 }
 param {
 	 lr_mult: 2
 	 decay_mult: 0
 }
 convolution_param { 
 num_output: 128
 pad: 1
 kernel_size: 3
 stride:1
 weight_filler { 
 type: "gaussian"
 std: 0.01
 }
 bias_filler {
 type: "constant"
 }
 }
 }
layer {
 name: "hourglass1_branch1_level4_branch1_res3_branch1_bn3"
 type: "BatchNorm" 
 bottom: "hourglass1_branch1_level4_branch1_res3_branch1_conv2" 
 top: "hourglass1_branch1_level4_branch1_res3_branch1_bn3" 
 param { 
 lr_mult: 0 
 } 
 param { 
 lr_mult: 0 
 } 
 param { 
 lr_mult: 0 
 } 
 batch_norm_param { 
    use_global_stats: false
 } 
 include { 
  phase: TRAIN 
 } 
}
layer {
 name: "hourglass1_branch1_level4_branch1_res3_branch1_bn3"
 type: "BatchNorm" 
 bottom: "hourglass1_branch1_level4_branch1_res3_branch1_conv2" 
 top: "hourglass1_branch1_level4_branch1_res3_branch1_bn3" 
 param { 
 lr_mult: 0 
 } 
 param { 
 lr_mult: 0 
 } 
 param { 
 lr_mult: 0 
 } 
 batch_norm_param { 
    use_global_stats: false
 } 
 include { 
  phase: TEST 
 } 
}
layer {
 name: "hourglass1_branch1_level4_branch1_res3_branch1_scale3"
 type: "Scale" 
 bottom: "hourglass1_branch1_level4_branch1_res3_branch1_bn3" 
 top: "hourglass1_branch1_level4_branch1_res3_branch1_scale3" 
 scale_param { 
 bias_term: true 
 } 
 }
layer {
 name: "hourglass1_branch1_level4_branch1_res3_branch1_relu3"
 type: "ReLU" 
 bottom: "hourglass1_branch1_level4_branch1_res3_branch1_scale3" 
 top: "hourglass1_branch1_level4_branch1_res3_branch1_relu3" 
}
layer {
 name: "hourglass1_branch1_level4_branch1_res3_branch1_conv3"
 type: "Convolution" 
 bottom: "hourglass1_branch1_level4_branch1_res3_branch1_relu3" 
 top: "hourglass1_branch1_level4_branch1_res3_branch1_conv3" 
  param {
 	 lr_mult: 1
 	 decay_mult: 1
 }
 param {
 	 lr_mult: 2
 	 decay_mult: 0
 }
 convolution_param { 
 num_output: 256
 pad: 0
 kernel_size: 1
 stride:1
 weight_filler { 
 type: "gaussian"
 std: 0.01
 }
 bias_filler {
 type: "constant"
 }
 }
 }
layer {
 name: "hourglass1_branch1_level4_branch1_res3_branch2_conv"
 type: "Convolution" 
 bottom: "hourglass1_branch1_level4_branch1_res2" 
 top: "hourglass1_branch1_level4_branch1_res3_branch2_conv" 
  param {
 	 lr_mult: 1
 	 decay_mult: 1
 }
 param {
 	 lr_mult: 2
 	 decay_mult: 0
 }
 convolution_param { 
 num_output: 256
 pad: 0
 kernel_size: 1
 stride:1
 weight_filler { 
 type: "gaussian"
 std: 0.01
 }
 bias_filler {
 type: "constant"
 }
 }
 }
layer {
 name: "hourglass1_branch1_level4_branch1_res3"
 type: "Eltwise" 
 bottom: "hourglass1_branch1_level4_branch1_res3_branch1_conv3" 
 top: "hourglass1_branch1_level4_branch1_res3" 
 bottom: "hourglass1_branch1_level4_branch1_res3_branch2_conv" 
 eltwise_param { 
 operation: SUM 
 } 
 }
layer {
 name: "hourglass1_branch1_level4_branch1_level3_pooling"
 type: "Pooling" 
 bottom: "hourglass1_branch1_level4_branch1_res3" 
 top: "hourglass1_branch1_level4_branch1_level3_pooling" 
 pooling_param { 
 pool: MAX 
 kernel_size: 2 
 stride: 2 
 } 
 }
layer {
 name: "hourglass1_branch1_level4_branch1_level3_branch1_res1_branch1_bn1"
 type: "BatchNorm" 
 bottom: "hourglass1_branch1_level4_branch1_level3_pooling" 
 top: "hourglass1_branch1_level4_branch1_level3_branch1_res1_branch1_bn1" 
 param { 
 lr_mult: 0 
 } 
 param { 
 lr_mult: 0 
 } 
 param { 
 lr_mult: 0 
 } 
 batch_norm_param { 
    use_global_stats: false
 } 
 include { 
  phase: TRAIN 
 } 
}
layer {
 name: "hourglass1_branch1_level4_branch1_level3_branch1_res1_branch1_bn1"
 type: "BatchNorm" 
 bottom: "hourglass1_branch1_level4_branch1_level3_pooling" 
 top: "hourglass1_branch1_level4_branch1_level3_branch1_res1_branch1_bn1" 
 param { 
 lr_mult: 0 
 } 
 param { 
 lr_mult: 0 
 } 
 param { 
 lr_mult: 0 
 } 
 batch_norm_param { 
    use_global_stats: false
 } 
 include { 
  phase: TEST 
 } 
}
layer {
 name: "hourglass1_branch1_level4_branch1_level3_branch1_res1_branch1_scale1"
 type: "Scale" 
 bottom: "hourglass1_branch1_level4_branch1_level3_branch1_res1_branch1_bn1" 
 top: "hourglass1_branch1_level4_branch1_level3_branch1_res1_branch1_scale1" 
 scale_param { 
 bias_term: true 
 } 
 }
layer {
 name: "hourglass1_branch1_level4_branch1_level3_branch1_res1_branch1_relu1"
 type: "ReLU" 
 bottom: "hourglass1_branch1_level4_branch1_level3_branch1_res1_branch1_scale1" 
 top: "hourglass1_branch1_level4_branch1_level3_branch1_res1_branch1_relu1" 
}
layer {
 name: "hourglass1_branch1_level4_branch1_level3_branch1_res1_branch1_conv1"
 type: "Convolution" 
 bottom: "hourglass1_branch1_level4_branch1_level3_branch1_res1_branch1_relu1" 
 top: "hourglass1_branch1_level4_branch1_level3_branch1_res1_branch1_conv1" 
  param {
 	 lr_mult: 1
 	 decay_mult: 1
 }
 param {
 	 lr_mult: 2
 	 decay_mult: 0
 }
 convolution_param { 
 num_output: 128
 pad: 0
 kernel_size: 1
 stride:1
 weight_filler { 
 type: "gaussian"
 std: 0.01
 }
 bias_filler {
 type: "constant"
 }
 }
 }
layer {
 name: "hourglass1_branch1_level4_branch1_level3_branch1_res1_branch1_bn2"
 type: "BatchNorm" 
 bottom: "hourglass1_branch1_level4_branch1_level3_branch1_res1_branch1_conv1" 
 top: "hourglass1_branch1_level4_branch1_level3_branch1_res1_branch1_bn2" 
 param { 
 lr_mult: 0 
 } 
 param { 
 lr_mult: 0 
 } 
 param { 
 lr_mult: 0 
 } 
 batch_norm_param { 
    use_global_stats: false
 } 
 include { 
  phase: TRAIN 
 } 
}
layer {
 name: "hourglass1_branch1_level4_branch1_level3_branch1_res1_branch1_bn2"
 type: "BatchNorm" 
 bottom: "hourglass1_branch1_level4_branch1_level3_branch1_res1_branch1_conv1" 
 top: "hourglass1_branch1_level4_branch1_level3_branch1_res1_branch1_bn2" 
 param { 
 lr_mult: 0 
 } 
 param { 
 lr_mult: 0 
 } 
 param { 
 lr_mult: 0 
 } 
 batch_norm_param { 
    use_global_stats: false
 } 
 include { 
  phase: TEST 
 } 
}
layer {
 name: "hourglass1_branch1_level4_branch1_level3_branch1_res1_branch1_scale2"
 type: "Scale" 
 bottom: "hourglass1_branch1_level4_branch1_level3_branch1_res1_branch1_bn2" 
 top: "hourglass1_branch1_level4_branch1_level3_branch1_res1_branch1_scale2" 
 scale_param { 
 bias_term: true 
 } 
 }
layer {
 name: "hourglass1_branch1_level4_branch1_level3_branch1_res1_branch1_relu2"
 type: "ReLU" 
 bottom: "hourglass1_branch1_level4_branch1_level3_branch1_res1_branch1_scale2" 
 top: "hourglass1_branch1_level4_branch1_level3_branch1_res1_branch1_relu2" 
}
layer {
 name: "hourglass1_branch1_level4_branch1_level3_branch1_res1_branch1_conv2"
 type: "Convolution" 
 bottom: "hourglass1_branch1_level4_branch1_level3_branch1_res1_branch1_relu2" 
 top: "hourglass1_branch1_level4_branch1_level3_branch1_res1_branch1_conv2" 
  param {
 	 lr_mult: 1
 	 decay_mult: 1
 }
 param {
 	 lr_mult: 2
 	 decay_mult: 0
 }
 convolution_param { 
 num_output: 128
 pad: 1
 kernel_size: 3
 stride:1
 weight_filler { 
 type: "gaussian"
 std: 0.01
 }
 bias_filler {
 type: "constant"
 }
 }
 }
layer {
 name: "hourglass1_branch1_level4_branch1_level3_branch1_res1_branch1_bn3"
 type: "BatchNorm" 
 bottom: "hourglass1_branch1_level4_branch1_level3_branch1_res1_branch1_conv2" 
 top: "hourglass1_branch1_level4_branch1_level3_branch1_res1_branch1_bn3" 
 param { 
 lr_mult: 0 
 } 
 param { 
 lr_mult: 0 
 } 
 param { 
 lr_mult: 0 
 } 
 batch_norm_param { 
    use_global_stats: false
 } 
 include { 
  phase: TRAIN 
 } 
}
layer {
 name: "hourglass1_branch1_level4_branch1_level3_branch1_res1_branch1_bn3"
 type: "BatchNorm" 
 bottom: "hourglass1_branch1_level4_branch1_level3_branch1_res1_branch1_conv2" 
 top: "hourglass1_branch1_level4_branch1_level3_branch1_res1_branch1_bn3" 
 param { 
 lr_mult: 0 
 } 
 param { 
 lr_mult: 0 
 } 
 param { 
 lr_mult: 0 
 } 
 batch_norm_param { 
    use_global_stats: false
 } 
 include { 
  phase: TEST 
 } 
}
layer {
 name: "hourglass1_branch1_level4_branch1_level3_branch1_res1_branch1_scale3"
 type: "Scale" 
 bottom: "hourglass1_branch1_level4_branch1_level3_branch1_res1_branch1_bn3" 
 top: "hourglass1_branch1_level4_branch1_level3_branch1_res1_branch1_scale3" 
 scale_param { 
 bias_term: true 
 } 
 }
layer {
 name: "hourglass1_branch1_level4_branch1_level3_branch1_res1_branch1_relu3"
 type: "ReLU" 
 bottom: "hourglass1_branch1_level4_branch1_level3_branch1_res1_branch1_scale3" 
 top: "hourglass1_branch1_level4_branch1_level3_branch1_res1_branch1_relu3" 
}
layer {
 name: "hourglass1_branch1_level4_branch1_level3_branch1_res1_branch1_conv3"
 type: "Convolution" 
 bottom: "hourglass1_branch1_level4_branch1_level3_branch1_res1_branch1_relu3" 
 top: "hourglass1_branch1_level4_branch1_level3_branch1_res1_branch1_conv3" 
  param {
 	 lr_mult: 1
 	 decay_mult: 1
 }
 param {
 	 lr_mult: 2
 	 decay_mult: 0
 }
 convolution_param { 
 num_output: 256
 pad: 0
 kernel_size: 1
 stride:1
 weight_filler { 
 type: "gaussian"
 std: 0.01
 }
 bias_filler {
 type: "constant"
 }
 }
 }
layer {
 name: "hourglass1_branch1_level4_branch1_level3_branch1_res1_branch2_conv"
 type: "Convolution" 
 bottom: "hourglass1_branch1_level4_branch1_level3_pooling" 
 top: "hourglass1_branch1_level4_branch1_level3_branch1_res1_branch2_conv" 
  param {
 	 lr_mult: 1
 	 decay_mult: 1
 }
 param {
 	 lr_mult: 2
 	 decay_mult: 0
 }
 convolution_param { 
 num_output: 256
 pad: 0
 kernel_size: 1
 stride:1
 weight_filler { 
 type: "gaussian"
 std: 0.01
 }
 bias_filler {
 type: "constant"
 }
 }
 }
layer {
 name: "hourglass1_branch1_level4_branch1_level3_branch1_res1"
 type: "Eltwise" 
 bottom: "hourglass1_branch1_level4_branch1_level3_branch1_res1_branch1_conv3" 
 top: "hourglass1_branch1_level4_branch1_level3_branch1_res1" 
 bottom: "hourglass1_branch1_level4_branch1_level3_branch1_res1_branch2_conv" 
 eltwise_param { 
 operation: SUM 
 } 
 }
layer {
 name: "hourglass1_branch1_level4_branch1_level3_branch1_res2_branch1_bn1"
 type: "BatchNorm" 
 bottom: "hourglass1_branch1_level4_branch1_level3_branch1_res1" 
 top: "hourglass1_branch1_level4_branch1_level3_branch1_res2_branch1_bn1" 
 param { 
 lr_mult: 0 
 } 
 param { 
 lr_mult: 0 
 } 
 param { 
 lr_mult: 0 
 } 
 batch_norm_param { 
    use_global_stats: false
 } 
 include { 
  phase: TRAIN 
 } 
}
layer {
 name: "hourglass1_branch1_level4_branch1_level3_branch1_res2_branch1_bn1"
 type: "BatchNorm" 
 bottom: "hourglass1_branch1_level4_branch1_level3_branch1_res1" 
 top: "hourglass1_branch1_level4_branch1_level3_branch1_res2_branch1_bn1" 
 param { 
 lr_mult: 0 
 } 
 param { 
 lr_mult: 0 
 } 
 param { 
 lr_mult: 0 
 } 
 batch_norm_param { 
    use_global_stats: false
 } 
 include { 
  phase: TEST 
 } 
}
layer {
 name: "hourglass1_branch1_level4_branch1_level3_branch1_res2_branch1_scale1"
 type: "Scale" 
 bottom: "hourglass1_branch1_level4_branch1_level3_branch1_res2_branch1_bn1" 
 top: "hourglass1_branch1_level4_branch1_level3_branch1_res2_branch1_scale1" 
 scale_param { 
 bias_term: true 
 } 
 }
layer {
 name: "hourglass1_branch1_level4_branch1_level3_branch1_res2_branch1_relu1"
 type: "ReLU" 
 bottom: "hourglass1_branch1_level4_branch1_level3_branch1_res2_branch1_scale1" 
 top: "hourglass1_branch1_level4_branch1_level3_branch1_res2_branch1_relu1" 
}
layer {
 name: "hourglass1_branch1_level4_branch1_level3_branch1_res2_branch1_conv1"
 type: "Convolution" 
 bottom: "hourglass1_branch1_level4_branch1_level3_branch1_res2_branch1_relu1" 
 top: "hourglass1_branch1_level4_branch1_level3_branch1_res2_branch1_conv1" 
  param {
 	 lr_mult: 1
 	 decay_mult: 1
 }
 param {
 	 lr_mult: 2
 	 decay_mult: 0
 }
 convolution_param { 
 num_output: 128
 pad: 0
 kernel_size: 1
 stride:1
 weight_filler { 
 type: "gaussian"
 std: 0.01
 }
 bias_filler {
 type: "constant"
 }
 }
 }
layer {
 name: "hourglass1_branch1_level4_branch1_level3_branch1_res2_branch1_bn2"
 type: "BatchNorm" 
 bottom: "hourglass1_branch1_level4_branch1_level3_branch1_res2_branch1_conv1" 
 top: "hourglass1_branch1_level4_branch1_level3_branch1_res2_branch1_bn2" 
 param { 
 lr_mult: 0 
 } 
 param { 
 lr_mult: 0 
 } 
 param { 
 lr_mult: 0 
 } 
 batch_norm_param { 
    use_global_stats: false
 } 
 include { 
  phase: TRAIN 
 } 
}
layer {
 name: "hourglass1_branch1_level4_branch1_level3_branch1_res2_branch1_bn2"
 type: "BatchNorm" 
 bottom: "hourglass1_branch1_level4_branch1_level3_branch1_res2_branch1_conv1" 
 top: "hourglass1_branch1_level4_branch1_level3_branch1_res2_branch1_bn2" 
 param { 
 lr_mult: 0 
 } 
 param { 
 lr_mult: 0 
 } 
 param { 
 lr_mult: 0 
 } 
 batch_norm_param { 
    use_global_stats: false
 } 
 include { 
  phase: TEST 
 } 
}
layer {
 name: "hourglass1_branch1_level4_branch1_level3_branch1_res2_branch1_scale2"
 type: "Scale" 
 bottom: "hourglass1_branch1_level4_branch1_level3_branch1_res2_branch1_bn2" 
 top: "hourglass1_branch1_level4_branch1_level3_branch1_res2_branch1_scale2" 
 scale_param { 
 bias_term: true 
 } 
 }
layer {
 name: "hourglass1_branch1_level4_branch1_level3_branch1_res2_branch1_relu2"
 type: "ReLU" 
 bottom: "hourglass1_branch1_level4_branch1_level3_branch1_res2_branch1_scale2" 
 top: "hourglass1_branch1_level4_branch1_level3_branch1_res2_branch1_relu2" 
}
layer {
 name: "hourglass1_branch1_level4_branch1_level3_branch1_res2_branch1_conv2"
 type: "Convolution" 
 bottom: "hourglass1_branch1_level4_branch1_level3_branch1_res2_branch1_relu2" 
 top: "hourglass1_branch1_level4_branch1_level3_branch1_res2_branch1_conv2" 
  param {
 	 lr_mult: 1
 	 decay_mult: 1
 }
 param {
 	 lr_mult: 2
 	 decay_mult: 0
 }
 convolution_param { 
 num_output: 128
 pad: 1
 kernel_size: 3
 stride:1
 weight_filler { 
 type: "gaussian"
 std: 0.01
 }
 bias_filler {
 type: "constant"
 }
 }
 }
layer {
 name: "hourglass1_branch1_level4_branch1_level3_branch1_res2_branch1_bn3"
 type: "BatchNorm" 
 bottom: "hourglass1_branch1_level4_branch1_level3_branch1_res2_branch1_conv2" 
 top: "hourglass1_branch1_level4_branch1_level3_branch1_res2_branch1_bn3" 
 param { 
 lr_mult: 0 
 } 
 param { 
 lr_mult: 0 
 } 
 param { 
 lr_mult: 0 
 } 
 batch_norm_param { 
    use_global_stats: false
 } 
 include { 
  phase: TRAIN 
 } 
}
layer {
 name: "hourglass1_branch1_level4_branch1_level3_branch1_res2_branch1_bn3"
 type: "BatchNorm" 
 bottom: "hourglass1_branch1_level4_branch1_level3_branch1_res2_branch1_conv2" 
 top: "hourglass1_branch1_level4_branch1_level3_branch1_res2_branch1_bn3" 
 param { 
 lr_mult: 0 
 } 
 param { 
 lr_mult: 0 
 } 
 param { 
 lr_mult: 0 
 } 
 batch_norm_param { 
    use_global_stats: false
 } 
 include { 
  phase: TEST 
 } 
}
layer {
 name: "hourglass1_branch1_level4_branch1_level3_branch1_res2_branch1_scale3"
 type: "Scale" 
 bottom: "hourglass1_branch1_level4_branch1_level3_branch1_res2_branch1_bn3" 
 top: "hourglass1_branch1_level4_branch1_level3_branch1_res2_branch1_scale3" 
 scale_param { 
 bias_term: true 
 } 
 }
layer {
 name: "hourglass1_branch1_level4_branch1_level3_branch1_res2_branch1_relu3"
 type: "ReLU" 
 bottom: "hourglass1_branch1_level4_branch1_level3_branch1_res2_branch1_scale3" 
 top: "hourglass1_branch1_level4_branch1_level3_branch1_res2_branch1_relu3" 
}
layer {
 name: "hourglass1_branch1_level4_branch1_level3_branch1_res2_branch1_conv3"
 type: "Convolution" 
 bottom: "hourglass1_branch1_level4_branch1_level3_branch1_res2_branch1_relu3" 
 top: "hourglass1_branch1_level4_branch1_level3_branch1_res2_branch1_conv3" 
  param {
 	 lr_mult: 1
 	 decay_mult: 1
 }
 param {
 	 lr_mult: 2
 	 decay_mult: 0
 }
 convolution_param { 
 num_output: 256
 pad: 0
 kernel_size: 1
 stride:1
 weight_filler { 
 type: "gaussian"
 std: 0.01
 }
 bias_filler {
 type: "constant"
 }
 }
 }
layer {
 name: "hourglass1_branch1_level4_branch1_level3_branch1_res2_branch2_conv"
 type: "Convolution" 
 bottom: "hourglass1_branch1_level4_branch1_level3_branch1_res1" 
 top: "hourglass1_branch1_level4_branch1_level3_branch1_res2_branch2_conv" 
  param {
 	 lr_mult: 1
 	 decay_mult: 1
 }
 param {
 	 lr_mult: 2
 	 decay_mult: 0
 }
 convolution_param { 
 num_output: 256
 pad: 0
 kernel_size: 1
 stride:1
 weight_filler { 
 type: "gaussian"
 std: 0.01
 }
 bias_filler {
 type: "constant"
 }
 }
 }
layer {
 name: "hourglass1_branch1_level4_branch1_level3_branch1_res2"
 type: "Eltwise" 
 bottom: "hourglass1_branch1_level4_branch1_level3_branch1_res2_branch1_conv3" 
 top: "hourglass1_branch1_level4_branch1_level3_branch1_res2" 
 bottom: "hourglass1_branch1_level4_branch1_level3_branch1_res2_branch2_conv" 
 eltwise_param { 
 operation: SUM 
 } 
 }
layer {
 name: "hourglass1_branch1_level4_branch1_level3_branch1_res3_branch1_bn1"
 type: "BatchNorm" 
 bottom: "hourglass1_branch1_level4_branch1_level3_branch1_res2" 
 top: "hourglass1_branch1_level4_branch1_level3_branch1_res3_branch1_bn1" 
 param { 
 lr_mult: 0 
 } 
 param { 
 lr_mult: 0 
 } 
 param { 
 lr_mult: 0 
 } 
 batch_norm_param { 
    use_global_stats: false
 } 
 include { 
  phase: TRAIN 
 } 
}
layer {
 name: "hourglass1_branch1_level4_branch1_level3_branch1_res3_branch1_bn1"
 type: "BatchNorm" 
 bottom: "hourglass1_branch1_level4_branch1_level3_branch1_res2" 
 top: "hourglass1_branch1_level4_branch1_level3_branch1_res3_branch1_bn1" 
 param { 
 lr_mult: 0 
 } 
 param { 
 lr_mult: 0 
 } 
 param { 
 lr_mult: 0 
 } 
 batch_norm_param { 
    use_global_stats: false
 } 
 include { 
  phase: TEST 
 } 
}
layer {
 name: "hourglass1_branch1_level4_branch1_level3_branch1_res3_branch1_scale1"
 type: "Scale" 
 bottom: "hourglass1_branch1_level4_branch1_level3_branch1_res3_branch1_bn1" 
 top: "hourglass1_branch1_level4_branch1_level3_branch1_res3_branch1_scale1" 
 scale_param { 
 bias_term: true 
 } 
 }
layer {
 name: "hourglass1_branch1_level4_branch1_level3_branch1_res3_branch1_relu1"
 type: "ReLU" 
 bottom: "hourglass1_branch1_level4_branch1_level3_branch1_res3_branch1_scale1" 
 top: "hourglass1_branch1_level4_branch1_level3_branch1_res3_branch1_relu1" 
}
layer {
 name: "hourglass1_branch1_level4_branch1_level3_branch1_res3_branch1_conv1"
 type: "Convolution" 
 bottom: "hourglass1_branch1_level4_branch1_level3_branch1_res3_branch1_relu1" 
 top: "hourglass1_branch1_level4_branch1_level3_branch1_res3_branch1_conv1" 
  param {
 	 lr_mult: 1
 	 decay_mult: 1
 }
 param {
 	 lr_mult: 2
 	 decay_mult: 0
 }
 convolution_param { 
 num_output: 128
 pad: 0
 kernel_size: 1
 stride:1
 weight_filler { 
 type: "gaussian"
 std: 0.01
 }
 bias_filler {
 type: "constant"
 }
 }
 }
layer {
 name: "hourglass1_branch1_level4_branch1_level3_branch1_res3_branch1_bn2"
 type: "BatchNorm" 
 bottom: "hourglass1_branch1_level4_branch1_level3_branch1_res3_branch1_conv1" 
 top: "hourglass1_branch1_level4_branch1_level3_branch1_res3_branch1_bn2" 
 param { 
 lr_mult: 0 
 } 
 param { 
 lr_mult: 0 
 } 
 param { 
 lr_mult: 0 
 } 
 batch_norm_param { 
    use_global_stats: false
 } 
 include { 
  phase: TRAIN 
 } 
}
layer {
 name: "hourglass1_branch1_level4_branch1_level3_branch1_res3_branch1_bn2"
 type: "BatchNorm" 
 bottom: "hourglass1_branch1_level4_branch1_level3_branch1_res3_branch1_conv1" 
 top: "hourglass1_branch1_level4_branch1_level3_branch1_res3_branch1_bn2" 
 param { 
 lr_mult: 0 
 } 
 param { 
 lr_mult: 0 
 } 
 param { 
 lr_mult: 0 
 } 
 batch_norm_param { 
    use_global_stats: false
 } 
 include { 
  phase: TEST 
 } 
}
layer {
 name: "hourglass1_branch1_level4_branch1_level3_branch1_res3_branch1_scale2"
 type: "Scale" 
 bottom: "hourglass1_branch1_level4_branch1_level3_branch1_res3_branch1_bn2" 
 top: "hourglass1_branch1_level4_branch1_level3_branch1_res3_branch1_scale2" 
 scale_param { 
 bias_term: true 
 } 
 }
layer {
 name: "hourglass1_branch1_level4_branch1_level3_branch1_res3_branch1_relu2"
 type: "ReLU" 
 bottom: "hourglass1_branch1_level4_branch1_level3_branch1_res3_branch1_scale2" 
 top: "hourglass1_branch1_level4_branch1_level3_branch1_res3_branch1_relu2" 
}
layer {
 name: "hourglass1_branch1_level4_branch1_level3_branch1_res3_branch1_conv2"
 type: "Convolution" 
 bottom: "hourglass1_branch1_level4_branch1_level3_branch1_res3_branch1_relu2" 
 top: "hourglass1_branch1_level4_branch1_level3_branch1_res3_branch1_conv2" 
  param {
 	 lr_mult: 1
 	 decay_mult: 1
 }
 param {
 	 lr_mult: 2
 	 decay_mult: 0
 }
 convolution_param { 
 num_output: 128
 pad: 1
 kernel_size: 3
 stride:1
 weight_filler { 
 type: "gaussian"
 std: 0.01
 }
 bias_filler {
 type: "constant"
 }
 }
 }
layer {
 name: "hourglass1_branch1_level4_branch1_level3_branch1_res3_branch1_bn3"
 type: "BatchNorm" 
 bottom: "hourglass1_branch1_level4_branch1_level3_branch1_res3_branch1_conv2" 
 top: "hourglass1_branch1_level4_branch1_level3_branch1_res3_branch1_bn3" 
 param { 
 lr_mult: 0 
 } 
 param { 
 lr_mult: 0 
 } 
 param { 
 lr_mult: 0 
 } 
 batch_norm_param { 
    use_global_stats: false
 } 
 include { 
  phase: TRAIN 
 } 
}
layer {
 name: "hourglass1_branch1_level4_branch1_level3_branch1_res3_branch1_bn3"
 type: "BatchNorm" 
 bottom: "hourglass1_branch1_level4_branch1_level3_branch1_res3_branch1_conv2" 
 top: "hourglass1_branch1_level4_branch1_level3_branch1_res3_branch1_bn3" 
 param { 
 lr_mult: 0 
 } 
 param { 
 lr_mult: 0 
 } 
 param { 
 lr_mult: 0 
 } 
 batch_norm_param { 
    use_global_stats: false
 } 
 include { 
  phase: TEST 
 } 
}
layer {
 name: "hourglass1_branch1_level4_branch1_level3_branch1_res3_branch1_scale3"
 type: "Scale" 
 bottom: "hourglass1_branch1_level4_branch1_level3_branch1_res3_branch1_bn3" 
 top: "hourglass1_branch1_level4_branch1_level3_branch1_res3_branch1_scale3" 
 scale_param { 
 bias_term: true 
 } 
 }
layer {
 name: "hourglass1_branch1_level4_branch1_level3_branch1_res3_branch1_relu3"
 type: "ReLU" 
 bottom: "hourglass1_branch1_level4_branch1_level3_branch1_res3_branch1_scale3" 
 top: "hourglass1_branch1_level4_branch1_level3_branch1_res3_branch1_relu3" 
}
layer {
 name: "hourglass1_branch1_level4_branch1_level3_branch1_res3_branch1_conv3"
 type: "Convolution" 
 bottom: "hourglass1_branch1_level4_branch1_level3_branch1_res3_branch1_relu3" 
 top: "hourglass1_branch1_level4_branch1_level3_branch1_res3_branch1_conv3" 
  param {
 	 lr_mult: 1
 	 decay_mult: 1
 }
 param {
 	 lr_mult: 2
 	 decay_mult: 0
 }
 convolution_param { 
 num_output: 256
 pad: 0
 kernel_size: 1
 stride:1
 weight_filler { 
 type: "gaussian"
 std: 0.01
 }
 bias_filler {
 type: "constant"
 }
 }
 }
layer {
 name: "hourglass1_branch1_level4_branch1_level3_branch1_res3_branch2_conv"
 type: "Convolution" 
 bottom: "hourglass1_branch1_level4_branch1_level3_branch1_res2" 
 top: "hourglass1_branch1_level4_branch1_level3_branch1_res3_branch2_conv" 
  param {
 	 lr_mult: 1
 	 decay_mult: 1
 }
 param {
 	 lr_mult: 2
 	 decay_mult: 0
 }
 convolution_param { 
 num_output: 256
 pad: 0
 kernel_size: 1
 stride:1
 weight_filler { 
 type: "gaussian"
 std: 0.01
 }
 bias_filler {
 type: "constant"
 }
 }
 }
layer {
 name: "hourglass1_branch1_level4_branch1_level3_branch1_res3"
 type: "Eltwise" 
 bottom: "hourglass1_branch1_level4_branch1_level3_branch1_res3_branch1_conv3" 
 top: "hourglass1_branch1_level4_branch1_level3_branch1_res3" 
 bottom: "hourglass1_branch1_level4_branch1_level3_branch1_res3_branch2_conv" 
 eltwise_param { 
 operation: SUM 
 } 
 }
layer {
 name: "hourglass1_branch1_level4_branch1_level3_branch1_level2_pooling"
 type: "Pooling" 
 bottom: "hourglass1_branch1_level4_branch1_level3_branch1_res3" 
 top: "hourglass1_branch1_level4_branch1_level3_branch1_level2_pooling" 
 pooling_param { 
 pool: MAX 
 kernel_size: 2 
 stride: 2 
 } 
 }
layer {
 name: "hourglass1_branch1_level4_branch1_level3_branch1_level2_branch1_res1_branch1_bn1"
 type: "BatchNorm" 
 bottom: "hourglass1_branch1_level4_branch1_level3_branch1_level2_pooling" 
 top: "hourglass1_branch1_level4_branch1_level3_branch1_level2_branch1_res1_branch1_bn1" 
 param { 
 lr_mult: 0 
 } 
 param { 
 lr_mult: 0 
 } 
 param { 
 lr_mult: 0 
 } 
 batch_norm_param { 
    use_global_stats: false
 } 
 include { 
  phase: TRAIN 
 } 
}
layer {
 name: "hourglass1_branch1_level4_branch1_level3_branch1_level2_branch1_res1_branch1_bn1"
 type: "BatchNorm" 
 bottom: "hourglass1_branch1_level4_branch1_level3_branch1_level2_pooling" 
 top: "hourglass1_branch1_level4_branch1_level3_branch1_level2_branch1_res1_branch1_bn1" 
 param { 
 lr_mult: 0 
 } 
 param { 
 lr_mult: 0 
 } 
 param { 
 lr_mult: 0 
 } 
 batch_norm_param { 
    use_global_stats: false
 } 
 include { 
  phase: TEST 
 } 
}
layer {
 name: "hourglass1_branch1_level4_branch1_level3_branch1_level2_branch1_res1_branch1_scale1"
 type: "Scale" 
 bottom: "hourglass1_branch1_level4_branch1_level3_branch1_level2_branch1_res1_branch1_bn1" 
 top: "hourglass1_branch1_level4_branch1_level3_branch1_level2_branch1_res1_branch1_scale1" 
 scale_param { 
 bias_term: true 
 } 
 }
layer {
 name: "hourglass1_branch1_level4_branch1_level3_branch1_level2_branch1_res1_branch1_relu1"
 type: "ReLU" 
 bottom: "hourglass1_branch1_level4_branch1_level3_branch1_level2_branch1_res1_branch1_scale1" 
 top: "hourglass1_branch1_level4_branch1_level3_branch1_level2_branch1_res1_branch1_relu1" 
}
layer {
 name: "hourglass1_branch1_level4_branch1_level3_branch1_level2_branch1_res1_branch1_conv1"
 type: "Convolution" 
 bottom: "hourglass1_branch1_level4_branch1_level3_branch1_level2_branch1_res1_branch1_relu1" 
 top: "hourglass1_branch1_level4_branch1_level3_branch1_level2_branch1_res1_branch1_conv1" 
  param {
 	 lr_mult: 1
 	 decay_mult: 1
 }
 param {
 	 lr_mult: 2
 	 decay_mult: 0
 }
 convolution_param { 
 num_output: 128
 pad: 0
 kernel_size: 1
 stride:1
 weight_filler { 
 type: "gaussian"
 std: 0.01
 }
 bias_filler {
 type: "constant"
 }
 }
 }
layer {
 name: "hourglass1_branch1_level4_branch1_level3_branch1_level2_branch1_res1_branch1_bn2"
 type: "BatchNorm" 
 bottom: "hourglass1_branch1_level4_branch1_level3_branch1_level2_branch1_res1_branch1_conv1" 
 top: "hourglass1_branch1_level4_branch1_level3_branch1_level2_branch1_res1_branch1_bn2" 
 param { 
 lr_mult: 0 
 } 
 param { 
 lr_mult: 0 
 } 
 param { 
 lr_mult: 0 
 } 
 batch_norm_param { 
    use_global_stats: false
 } 
 include { 
  phase: TRAIN 
 } 
}
layer {
 name: "hourglass1_branch1_level4_branch1_level3_branch1_level2_branch1_res1_branch1_bn2"
 type: "BatchNorm" 
 bottom: "hourglass1_branch1_level4_branch1_level3_branch1_level2_branch1_res1_branch1_conv1" 
 top: "hourglass1_branch1_level4_branch1_level3_branch1_level2_branch1_res1_branch1_bn2" 
 param { 
 lr_mult: 0 
 } 
 param { 
 lr_mult: 0 
 } 
 param { 
 lr_mult: 0 
 } 
 batch_norm_param { 
    use_global_stats: false
 } 
 include { 
  phase: TEST 
 } 
}
layer {
 name: "hourglass1_branch1_level4_branch1_level3_branch1_level2_branch1_res1_branch1_scale2"
 type: "Scale" 
 bottom: "hourglass1_branch1_level4_branch1_level3_branch1_level2_branch1_res1_branch1_bn2" 
 top: "hourglass1_branch1_level4_branch1_level3_branch1_level2_branch1_res1_branch1_scale2" 
 scale_param { 
 bias_term: true 
 } 
 }
layer {
 name: "hourglass1_branch1_level4_branch1_level3_branch1_level2_branch1_res1_branch1_relu2"
 type: "ReLU" 
 bottom: "hourglass1_branch1_level4_branch1_level3_branch1_level2_branch1_res1_branch1_scale2" 
 top: "hourglass1_branch1_level4_branch1_level3_branch1_level2_branch1_res1_branch1_relu2" 
}
layer {
 name: "hourglass1_branch1_level4_branch1_level3_branch1_level2_branch1_res1_branch1_conv2"
 type: "Convolution" 
 bottom: "hourglass1_branch1_level4_branch1_level3_branch1_level2_branch1_res1_branch1_relu2" 
 top: "hourglass1_branch1_level4_branch1_level3_branch1_level2_branch1_res1_branch1_conv2" 
  param {
 	 lr_mult: 1
 	 decay_mult: 1
 }
 param {
 	 lr_mult: 2
 	 decay_mult: 0
 }
 convolution_param { 
 num_output: 128
 pad: 1
 kernel_size: 3
 stride:1
 weight_filler { 
 type: "gaussian"
 std: 0.01
 }
 bias_filler {
 type: "constant"
 }
 }
 }
layer {
 name: "hourglass1_branch1_level4_branch1_level3_branch1_level2_branch1_res1_branch1_bn3"
 type: "BatchNorm" 
 bottom: "hourglass1_branch1_level4_branch1_level3_branch1_level2_branch1_res1_branch1_conv2" 
 top: "hourglass1_branch1_level4_branch1_level3_branch1_level2_branch1_res1_branch1_bn3" 
 param { 
 lr_mult: 0 
 } 
 param { 
 lr_mult: 0 
 } 
 param { 
 lr_mult: 0 
 } 
 batch_norm_param { 
    use_global_stats: false
 } 
 include { 
  phase: TRAIN 
 } 
}
layer {
 name: "hourglass1_branch1_level4_branch1_level3_branch1_level2_branch1_res1_branch1_bn3"
 type: "BatchNorm" 
 bottom: "hourglass1_branch1_level4_branch1_level3_branch1_level2_branch1_res1_branch1_conv2" 
 top: "hourglass1_branch1_level4_branch1_level3_branch1_level2_branch1_res1_branch1_bn3" 
 param { 
 lr_mult: 0 
 } 
 param { 
 lr_mult: 0 
 } 
 param { 
 lr_mult: 0 
 } 
 batch_norm_param { 
    use_global_stats: false
 } 
 include { 
  phase: TEST 
 } 
}
layer {
 name: "hourglass1_branch1_level4_branch1_level3_branch1_level2_branch1_res1_branch1_scale3"
 type: "Scale" 
 bottom: "hourglass1_branch1_level4_branch1_level3_branch1_level2_branch1_res1_branch1_bn3" 
 top: "hourglass1_branch1_level4_branch1_level3_branch1_level2_branch1_res1_branch1_scale3" 
 scale_param { 
 bias_term: true 
 } 
 }
layer {
 name: "hourglass1_branch1_level4_branch1_level3_branch1_level2_branch1_res1_branch1_relu3"
 type: "ReLU" 
 bottom: "hourglass1_branch1_level4_branch1_level3_branch1_level2_branch1_res1_branch1_scale3" 
 top: "hourglass1_branch1_level4_branch1_level3_branch1_level2_branch1_res1_branch1_relu3" 
}
layer {
 name: "hourglass1_branch1_level4_branch1_level3_branch1_level2_branch1_res1_branch1_conv3"
 type: "Convolution" 
 bottom: "hourglass1_branch1_level4_branch1_level3_branch1_level2_branch1_res1_branch1_relu3" 
 top: "hourglass1_branch1_level4_branch1_level3_branch1_level2_branch1_res1_branch1_conv3" 
  param {
 	 lr_mult: 1
 	 decay_mult: 1
 }
 param {
 	 lr_mult: 2
 	 decay_mult: 0
 }
 convolution_param { 
 num_output: 256
 pad: 0
 kernel_size: 1
 stride:1
 weight_filler { 
 type: "gaussian"
 std: 0.01
 }
 bias_filler {
 type: "constant"
 }
 }
 }
layer {
 name: "hourglass1_branch1_level4_branch1_level3_branch1_level2_branch1_res1_branch2_conv"
 type: "Convolution" 
 bottom: "hourglass1_branch1_level4_branch1_level3_branch1_level2_pooling" 
 top: "hourglass1_branch1_level4_branch1_level3_branch1_level2_branch1_res1_branch2_conv" 
  param {
 	 lr_mult: 1
 	 decay_mult: 1
 }
 param {
 	 lr_mult: 2
 	 decay_mult: 0
 }
 convolution_param { 
 num_output: 256
 pad: 0
 kernel_size: 1
 stride:1
 weight_filler { 
 type: "gaussian"
 std: 0.01
 }
 bias_filler {
 type: "constant"
 }
 }
 }
layer {
 name: "hourglass1_branch1_level4_branch1_level3_branch1_level2_branch1_res1"
 type: "Eltwise" 
 bottom: "hourglass1_branch1_level4_branch1_level3_branch1_level2_branch1_res1_branch1_conv3" 
 top: "hourglass1_branch1_level4_branch1_level3_branch1_level2_branch1_res1" 
 bottom: "hourglass1_branch1_level4_branch1_level3_branch1_level2_branch1_res1_branch2_conv" 
 eltwise_param { 
 operation: SUM 
 } 
 }
layer {
 name: "hourglass1_branch1_level4_branch1_level3_branch1_level2_branch1_res2_branch1_bn1"
 type: "BatchNorm" 
 bottom: "hourglass1_branch1_level4_branch1_level3_branch1_level2_branch1_res1" 
 top: "hourglass1_branch1_level4_branch1_level3_branch1_level2_branch1_res2_branch1_bn1" 
 param { 
 lr_mult: 0 
 } 
 param { 
 lr_mult: 0 
 } 
 param { 
 lr_mult: 0 
 } 
 batch_norm_param { 
    use_global_stats: false
 } 
 include { 
  phase: TRAIN 
 } 
}
layer {
 name: "hourglass1_branch1_level4_branch1_level3_branch1_level2_branch1_res2_branch1_bn1"
 type: "BatchNorm" 
 bottom: "hourglass1_branch1_level4_branch1_level3_branch1_level2_branch1_res1" 
 top: "hourglass1_branch1_level4_branch1_level3_branch1_level2_branch1_res2_branch1_bn1" 
 param { 
 lr_mult: 0 
 } 
 param { 
 lr_mult: 0 
 } 
 param { 
 lr_mult: 0 
 } 
 batch_norm_param { 
    use_global_stats: false
 } 
 include { 
  phase: TEST 
 } 
}
layer {
 name: "hourglass1_branch1_level4_branch1_level3_branch1_level2_branch1_res2_branch1_scale1"
 type: "Scale" 
 bottom: "hourglass1_branch1_level4_branch1_level3_branch1_level2_branch1_res2_branch1_bn1" 
 top: "hourglass1_branch1_level4_branch1_level3_branch1_level2_branch1_res2_branch1_scale1" 
 scale_param { 
 bias_term: true 
 } 
 }
layer {
 name: "hourglass1_branch1_level4_branch1_level3_branch1_level2_branch1_res2_branch1_relu1"
 type: "ReLU" 
 bottom: "hourglass1_branch1_level4_branch1_level3_branch1_level2_branch1_res2_branch1_scale1" 
 top: "hourglass1_branch1_level4_branch1_level3_branch1_level2_branch1_res2_branch1_relu1" 
}
layer {
 name: "hourglass1_branch1_level4_branch1_level3_branch1_level2_branch1_res2_branch1_conv1"
 type: "Convolution" 
 bottom: "hourglass1_branch1_level4_branch1_level3_branch1_level2_branch1_res2_branch1_relu1" 
 top: "hourglass1_branch1_level4_branch1_level3_branch1_level2_branch1_res2_branch1_conv1" 
  param {
 	 lr_mult: 1
 	 decay_mult: 1
 }
 param {
 	 lr_mult: 2
 	 decay_mult: 0
 }
 convolution_param { 
 num_output: 128
 pad: 0
 kernel_size: 1
 stride:1
 weight_filler { 
 type: "gaussian"
 std: 0.01
 }
 bias_filler {
 type: "constant"
 }
 }
 }
layer {
 name: "hourglass1_branch1_level4_branch1_level3_branch1_level2_branch1_res2_branch1_bn2"
 type: "BatchNorm" 
 bottom: "hourglass1_branch1_level4_branch1_level3_branch1_level2_branch1_res2_branch1_conv1" 
 top: "hourglass1_branch1_level4_branch1_level3_branch1_level2_branch1_res2_branch1_bn2" 
 param { 
 lr_mult: 0 
 } 
 param { 
 lr_mult: 0 
 } 
 param { 
 lr_mult: 0 
 } 
 batch_norm_param { 
    use_global_stats: false
 } 
 include { 
  phase: TRAIN 
 } 
}
layer {
 name: "hourglass1_branch1_level4_branch1_level3_branch1_level2_branch1_res2_branch1_bn2"
 type: "BatchNorm" 
 bottom: "hourglass1_branch1_level4_branch1_level3_branch1_level2_branch1_res2_branch1_conv1" 
 top: "hourglass1_branch1_level4_branch1_level3_branch1_level2_branch1_res2_branch1_bn2" 
 param { 
 lr_mult: 0 
 } 
 param { 
 lr_mult: 0 
 } 
 param { 
 lr_mult: 0 
 } 
 batch_norm_param { 
    use_global_stats: false
 } 
 include { 
  phase: TEST 
 } 
}
layer {
 name: "hourglass1_branch1_level4_branch1_level3_branch1_level2_branch1_res2_branch1_scale2"
 type: "Scale" 
 bottom: "hourglass1_branch1_level4_branch1_level3_branch1_level2_branch1_res2_branch1_bn2" 
 top: "hourglass1_branch1_level4_branch1_level3_branch1_level2_branch1_res2_branch1_scale2" 
 scale_param { 
 bias_term: true 
 } 
 }
layer {
 name: "hourglass1_branch1_level4_branch1_level3_branch1_level2_branch1_res2_branch1_relu2"
 type: "ReLU" 
 bottom: "hourglass1_branch1_level4_branch1_level3_branch1_level2_branch1_res2_branch1_scale2" 
 top: "hourglass1_branch1_level4_branch1_level3_branch1_level2_branch1_res2_branch1_relu2" 
}
layer {
 name: "hourglass1_branch1_level4_branch1_level3_branch1_level2_branch1_res2_branch1_conv2"
 type: "Convolution" 
 bottom: "hourglass1_branch1_level4_branch1_level3_branch1_level2_branch1_res2_branch1_relu2" 
 top: "hourglass1_branch1_level4_branch1_level3_branch1_level2_branch1_res2_branch1_conv2" 
  param {
 	 lr_mult: 1
 	 decay_mult: 1
 }
 param {
 	 lr_mult: 2
 	 decay_mult: 0
 }
 convolution_param { 
 num_output: 128
 pad: 1
 kernel_size: 3
 stride:1
 weight_filler { 
 type: "gaussian"
 std: 0.01
 }
 bias_filler {
 type: "constant"
 }
 }
 }
layer {
 name: "hourglass1_branch1_level4_branch1_level3_branch1_level2_branch1_res2_branch1_bn3"
 type: "BatchNorm" 
 bottom: "hourglass1_branch1_level4_branch1_level3_branch1_level2_branch1_res2_branch1_conv2" 
 top: "hourglass1_branch1_level4_branch1_level3_branch1_level2_branch1_res2_branch1_bn3" 
 param { 
 lr_mult: 0 
 } 
 param { 
 lr_mult: 0 
 } 
 param { 
 lr_mult: 0 
 } 
 batch_norm_param { 
    use_global_stats: false
 } 
 include { 
  phase: TRAIN 
 } 
}
layer {
 name: "hourglass1_branch1_level4_branch1_level3_branch1_level2_branch1_res2_branch1_bn3"
 type: "BatchNorm" 
 bottom: "hourglass1_branch1_level4_branch1_level3_branch1_level2_branch1_res2_branch1_conv2" 
 top: "hourglass1_branch1_level4_branch1_level3_branch1_level2_branch1_res2_branch1_bn3" 
 param { 
 lr_mult: 0 
 } 
 param { 
 lr_mult: 0 
 } 
 param { 
 lr_mult: 0 
 } 
 batch_norm_param { 
    use_global_stats: false
 } 
 include { 
  phase: TEST 
 } 
}
layer {
 name: "hourglass1_branch1_level4_branch1_level3_branch1_level2_branch1_res2_branch1_scale3"
 type: "Scale" 
 bottom: "hourglass1_branch1_level4_branch1_level3_branch1_level2_branch1_res2_branch1_bn3" 
 top: "hourglass1_branch1_level4_branch1_level3_branch1_level2_branch1_res2_branch1_scale3" 
 scale_param { 
 bias_term: true 
 } 
 }
layer {
 name: "hourglass1_branch1_level4_branch1_level3_branch1_level2_branch1_res2_branch1_relu3"
 type: "ReLU" 
 bottom: "hourglass1_branch1_level4_branch1_level3_branch1_level2_branch1_res2_branch1_scale3" 
 top: "hourglass1_branch1_level4_branch1_level3_branch1_level2_branch1_res2_branch1_relu3" 
}
layer {
 name: "hourglass1_branch1_level4_branch1_level3_branch1_level2_branch1_res2_branch1_conv3"
 type: "Convolution" 
 bottom: "hourglass1_branch1_level4_branch1_level3_branch1_level2_branch1_res2_branch1_relu3" 
 top: "hourglass1_branch1_level4_branch1_level3_branch1_level2_branch1_res2_branch1_conv3" 
  param {
 	 lr_mult: 1
 	 decay_mult: 1
 }
 param {
 	 lr_mult: 2
 	 decay_mult: 0
 }
 convolution_param { 
 num_output: 256
 pad: 0
 kernel_size: 1
 stride:1
 weight_filler { 
 type: "gaussian"
 std: 0.01
 }
 bias_filler {
 type: "constant"
 }
 }
 }
layer {
 name: "hourglass1_branch1_level4_branch1_level3_branch1_level2_branch1_res2_branch2_conv"
 type: "Convolution" 
 bottom: "hourglass1_branch1_level4_branch1_level3_branch1_level2_branch1_res1" 
 top: "hourglass1_branch1_level4_branch1_level3_branch1_level2_branch1_res2_branch2_conv" 
  param {
 	 lr_mult: 1
 	 decay_mult: 1
 }
 param {
 	 lr_mult: 2
 	 decay_mult: 0
 }
 convolution_param { 
 num_output: 256
 pad: 0
 kernel_size: 1
 stride:1
 weight_filler { 
 type: "gaussian"
 std: 0.01
 }
 bias_filler {
 type: "constant"
 }
 }
 }
layer {
 name: "hourglass1_branch1_level4_branch1_level3_branch1_level2_branch1_res2"
 type: "Eltwise" 
 bottom: "hourglass1_branch1_level4_branch1_level3_branch1_level2_branch1_res2_branch1_conv3" 
 top: "hourglass1_branch1_level4_branch1_level3_branch1_level2_branch1_res2" 
 bottom: "hourglass1_branch1_level4_branch1_level3_branch1_level2_branch1_res2_branch2_conv" 
 eltwise_param { 
 operation: SUM 
 } 
 }
layer {
 name: "hourglass1_branch1_level4_branch1_level3_branch1_level2_branch1_res3_branch1_bn1"
 type: "BatchNorm" 
 bottom: "hourglass1_branch1_level4_branch1_level3_branch1_level2_branch1_res2" 
 top: "hourglass1_branch1_level4_branch1_level3_branch1_level2_branch1_res3_branch1_bn1" 
 param { 
 lr_mult: 0 
 } 
 param { 
 lr_mult: 0 
 } 
 param { 
 lr_mult: 0 
 } 
 batch_norm_param { 
    use_global_stats: false
 } 
 include { 
  phase: TRAIN 
 } 
}
layer {
 name: "hourglass1_branch1_level4_branch1_level3_branch1_level2_branch1_res3_branch1_bn1"
 type: "BatchNorm" 
 bottom: "hourglass1_branch1_level4_branch1_level3_branch1_level2_branch1_res2" 
 top: "hourglass1_branch1_level4_branch1_level3_branch1_level2_branch1_res3_branch1_bn1" 
 param { 
 lr_mult: 0 
 } 
 param { 
 lr_mult: 0 
 } 
 param { 
 lr_mult: 0 
 } 
 batch_norm_param { 
    use_global_stats: false
 } 
 include { 
  phase: TEST 
 } 
}
layer {
 name: "hourglass1_branch1_level4_branch1_level3_branch1_level2_branch1_res3_branch1_scale1"
 type: "Scale" 
 bottom: "hourglass1_branch1_level4_branch1_level3_branch1_level2_branch1_res3_branch1_bn1" 
 top: "hourglass1_branch1_level4_branch1_level3_branch1_level2_branch1_res3_branch1_scale1" 
 scale_param { 
 bias_term: true 
 } 
 }
layer {
 name: "hourglass1_branch1_level4_branch1_level3_branch1_level2_branch1_res3_branch1_relu1"
 type: "ReLU" 
 bottom: "hourglass1_branch1_level4_branch1_level3_branch1_level2_branch1_res3_branch1_scale1" 
 top: "hourglass1_branch1_level4_branch1_level3_branch1_level2_branch1_res3_branch1_relu1" 
}
layer {
 name: "hourglass1_branch1_level4_branch1_level3_branch1_level2_branch1_res3_branch1_conv1"
 type: "Convolution" 
 bottom: "hourglass1_branch1_level4_branch1_level3_branch1_level2_branch1_res3_branch1_relu1" 
 top: "hourglass1_branch1_level4_branch1_level3_branch1_level2_branch1_res3_branch1_conv1" 
  param {
 	 lr_mult: 1
 	 decay_mult: 1
 }
 param {
 	 lr_mult: 2
 	 decay_mult: 0
 }
 convolution_param { 
 num_output: 128
 pad: 0
 kernel_size: 1
 stride:1
 weight_filler { 
 type: "gaussian"
 std: 0.01
 }
 bias_filler {
 type: "constant"
 }
 }
 }
layer {
 name: "hourglass1_branch1_level4_branch1_level3_branch1_level2_branch1_res3_branch1_bn2"
 type: "BatchNorm" 
 bottom: "hourglass1_branch1_level4_branch1_level3_branch1_level2_branch1_res3_branch1_conv1" 
 top: "hourglass1_branch1_level4_branch1_level3_branch1_level2_branch1_res3_branch1_bn2" 
 param { 
 lr_mult: 0 
 } 
 param { 
 lr_mult: 0 
 } 
 param { 
 lr_mult: 0 
 } 
 batch_norm_param { 
    use_global_stats: false
 } 
 include { 
  phase: TRAIN 
 } 
}
layer {
 name: "hourglass1_branch1_level4_branch1_level3_branch1_level2_branch1_res3_branch1_bn2"
 type: "BatchNorm" 
 bottom: "hourglass1_branch1_level4_branch1_level3_branch1_level2_branch1_res3_branch1_conv1" 
 top: "hourglass1_branch1_level4_branch1_level3_branch1_level2_branch1_res3_branch1_bn2" 
 param { 
 lr_mult: 0 
 } 
 param { 
 lr_mult: 0 
 } 
 param { 
 lr_mult: 0 
 } 
 batch_norm_param { 
    use_global_stats: false
 } 
 include { 
  phase: TEST 
 } 
}
layer {
 name: "hourglass1_branch1_level4_branch1_level3_branch1_level2_branch1_res3_branch1_scale2"
 type: "Scale" 
 bottom: "hourglass1_branch1_level4_branch1_level3_branch1_level2_branch1_res3_branch1_bn2" 
 top: "hourglass1_branch1_level4_branch1_level3_branch1_level2_branch1_res3_branch1_scale2" 
 scale_param { 
 bias_term: true 
 } 
 }
layer {
 name: "hourglass1_branch1_level4_branch1_level3_branch1_level2_branch1_res3_branch1_relu2"
 type: "ReLU" 
 bottom: "hourglass1_branch1_level4_branch1_level3_branch1_level2_branch1_res3_branch1_scale2" 
 top: "hourglass1_branch1_level4_branch1_level3_branch1_level2_branch1_res3_branch1_relu2" 
}
layer {
 name: "hourglass1_branch1_level4_branch1_level3_branch1_level2_branch1_res3_branch1_conv2"
 type: "Convolution" 
 bottom: "hourglass1_branch1_level4_branch1_level3_branch1_level2_branch1_res3_branch1_relu2" 
 top: "hourglass1_branch1_level4_branch1_level3_branch1_level2_branch1_res3_branch1_conv2" 
  param {
 	 lr_mult: 1
 	 decay_mult: 1
 }
 param {
 	 lr_mult: 2
 	 decay_mult: 0
 }
 convolution_param { 
 num_output: 128
 pad: 1
 kernel_size: 3
 stride:1
 weight_filler { 
 type: "gaussian"
 std: 0.01
 }
 bias_filler {
 type: "constant"
 }
 }
 }
layer {
 name: "hourglass1_branch1_level4_branch1_level3_branch1_level2_branch1_res3_branch1_bn3"
 type: "BatchNorm" 
 bottom: "hourglass1_branch1_level4_branch1_level3_branch1_level2_branch1_res3_branch1_conv2" 
 top: "hourglass1_branch1_level4_branch1_level3_branch1_level2_branch1_res3_branch1_bn3" 
 param { 
 lr_mult: 0 
 } 
 param { 
 lr_mult: 0 
 } 
 param { 
 lr_mult: 0 
 } 
 batch_norm_param { 
    use_global_stats: false
 } 
 include { 
  phase: TRAIN 
 } 
}
layer {
 name: "hourglass1_branch1_level4_branch1_level3_branch1_level2_branch1_res3_branch1_bn3"
 type: "BatchNorm" 
 bottom: "hourglass1_branch1_level4_branch1_level3_branch1_level2_branch1_res3_branch1_conv2" 
 top: "hourglass1_branch1_level4_branch1_level3_branch1_level2_branch1_res3_branch1_bn3" 
 param { 
 lr_mult: 0 
 } 
 param { 
 lr_mult: 0 
 } 
 param { 
 lr_mult: 0 
 } 
 batch_norm_param { 
    use_global_stats: false
 } 
 include { 
  phase: TEST 
 } 
}
layer {
 name: "hourglass1_branch1_level4_branch1_level3_branch1_level2_branch1_res3_branch1_scale3"
 type: "Scale" 
 bottom: "hourglass1_branch1_level4_branch1_level3_branch1_level2_branch1_res3_branch1_bn3" 
 top: "hourglass1_branch1_level4_branch1_level3_branch1_level2_branch1_res3_branch1_scale3" 
 scale_param { 
 bias_term: true 
 } 
 }
layer {
 name: "hourglass1_branch1_level4_branch1_level3_branch1_level2_branch1_res3_branch1_relu3"
 type: "ReLU" 
 bottom: "hourglass1_branch1_level4_branch1_level3_branch1_level2_branch1_res3_branch1_scale3" 
 top: "hourglass1_branch1_level4_branch1_level3_branch1_level2_branch1_res3_branch1_relu3" 
}
layer {
 name: "hourglass1_branch1_level4_branch1_level3_branch1_level2_branch1_res3_branch1_conv3"
 type: "Convolution" 
 bottom: "hourglass1_branch1_level4_branch1_level3_branch1_level2_branch1_res3_branch1_relu3" 
 top: "hourglass1_branch1_level4_branch1_level3_branch1_level2_branch1_res3_branch1_conv3" 
  param {
 	 lr_mult: 1
 	 decay_mult: 1
 }
 param {
 	 lr_mult: 2
 	 decay_mult: 0
 }
 convolution_param { 
 num_output: 256
 pad: 0
 kernel_size: 1
 stride:1
 weight_filler { 
 type: "gaussian"
 std: 0.01
 }
 bias_filler {
 type: "constant"
 }
 }
 }
layer {
 name: "hourglass1_branch1_level4_branch1_level3_branch1_level2_branch1_res3_branch2_conv"
 type: "Convolution" 
 bottom: "hourglass1_branch1_level4_branch1_level3_branch1_level2_branch1_res2" 
 top: "hourglass1_branch1_level4_branch1_level3_branch1_level2_branch1_res3_branch2_conv" 
  param {
 	 lr_mult: 1
 	 decay_mult: 1
 }
 param {
 	 lr_mult: 2
 	 decay_mult: 0
 }
 convolution_param { 
 num_output: 256
 pad: 0
 kernel_size: 1
 stride:1
 weight_filler { 
 type: "gaussian"
 std: 0.01
 }
 bias_filler {
 type: "constant"
 }
 }
 }
layer {
 name: "hourglass1_branch1_level4_branch1_level3_branch1_level2_branch1_res3"
 type: "Eltwise" 
 bottom: "hourglass1_branch1_level4_branch1_level3_branch1_level2_branch1_res3_branch1_conv3" 
 top: "hourglass1_branch1_level4_branch1_level3_branch1_level2_branch1_res3" 
 bottom: "hourglass1_branch1_level4_branch1_level3_branch1_level2_branch1_res3_branch2_conv" 
 eltwise_param { 
 operation: SUM 
 } 
 }
layer {
 name: "hourglass1_branch1_level4_branch1_level3_branch1_level2_branch1_level1_branch1_bn1"
 type: "BatchNorm" 
 bottom: "hourglass1_branch1_level4_branch1_level3_branch1_level2_branch1_res3" 
 top: "hourglass1_branch1_level4_branch1_level3_branch1_level2_branch1_level1_branch1_bn1" 
 param { 
 lr_mult: 0 
 } 
 param { 
 lr_mult: 0 
 } 
 param { 
 lr_mult: 0 
 } 
 batch_norm_param { 
    use_global_stats: false
 } 
 include { 
  phase: TRAIN 
 } 
}
layer {
 name: "hourglass1_branch1_level4_branch1_level3_branch1_level2_branch1_level1_branch1_bn1"
 type: "BatchNorm" 
 bottom: "hourglass1_branch1_level4_branch1_level3_branch1_level2_branch1_res3" 
 top: "hourglass1_branch1_level4_branch1_level3_branch1_level2_branch1_level1_branch1_bn1" 
 param { 
 lr_mult: 0 
 } 
 param { 
 lr_mult: 0 
 } 
 param { 
 lr_mult: 0 
 } 
 batch_norm_param { 
    use_global_stats: false
 } 
 include { 
  phase: TEST 
 } 
}
layer {
 name: "hourglass1_branch1_level4_branch1_level3_branch1_level2_branch1_level1_branch1_scale1"
 type: "Scale" 
 bottom: "hourglass1_branch1_level4_branch1_level3_branch1_level2_branch1_level1_branch1_bn1" 
 top: "hourglass1_branch1_level4_branch1_level3_branch1_level2_branch1_level1_branch1_scale1" 
 scale_param { 
 bias_term: true 
 } 
 }
layer {
 name: "hourglass1_branch1_level4_branch1_level3_branch1_level2_branch1_level1_branch1_relu1"
 type: "ReLU" 
 bottom: "hourglass1_branch1_level4_branch1_level3_branch1_level2_branch1_level1_branch1_scale1" 
 top: "hourglass1_branch1_level4_branch1_level3_branch1_level2_branch1_level1_branch1_relu1" 
}
layer {
 name: "hourglass1_branch1_level4_branch1_level3_branch1_level2_branch1_level1_branch1_conv1"
 type: "Convolution" 
 bottom: "hourglass1_branch1_level4_branch1_level3_branch1_level2_branch1_level1_branch1_relu1" 
 top: "hourglass1_branch1_level4_branch1_level3_branch1_level2_branch1_level1_branch1_conv1" 
  param {
 	 lr_mult: 1
 	 decay_mult: 1
 }
 param {
 	 lr_mult: 2
 	 decay_mult: 0
 }
 convolution_param { 
 num_output: 256
 pad: 0
 kernel_size: 1
 stride:1
 weight_filler { 
 type: "gaussian"
 std: 0.01
 }
 bias_filler {
 type: "constant"
 }
 }
 }
layer {
 name: "hourglass1_branch1_level4_branch1_level3_branch1_level2_branch1_level1_branch1_bn2"
 type: "BatchNorm" 
 bottom: "hourglass1_branch1_level4_branch1_level3_branch1_level2_branch1_level1_branch1_conv1" 
 top: "hourglass1_branch1_level4_branch1_level3_branch1_level2_branch1_level1_branch1_bn2" 
 param { 
 lr_mult: 0 
 } 
 param { 
 lr_mult: 0 
 } 
 param { 
 lr_mult: 0 
 } 
 batch_norm_param { 
    use_global_stats: false
 } 
 include { 
  phase: TRAIN 
 } 
}
layer {
 name: "hourglass1_branch1_level4_branch1_level3_branch1_level2_branch1_level1_branch1_bn2"
 type: "BatchNorm" 
 bottom: "hourglass1_branch1_level4_branch1_level3_branch1_level2_branch1_level1_branch1_conv1" 
 top: "hourglass1_branch1_level4_branch1_level3_branch1_level2_branch1_level1_branch1_bn2" 
 param { 
 lr_mult: 0 
 } 
 param { 
 lr_mult: 0 
 } 
 param { 
 lr_mult: 0 
 } 
 batch_norm_param { 
    use_global_stats: false
 } 
 include { 
  phase: TEST 
 } 
}
layer {
 name: "hourglass1_branch1_level4_branch1_level3_branch1_level2_branch1_level1_branch1_scale2"
 type: "Scale" 
 bottom: "hourglass1_branch1_level4_branch1_level3_branch1_level2_branch1_level1_branch1_bn2" 
 top: "hourglass1_branch1_level4_branch1_level3_branch1_level2_branch1_level1_branch1_scale2" 
 scale_param { 
 bias_term: true 
 } 
 }
layer {
 name: "hourglass1_branch1_level4_branch1_level3_branch1_level2_branch1_level1_branch1_relu2"
 type: "ReLU" 
 bottom: "hourglass1_branch1_level4_branch1_level3_branch1_level2_branch1_level1_branch1_scale2" 
 top: "hourglass1_branch1_level4_branch1_level3_branch1_level2_branch1_level1_branch1_relu2" 
}
layer {
 name: "hourglass1_branch1_level4_branch1_level3_branch1_level2_branch1_level1_branch1_conv2"
 type: "Convolution" 
 bottom: "hourglass1_branch1_level4_branch1_level3_branch1_level2_branch1_level1_branch1_relu2" 
 top: "hourglass1_branch1_level4_branch1_level3_branch1_level2_branch1_level1_branch1_conv2" 
  param {
 	 lr_mult: 1
 	 decay_mult: 1
 }
 param {
 	 lr_mult: 2
 	 decay_mult: 0
 }
 convolution_param { 
 num_output: 256
 pad: 1
 kernel_size: 3
 stride:1
 weight_filler { 
 type: "gaussian"
 std: 0.01
 }
 bias_filler {
 type: "constant"
 }
 }
 }
layer {
 name: "hourglass1_branch1_level4_branch1_level3_branch1_level2_branch1_level1_branch1_bn3"
 type: "BatchNorm" 
 bottom: "hourglass1_branch1_level4_branch1_level3_branch1_level2_branch1_level1_branch1_conv2" 
 top: "hourglass1_branch1_level4_branch1_level3_branch1_level2_branch1_level1_branch1_bn3" 
 param { 
 lr_mult: 0 
 } 
 param { 
 lr_mult: 0 
 } 
 param { 
 lr_mult: 0 
 } 
 batch_norm_param { 
    use_global_stats: false
 } 
 include { 
  phase: TRAIN 
 } 
}
layer {
 name: "hourglass1_branch1_level4_branch1_level3_branch1_level2_branch1_level1_branch1_bn3"
 type: "BatchNorm" 
 bottom: "hourglass1_branch1_level4_branch1_level3_branch1_level2_branch1_level1_branch1_conv2" 
 top: "hourglass1_branch1_level4_branch1_level3_branch1_level2_branch1_level1_branch1_bn3" 
 param { 
 lr_mult: 0 
 } 
 param { 
 lr_mult: 0 
 } 
 param { 
 lr_mult: 0 
 } 
 batch_norm_param { 
    use_global_stats: false
 } 
 include { 
  phase: TEST 
 } 
}
layer {
 name: "hourglass1_branch1_level4_branch1_level3_branch1_level2_branch1_level1_branch1_scale3"
 type: "Scale" 
 bottom: "hourglass1_branch1_level4_branch1_level3_branch1_level2_branch1_level1_branch1_bn3" 
 top: "hourglass1_branch1_level4_branch1_level3_branch1_level2_branch1_level1_branch1_scale3" 
 scale_param { 
 bias_term: true 
 } 
 }
layer {
 name: "hourglass1_branch1_level4_branch1_level3_branch1_level2_branch1_level1_branch1_relu3"
 type: "ReLU" 
 bottom: "hourglass1_branch1_level4_branch1_level3_branch1_level2_branch1_level1_branch1_scale3" 
 top: "hourglass1_branch1_level4_branch1_level3_branch1_level2_branch1_level1_branch1_relu3" 
}
layer {
 name: "hourglass1_branch1_level4_branch1_level3_branch1_level2_branch1_level1_branch1_conv3"
 type: "Convolution" 
 bottom: "hourglass1_branch1_level4_branch1_level3_branch1_level2_branch1_level1_branch1_relu3" 
 top: "hourglass1_branch1_level4_branch1_level3_branch1_level2_branch1_level1_branch1_conv3" 
  param {
 	 lr_mult: 1
 	 decay_mult: 1
 }
 param {
 	 lr_mult: 2
 	 decay_mult: 0
 }
 convolution_param { 
 num_output: 512
 pad: 0
 kernel_size: 1
 stride:1
 weight_filler { 
 type: "gaussian"
 std: 0.01
 }
 bias_filler {
 type: "constant"
 }
 }
 }
layer {
 name: "hourglass1_branch1_level4_branch1_level3_branch1_level2_branch1_level1_branch2_conv"
 type: "Convolution" 
 bottom: "hourglass1_branch1_level4_branch1_level3_branch1_level2_branch1_res3" 
 top: "hourglass1_branch1_level4_branch1_level3_branch1_level2_branch1_level1_branch2_conv" 
  param {
 	 lr_mult: 1
 	 decay_mult: 1
 }
 param {
 	 lr_mult: 2
 	 decay_mult: 0
 }
 convolution_param { 
 num_output: 512
 pad: 0
 kernel_size: 1
 stride:1
 weight_filler { 
 type: "gaussian"
 std: 0.01
 }
 bias_filler {
 type: "constant"
 }
 }
 }
layer {
 name: "hourglass1_branch1_level4_branch1_level3_branch1_level2_branch1_level1"
 type: "Eltwise" 
 bottom: "hourglass1_branch1_level4_branch1_level3_branch1_level2_branch1_level1_branch1_conv3" 
 top: "hourglass1_branch1_level4_branch1_level3_branch1_level2_branch1_level1" 
 bottom: "hourglass1_branch1_level4_branch1_level3_branch1_level2_branch1_level1_branch2_conv" 
 eltwise_param { 
 operation: SUM 
 } 
 }
layer {
 name: "hourglass1_branch1_level4_branch1_level3_branch1_level2_branch1_res5_branch1_bn1"
 type: "BatchNorm" 
 bottom: "hourglass1_branch1_level4_branch1_level3_branch1_level2_branch1_level1" 
 top: "hourglass1_branch1_level4_branch1_level3_branch1_level2_branch1_res5_branch1_bn1" 
 param { 
 lr_mult: 0 
 } 
 param { 
 lr_mult: 0 
 } 
 param { 
 lr_mult: 0 
 } 
 batch_norm_param { 
    use_global_stats: false
 } 
 include { 
  phase: TRAIN 
 } 
}
layer {
 name: "hourglass1_branch1_level4_branch1_level3_branch1_level2_branch1_res5_branch1_bn1"
 type: "BatchNorm" 
 bottom: "hourglass1_branch1_level4_branch1_level3_branch1_level2_branch1_level1" 
 top: "hourglass1_branch1_level4_branch1_level3_branch1_level2_branch1_res5_branch1_bn1" 
 param { 
 lr_mult: 0 
 } 
 param { 
 lr_mult: 0 
 } 
 param { 
 lr_mult: 0 
 } 
 batch_norm_param { 
    use_global_stats: false
 } 
 include { 
  phase: TEST 
 } 
}
layer {
 name: "hourglass1_branch1_level4_branch1_level3_branch1_level2_branch1_res5_branch1_scale1"
 type: "Scale" 
 bottom: "hourglass1_branch1_level4_branch1_level3_branch1_level2_branch1_res5_branch1_bn1" 
 top: "hourglass1_branch1_level4_branch1_level3_branch1_level2_branch1_res5_branch1_scale1" 
 scale_param { 
 bias_term: true 
 } 
 }
layer {
 name: "hourglass1_branch1_level4_branch1_level3_branch1_level2_branch1_res5_branch1_relu1"
 type: "ReLU" 
 bottom: "hourglass1_branch1_level4_branch1_level3_branch1_level2_branch1_res5_branch1_scale1" 
 top: "hourglass1_branch1_level4_branch1_level3_branch1_level2_branch1_res5_branch1_relu1" 
}
layer {
 name: "hourglass1_branch1_level4_branch1_level3_branch1_level2_branch1_res5_branch1_conv1"
 type: "Convolution" 
 bottom: "hourglass1_branch1_level4_branch1_level3_branch1_level2_branch1_res5_branch1_relu1" 
 top: "hourglass1_branch1_level4_branch1_level3_branch1_level2_branch1_res5_branch1_conv1" 
  param {
 	 lr_mult: 1
 	 decay_mult: 1
 }
 param {
 	 lr_mult: 2
 	 decay_mult: 0
 }
 convolution_param { 
 num_output: 256
 pad: 0
 kernel_size: 1
 stride:1
 weight_filler { 
 type: "gaussian"
 std: 0.01
 }
 bias_filler {
 type: "constant"
 }
 }
 }
layer {
 name: "hourglass1_branch1_level4_branch1_level3_branch1_level2_branch1_res5_branch1_bn2"
 type: "BatchNorm" 
 bottom: "hourglass1_branch1_level4_branch1_level3_branch1_level2_branch1_res5_branch1_conv1" 
 top: "hourglass1_branch1_level4_branch1_level3_branch1_level2_branch1_res5_branch1_bn2" 
 param { 
 lr_mult: 0 
 } 
 param { 
 lr_mult: 0 
 } 
 param { 
 lr_mult: 0 
 } 
 batch_norm_param { 
    use_global_stats: false
 } 
 include { 
  phase: TRAIN 
 } 
}
layer {
 name: "hourglass1_branch1_level4_branch1_level3_branch1_level2_branch1_res5_branch1_bn2"
 type: "BatchNorm" 
 bottom: "hourglass1_branch1_level4_branch1_level3_branch1_level2_branch1_res5_branch1_conv1" 
 top: "hourglass1_branch1_level4_branch1_level3_branch1_level2_branch1_res5_branch1_bn2" 
 param { 
 lr_mult: 0 
 } 
 param { 
 lr_mult: 0 
 } 
 param { 
 lr_mult: 0 
 } 
 batch_norm_param { 
    use_global_stats: false
 } 
 include { 
  phase: TEST 
 } 
}
layer {
 name: "hourglass1_branch1_level4_branch1_level3_branch1_level2_branch1_res5_branch1_scale2"
 type: "Scale" 
 bottom: "hourglass1_branch1_level4_branch1_level3_branch1_level2_branch1_res5_branch1_bn2" 
 top: "hourglass1_branch1_level4_branch1_level3_branch1_level2_branch1_res5_branch1_scale2" 
 scale_param { 
 bias_term: true 
 } 
 }
layer {
 name: "hourglass1_branch1_level4_branch1_level3_branch1_level2_branch1_res5_branch1_relu2"
 type: "ReLU" 
 bottom: "hourglass1_branch1_level4_branch1_level3_branch1_level2_branch1_res5_branch1_scale2" 
 top: "hourglass1_branch1_level4_branch1_level3_branch1_level2_branch1_res5_branch1_relu2" 
}
layer {
 name: "hourglass1_branch1_level4_branch1_level3_branch1_level2_branch1_res5_branch1_conv2"
 type: "Convolution" 
 bottom: "hourglass1_branch1_level4_branch1_level3_branch1_level2_branch1_res5_branch1_relu2" 
 top: "hourglass1_branch1_level4_branch1_level3_branch1_level2_branch1_res5_branch1_conv2" 
  param {
 	 lr_mult: 1
 	 decay_mult: 1
 }
 param {
 	 lr_mult: 2
 	 decay_mult: 0
 }
 convolution_param { 
 num_output: 256
 pad: 1
 kernel_size: 3
 stride:1
 weight_filler { 
 type: "gaussian"
 std: 0.01
 }
 bias_filler {
 type: "constant"
 }
 }
 }
layer {
 name: "hourglass1_branch1_level4_branch1_level3_branch1_level2_branch1_res5_branch1_bn3"
 type: "BatchNorm" 
 bottom: "hourglass1_branch1_level4_branch1_level3_branch1_level2_branch1_res5_branch1_conv2" 
 top: "hourglass1_branch1_level4_branch1_level3_branch1_level2_branch1_res5_branch1_bn3" 
 param { 
 lr_mult: 0 
 } 
 param { 
 lr_mult: 0 
 } 
 param { 
 lr_mult: 0 
 } 
 batch_norm_param { 
    use_global_stats: false
 } 
 include { 
  phase: TRAIN 
 } 
}
layer {
 name: "hourglass1_branch1_level4_branch1_level3_branch1_level2_branch1_res5_branch1_bn3"
 type: "BatchNorm" 
 bottom: "hourglass1_branch1_level4_branch1_level3_branch1_level2_branch1_res5_branch1_conv2" 
 top: "hourglass1_branch1_level4_branch1_level3_branch1_level2_branch1_res5_branch1_bn3" 
 param { 
 lr_mult: 0 
 } 
 param { 
 lr_mult: 0 
 } 
 param { 
 lr_mult: 0 
 } 
 batch_norm_param { 
    use_global_stats: false
 } 
 include { 
  phase: TEST 
 } 
}
layer {
 name: "hourglass1_branch1_level4_branch1_level3_branch1_level2_branch1_res5_branch1_scale3"
 type: "Scale" 
 bottom: "hourglass1_branch1_level4_branch1_level3_branch1_level2_branch1_res5_branch1_bn3" 
 top: "hourglass1_branch1_level4_branch1_level3_branch1_level2_branch1_res5_branch1_scale3" 
 scale_param { 
 bias_term: true 
 } 
 }
layer {
 name: "hourglass1_branch1_level4_branch1_level3_branch1_level2_branch1_res5_branch1_relu3"
 type: "ReLU" 
 bottom: "hourglass1_branch1_level4_branch1_level3_branch1_level2_branch1_res5_branch1_scale3" 
 top: "hourglass1_branch1_level4_branch1_level3_branch1_level2_branch1_res5_branch1_relu3" 
}
layer {
 name: "hourglass1_branch1_level4_branch1_level3_branch1_level2_branch1_res5_branch1_conv3"
 type: "Convolution" 
 bottom: "hourglass1_branch1_level4_branch1_level3_branch1_level2_branch1_res5_branch1_relu3" 
 top: "hourglass1_branch1_level4_branch1_level3_branch1_level2_branch1_res5_branch1_conv3" 
  param {
 	 lr_mult: 1
 	 decay_mult: 1
 }
 param {
 	 lr_mult: 2
 	 decay_mult: 0
 }
 convolution_param { 
 num_output: 512
 pad: 0
 kernel_size: 1
 stride:1
 weight_filler { 
 type: "gaussian"
 std: 0.01
 }
 bias_filler {
 type: "constant"
 }
 }
 }
layer {
 name: "hourglass1_branch1_level4_branch1_level3_branch1_level2_branch1_res5_branch2_conv"
 type: "Convolution" 
 bottom: "hourglass1_branch1_level4_branch1_level3_branch1_level2_branch1_level1" 
 top: "hourglass1_branch1_level4_branch1_level3_branch1_level2_branch1_res5_branch2_conv" 
  param {
 	 lr_mult: 1
 	 decay_mult: 1
 }
 param {
 	 lr_mult: 2
 	 decay_mult: 0
 }
 convolution_param { 
 num_output: 512
 pad: 0
 kernel_size: 1
 stride:1
 weight_filler { 
 type: "gaussian"
 std: 0.01
 }
 bias_filler {
 type: "constant"
 }
 }
 }
layer {
 name: "hourglass1_branch1_level4_branch1_level3_branch1_level2_branch1_res5"
 type: "Eltwise" 
 bottom: "hourglass1_branch1_level4_branch1_level3_branch1_level2_branch1_res5_branch1_conv3" 
 top: "hourglass1_branch1_level4_branch1_level3_branch1_level2_branch1_res5" 
 bottom: "hourglass1_branch1_level4_branch1_level3_branch1_level2_branch1_res5_branch2_conv" 
 eltwise_param { 
 operation: SUM 
 } 
 }
layer {
 name: "hourglass1_branch1_level4_branch1_level3_branch1_level2_upsampling"
 type: "Deconvolution" 
 bottom: "hourglass1_branch1_level4_branch1_level3_branch1_level2_branch1_res5" 
 top: "hourglass1_branch1_level4_branch1_level3_branch1_level2_upsampling" 
 convolution_param { 
 num_output: 512
 pad: 1
 kernel_size: 4
 stride: 2
 group: 512
 weight_filler: { type: "bilinear" }
 bias_term: false
 }
 param {
 	 lr_mult: 0
 	 decay_mult: 0
 }
 }
layer {
 name: "hourglass1_branch1_level4_branch1_level3_branch1_level2_branch2_res1_branch1_bn1"
 type: "BatchNorm" 
 bottom: "hourglass1_branch1_level4_branch1_level3_branch1_res3" 
 top: "hourglass1_branch1_level4_branch1_level3_branch1_level2_branch2_res1_branch1_bn1" 
 param { 
 lr_mult: 0 
 } 
 param { 
 lr_mult: 0 
 } 
 param { 
 lr_mult: 0 
 } 
 batch_norm_param { 
    use_global_stats: false
 } 
 include { 
  phase: TRAIN 
 } 
}
layer {
 name: "hourglass1_branch1_level4_branch1_level3_branch1_level2_branch2_res1_branch1_bn1"
 type: "BatchNorm" 
 bottom: "hourglass1_branch1_level4_branch1_level3_branch1_res3" 
 top: "hourglass1_branch1_level4_branch1_level3_branch1_level2_branch2_res1_branch1_bn1" 
 param { 
 lr_mult: 0 
 } 
 param { 
 lr_mult: 0 
 } 
 param { 
 lr_mult: 0 
 } 
 batch_norm_param { 
    use_global_stats: false
 } 
 include { 
  phase: TEST 
 } 
}
layer {
 name: "hourglass1_branch1_level4_branch1_level3_branch1_level2_branch2_res1_branch1_scale1"
 type: "Scale" 
 bottom: "hourglass1_branch1_level4_branch1_level3_branch1_level2_branch2_res1_branch1_bn1" 
 top: "hourglass1_branch1_level4_branch1_level3_branch1_level2_branch2_res1_branch1_scale1" 
 scale_param { 
 bias_term: true 
 } 
 }
layer {
 name: "hourglass1_branch1_level4_branch1_level3_branch1_level2_branch2_res1_branch1_relu1"
 type: "ReLU" 
 bottom: "hourglass1_branch1_level4_branch1_level3_branch1_level2_branch2_res1_branch1_scale1" 
 top: "hourglass1_branch1_level4_branch1_level3_branch1_level2_branch2_res1_branch1_relu1" 
}
layer {
 name: "hourglass1_branch1_level4_branch1_level3_branch1_level2_branch2_res1_branch1_conv1"
 type: "Convolution" 
 bottom: "hourglass1_branch1_level4_branch1_level3_branch1_level2_branch2_res1_branch1_relu1" 
 top: "hourglass1_branch1_level4_branch1_level3_branch1_level2_branch2_res1_branch1_conv1" 
  param {
 	 lr_mult: 1
 	 decay_mult: 1
 }
 param {
 	 lr_mult: 2
 	 decay_mult: 0
 }
 convolution_param { 
 num_output: 128
 pad: 0
 kernel_size: 1
 stride:1
 weight_filler { 
 type: "gaussian"
 std: 0.01
 }
 bias_filler {
 type: "constant"
 }
 }
 }
layer {
 name: "hourglass1_branch1_level4_branch1_level3_branch1_level2_branch2_res1_branch1_bn2"
 type: "BatchNorm" 
 bottom: "hourglass1_branch1_level4_branch1_level3_branch1_level2_branch2_res1_branch1_conv1" 
 top: "hourglass1_branch1_level4_branch1_level3_branch1_level2_branch2_res1_branch1_bn2" 
 param { 
 lr_mult: 0 
 } 
 param { 
 lr_mult: 0 
 } 
 param { 
 lr_mult: 0 
 } 
 batch_norm_param { 
    use_global_stats: false
 } 
 include { 
  phase: TRAIN 
 } 
}
layer {
 name: "hourglass1_branch1_level4_branch1_level3_branch1_level2_branch2_res1_branch1_bn2"
 type: "BatchNorm" 
 bottom: "hourglass1_branch1_level4_branch1_level3_branch1_level2_branch2_res1_branch1_conv1" 
 top: "hourglass1_branch1_level4_branch1_level3_branch1_level2_branch2_res1_branch1_bn2" 
 param { 
 lr_mult: 0 
 } 
 param { 
 lr_mult: 0 
 } 
 param { 
 lr_mult: 0 
 } 
 batch_norm_param { 
    use_global_stats: false
 } 
 include { 
  phase: TEST 
 } 
}
layer {
 name: "hourglass1_branch1_level4_branch1_level3_branch1_level2_branch2_res1_branch1_scale2"
 type: "Scale" 
 bottom: "hourglass1_branch1_level4_branch1_level3_branch1_level2_branch2_res1_branch1_bn2" 
 top: "hourglass1_branch1_level4_branch1_level3_branch1_level2_branch2_res1_branch1_scale2" 
 scale_param { 
 bias_term: true 
 } 
 }
layer {
 name: "hourglass1_branch1_level4_branch1_level3_branch1_level2_branch2_res1_branch1_relu2"
 type: "ReLU" 
 bottom: "hourglass1_branch1_level4_branch1_level3_branch1_level2_branch2_res1_branch1_scale2" 
 top: "hourglass1_branch1_level4_branch1_level3_branch1_level2_branch2_res1_branch1_relu2" 
}
layer {
 name: "hourglass1_branch1_level4_branch1_level3_branch1_level2_branch2_res1_branch1_conv2"
 type: "Convolution" 
 bottom: "hourglass1_branch1_level4_branch1_level3_branch1_level2_branch2_res1_branch1_relu2" 
 top: "hourglass1_branch1_level4_branch1_level3_branch1_level2_branch2_res1_branch1_conv2" 
  param {
 	 lr_mult: 1
 	 decay_mult: 1
 }
 param {
 	 lr_mult: 2
 	 decay_mult: 0
 }
 convolution_param { 
 num_output: 128
 pad: 1
 kernel_size: 3
 stride:1
 weight_filler { 
 type: "gaussian"
 std: 0.01
 }
 bias_filler {
 type: "constant"
 }
 }
 }
layer {
 name: "hourglass1_branch1_level4_branch1_level3_branch1_level2_branch2_res1_branch1_bn3"
 type: "BatchNorm" 
 bottom: "hourglass1_branch1_level4_branch1_level3_branch1_level2_branch2_res1_branch1_conv2" 
 top: "hourglass1_branch1_level4_branch1_level3_branch1_level2_branch2_res1_branch1_bn3" 
 param { 
 lr_mult: 0 
 } 
 param { 
 lr_mult: 0 
 } 
 param { 
 lr_mult: 0 
 } 
 batch_norm_param { 
    use_global_stats: false
 } 
 include { 
  phase: TRAIN 
 } 
}
layer {
 name: "hourglass1_branch1_level4_branch1_level3_branch1_level2_branch2_res1_branch1_bn3"
 type: "BatchNorm" 
 bottom: "hourglass1_branch1_level4_branch1_level3_branch1_level2_branch2_res1_branch1_conv2" 
 top: "hourglass1_branch1_level4_branch1_level3_branch1_level2_branch2_res1_branch1_bn3" 
 param { 
 lr_mult: 0 
 } 
 param { 
 lr_mult: 0 
 } 
 param { 
 lr_mult: 0 
 } 
 batch_norm_param { 
    use_global_stats: false
 } 
 include { 
  phase: TEST 
 } 
}
layer {
 name: "hourglass1_branch1_level4_branch1_level3_branch1_level2_branch2_res1_branch1_scale3"
 type: "Scale" 
 bottom: "hourglass1_branch1_level4_branch1_level3_branch1_level2_branch2_res1_branch1_bn3" 
 top: "hourglass1_branch1_level4_branch1_level3_branch1_level2_branch2_res1_branch1_scale3" 
 scale_param { 
 bias_term: true 
 } 
 }
layer {
 name: "hourglass1_branch1_level4_branch1_level3_branch1_level2_branch2_res1_branch1_relu3"
 type: "ReLU" 
 bottom: "hourglass1_branch1_level4_branch1_level3_branch1_level2_branch2_res1_branch1_scale3" 
 top: "hourglass1_branch1_level4_branch1_level3_branch1_level2_branch2_res1_branch1_relu3" 
}
layer {
 name: "hourglass1_branch1_level4_branch1_level3_branch1_level2_branch2_res1_branch1_conv3"
 type: "Convolution" 
 bottom: "hourglass1_branch1_level4_branch1_level3_branch1_level2_branch2_res1_branch1_relu3" 
 top: "hourglass1_branch1_level4_branch1_level3_branch1_level2_branch2_res1_branch1_conv3" 
  param {
 	 lr_mult: 1
 	 decay_mult: 1
 }
 param {
 	 lr_mult: 2
 	 decay_mult: 0
 }
 convolution_param { 
 num_output: 256
 pad: 0
 kernel_size: 1
 stride:1
 weight_filler { 
 type: "gaussian"
 std: 0.01
 }
 bias_filler {
 type: "constant"
 }
 }
 }
layer {
 name: "hourglass1_branch1_level4_branch1_level3_branch1_level2_branch2_res1_branch2_conv"
 type: "Convolution" 
 bottom: "hourglass1_branch1_level4_branch1_level3_branch1_res3" 
 top: "hourglass1_branch1_level4_branch1_level3_branch1_level2_branch2_res1_branch2_conv" 
  param {
 	 lr_mult: 1
 	 decay_mult: 1
 }
 param {
 	 lr_mult: 2
 	 decay_mult: 0
 }
 convolution_param { 
 num_output: 256
 pad: 0
 kernel_size: 1
 stride:1
 weight_filler { 
 type: "gaussian"
 std: 0.01
 }
 bias_filler {
 type: "constant"
 }
 }
 }
layer {
 name: "hourglass1_branch1_level4_branch1_level3_branch1_level2_branch2_res1"
 type: "Eltwise" 
 bottom: "hourglass1_branch1_level4_branch1_level3_branch1_level2_branch2_res1_branch1_conv3" 
 top: "hourglass1_branch1_level4_branch1_level3_branch1_level2_branch2_res1" 
 bottom: "hourglass1_branch1_level4_branch1_level3_branch1_level2_branch2_res1_branch2_conv" 
 eltwise_param { 
 operation: SUM 
 } 
 }
layer {
 name: "hourglass1_branch1_level4_branch1_level3_branch1_level2_branch2_res2_branch1_bn1"
 type: "BatchNorm" 
 bottom: "hourglass1_branch1_level4_branch1_level3_branch1_level2_branch2_res1" 
 top: "hourglass1_branch1_level4_branch1_level3_branch1_level2_branch2_res2_branch1_bn1" 
 param { 
 lr_mult: 0 
 } 
 param { 
 lr_mult: 0 
 } 
 param { 
 lr_mult: 0 
 } 
 batch_norm_param { 
    use_global_stats: false
 } 
 include { 
  phase: TRAIN 
 } 
}
layer {
 name: "hourglass1_branch1_level4_branch1_level3_branch1_level2_branch2_res2_branch1_bn1"
 type: "BatchNorm" 
 bottom: "hourglass1_branch1_level4_branch1_level3_branch1_level2_branch2_res1" 
 top: "hourglass1_branch1_level4_branch1_level3_branch1_level2_branch2_res2_branch1_bn1" 
 param { 
 lr_mult: 0 
 } 
 param { 
 lr_mult: 0 
 } 
 param { 
 lr_mult: 0 
 } 
 batch_norm_param { 
    use_global_stats: false
 } 
 include { 
  phase: TEST 
 } 
}
layer {
 name: "hourglass1_branch1_level4_branch1_level3_branch1_level2_branch2_res2_branch1_scale1"
 type: "Scale" 
 bottom: "hourglass1_branch1_level4_branch1_level3_branch1_level2_branch2_res2_branch1_bn1" 
 top: "hourglass1_branch1_level4_branch1_level3_branch1_level2_branch2_res2_branch1_scale1" 
 scale_param { 
 bias_term: true 
 } 
 }
layer {
 name: "hourglass1_branch1_level4_branch1_level3_branch1_level2_branch2_res2_branch1_relu1"
 type: "ReLU" 
 bottom: "hourglass1_branch1_level4_branch1_level3_branch1_level2_branch2_res2_branch1_scale1" 
 top: "hourglass1_branch1_level4_branch1_level3_branch1_level2_branch2_res2_branch1_relu1" 
}
layer {
 name: "hourglass1_branch1_level4_branch1_level3_branch1_level2_branch2_res2_branch1_conv1"
 type: "Convolution" 
 bottom: "hourglass1_branch1_level4_branch1_level3_branch1_level2_branch2_res2_branch1_relu1" 
 top: "hourglass1_branch1_level4_branch1_level3_branch1_level2_branch2_res2_branch1_conv1" 
  param {
 	 lr_mult: 1
 	 decay_mult: 1
 }
 param {
 	 lr_mult: 2
 	 decay_mult: 0
 }
 convolution_param { 
 num_output: 128
 pad: 0
 kernel_size: 1
 stride:1
 weight_filler { 
 type: "gaussian"
 std: 0.01
 }
 bias_filler {
 type: "constant"
 }
 }
 }
layer {
 name: "hourglass1_branch1_level4_branch1_level3_branch1_level2_branch2_res2_branch1_bn2"
 type: "BatchNorm" 
 bottom: "hourglass1_branch1_level4_branch1_level3_branch1_level2_branch2_res2_branch1_conv1" 
 top: "hourglass1_branch1_level4_branch1_level3_branch1_level2_branch2_res2_branch1_bn2" 
 param { 
 lr_mult: 0 
 } 
 param { 
 lr_mult: 0 
 } 
 param { 
 lr_mult: 0 
 } 
 batch_norm_param { 
    use_global_stats: false
 } 
 include { 
  phase: TRAIN 
 } 
}
layer {
 name: "hourglass1_branch1_level4_branch1_level3_branch1_level2_branch2_res2_branch1_bn2"
 type: "BatchNorm" 
 bottom: "hourglass1_branch1_level4_branch1_level3_branch1_level2_branch2_res2_branch1_conv1" 
 top: "hourglass1_branch1_level4_branch1_level3_branch1_level2_branch2_res2_branch1_bn2" 
 param { 
 lr_mult: 0 
 } 
 param { 
 lr_mult: 0 
 } 
 param { 
 lr_mult: 0 
 } 
 batch_norm_param { 
    use_global_stats: false
 } 
 include { 
  phase: TEST 
 } 
}
layer {
 name: "hourglass1_branch1_level4_branch1_level3_branch1_level2_branch2_res2_branch1_scale2"
 type: "Scale" 
 bottom: "hourglass1_branch1_level4_branch1_level3_branch1_level2_branch2_res2_branch1_bn2" 
 top: "hourglass1_branch1_level4_branch1_level3_branch1_level2_branch2_res2_branch1_scale2" 
 scale_param { 
 bias_term: true 
 } 
 }
layer {
 name: "hourglass1_branch1_level4_branch1_level3_branch1_level2_branch2_res2_branch1_relu2"
 type: "ReLU" 
 bottom: "hourglass1_branch1_level4_branch1_level3_branch1_level2_branch2_res2_branch1_scale2" 
 top: "hourglass1_branch1_level4_branch1_level3_branch1_level2_branch2_res2_branch1_relu2" 
}
layer {
 name: "hourglass1_branch1_level4_branch1_level3_branch1_level2_branch2_res2_branch1_conv2"
 type: "Convolution" 
 bottom: "hourglass1_branch1_level4_branch1_level3_branch1_level2_branch2_res2_branch1_relu2" 
 top: "hourglass1_branch1_level4_branch1_level3_branch1_level2_branch2_res2_branch1_conv2" 
  param {
 	 lr_mult: 1
 	 decay_mult: 1
 }
 param {
 	 lr_mult: 2
 	 decay_mult: 0
 }
 convolution_param { 
 num_output: 128
 pad: 1
 kernel_size: 3
 stride:1
 weight_filler { 
 type: "gaussian"
 std: 0.01
 }
 bias_filler {
 type: "constant"
 }
 }
 }
layer {
 name: "hourglass1_branch1_level4_branch1_level3_branch1_level2_branch2_res2_branch1_bn3"
 type: "BatchNorm" 
 bottom: "hourglass1_branch1_level4_branch1_level3_branch1_level2_branch2_res2_branch1_conv2" 
 top: "hourglass1_branch1_level4_branch1_level3_branch1_level2_branch2_res2_branch1_bn3" 
 param { 
 lr_mult: 0 
 } 
 param { 
 lr_mult: 0 
 } 
 param { 
 lr_mult: 0 
 } 
 batch_norm_param { 
    use_global_stats: false
 } 
 include { 
  phase: TRAIN 
 } 
}
layer {
 name: "hourglass1_branch1_level4_branch1_level3_branch1_level2_branch2_res2_branch1_bn3"
 type: "BatchNorm" 
 bottom: "hourglass1_branch1_level4_branch1_level3_branch1_level2_branch2_res2_branch1_conv2" 
 top: "hourglass1_branch1_level4_branch1_level3_branch1_level2_branch2_res2_branch1_bn3" 
 param { 
 lr_mult: 0 
 } 
 param { 
 lr_mult: 0 
 } 
 param { 
 lr_mult: 0 
 } 
 batch_norm_param { 
    use_global_stats: false
 } 
 include { 
  phase: TEST 
 } 
}
layer {
 name: "hourglass1_branch1_level4_branch1_level3_branch1_level2_branch2_res2_branch1_scale3"
 type: "Scale" 
 bottom: "hourglass1_branch1_level4_branch1_level3_branch1_level2_branch2_res2_branch1_bn3" 
 top: "hourglass1_branch1_level4_branch1_level3_branch1_level2_branch2_res2_branch1_scale3" 
 scale_param { 
 bias_term: true 
 } 
 }
layer {
 name: "hourglass1_branch1_level4_branch1_level3_branch1_level2_branch2_res2_branch1_relu3"
 type: "ReLU" 
 bottom: "hourglass1_branch1_level4_branch1_level3_branch1_level2_branch2_res2_branch1_scale3" 
 top: "hourglass1_branch1_level4_branch1_level3_branch1_level2_branch2_res2_branch1_relu3" 
}
layer {
 name: "hourglass1_branch1_level4_branch1_level3_branch1_level2_branch2_res2_branch1_conv3"
 type: "Convolution" 
 bottom: "hourglass1_branch1_level4_branch1_level3_branch1_level2_branch2_res2_branch1_relu3" 
 top: "hourglass1_branch1_level4_branch1_level3_branch1_level2_branch2_res2_branch1_conv3" 
  param {
 	 lr_mult: 1
 	 decay_mult: 1
 }
 param {
 	 lr_mult: 2
 	 decay_mult: 0
 }
 convolution_param { 
 num_output: 256
 pad: 0
 kernel_size: 1
 stride:1
 weight_filler { 
 type: "gaussian"
 std: 0.01
 }
 bias_filler {
 type: "constant"
 }
 }
 }
layer {
 name: "hourglass1_branch1_level4_branch1_level3_branch1_level2_branch2_res2_branch2_conv"
 type: "Convolution" 
 bottom: "hourglass1_branch1_level4_branch1_level3_branch1_level2_branch2_res1" 
 top: "hourglass1_branch1_level4_branch1_level3_branch1_level2_branch2_res2_branch2_conv" 
  param {
 	 lr_mult: 1
 	 decay_mult: 1
 }
 param {
 	 lr_mult: 2
 	 decay_mult: 0
 }
 convolution_param { 
 num_output: 256
 pad: 0
 kernel_size: 1
 stride:1
 weight_filler { 
 type: "gaussian"
 std: 0.01
 }
 bias_filler {
 type: "constant"
 }
 }
 }
layer {
 name: "hourglass1_branch1_level4_branch1_level3_branch1_level2_branch2_res2"
 type: "Eltwise" 
 bottom: "hourglass1_branch1_level4_branch1_level3_branch1_level2_branch2_res2_branch1_conv3" 
 top: "hourglass1_branch1_level4_branch1_level3_branch1_level2_branch2_res2" 
 bottom: "hourglass1_branch1_level4_branch1_level3_branch1_level2_branch2_res2_branch2_conv" 
 eltwise_param { 
 operation: SUM 
 } 
 }
layer {
 name: "hourglass1_branch1_level4_branch1_level3_branch1_level2_branch2_res3_branch1_bn1"
 type: "BatchNorm" 
 bottom: "hourglass1_branch1_level4_branch1_level3_branch1_level2_branch2_res2" 
 top: "hourglass1_branch1_level4_branch1_level3_branch1_level2_branch2_res3_branch1_bn1" 
 param { 
 lr_mult: 0 
 } 
 param { 
 lr_mult: 0 
 } 
 param { 
 lr_mult: 0 
 } 
 batch_norm_param { 
    use_global_stats: false
 } 
 include { 
  phase: TRAIN 
 } 
}
layer {
 name: "hourglass1_branch1_level4_branch1_level3_branch1_level2_branch2_res3_branch1_bn1"
 type: "BatchNorm" 
 bottom: "hourglass1_branch1_level4_branch1_level3_branch1_level2_branch2_res2" 
 top: "hourglass1_branch1_level4_branch1_level3_branch1_level2_branch2_res3_branch1_bn1" 
 param { 
 lr_mult: 0 
 } 
 param { 
 lr_mult: 0 
 } 
 param { 
 lr_mult: 0 
 } 
 batch_norm_param { 
    use_global_stats: false
 } 
 include { 
  phase: TEST 
 } 
}
layer {
 name: "hourglass1_branch1_level4_branch1_level3_branch1_level2_branch2_res3_branch1_scale1"
 type: "Scale" 
 bottom: "hourglass1_branch1_level4_branch1_level3_branch1_level2_branch2_res3_branch1_bn1" 
 top: "hourglass1_branch1_level4_branch1_level3_branch1_level2_branch2_res3_branch1_scale1" 
 scale_param { 
 bias_term: true 
 } 
 }
layer {
 name: "hourglass1_branch1_level4_branch1_level3_branch1_level2_branch2_res3_branch1_relu1"
 type: "ReLU" 
 bottom: "hourglass1_branch1_level4_branch1_level3_branch1_level2_branch2_res3_branch1_scale1" 
 top: "hourglass1_branch1_level4_branch1_level3_branch1_level2_branch2_res3_branch1_relu1" 
}
layer {
 name: "hourglass1_branch1_level4_branch1_level3_branch1_level2_branch2_res3_branch1_conv1"
 type: "Convolution" 
 bottom: "hourglass1_branch1_level4_branch1_level3_branch1_level2_branch2_res3_branch1_relu1" 
 top: "hourglass1_branch1_level4_branch1_level3_branch1_level2_branch2_res3_branch1_conv1" 
  param {
 	 lr_mult: 1
 	 decay_mult: 1
 }
 param {
 	 lr_mult: 2
 	 decay_mult: 0
 }
 convolution_param { 
 num_output: 256
 pad: 0
 kernel_size: 1
 stride:1
 weight_filler { 
 type: "gaussian"
 std: 0.01
 }
 bias_filler {
 type: "constant"
 }
 }
 }
layer {
 name: "hourglass1_branch1_level4_branch1_level3_branch1_level2_branch2_res3_branch1_bn2"
 type: "BatchNorm" 
 bottom: "hourglass1_branch1_level4_branch1_level3_branch1_level2_branch2_res3_branch1_conv1" 
 top: "hourglass1_branch1_level4_branch1_level3_branch1_level2_branch2_res3_branch1_bn2" 
 param { 
 lr_mult: 0 
 } 
 param { 
 lr_mult: 0 
 } 
 param { 
 lr_mult: 0 
 } 
 batch_norm_param { 
    use_global_stats: false
 } 
 include { 
  phase: TRAIN 
 } 
}
layer {
 name: "hourglass1_branch1_level4_branch1_level3_branch1_level2_branch2_res3_branch1_bn2"
 type: "BatchNorm" 
 bottom: "hourglass1_branch1_level4_branch1_level3_branch1_level2_branch2_res3_branch1_conv1" 
 top: "hourglass1_branch1_level4_branch1_level3_branch1_level2_branch2_res3_branch1_bn2" 
 param { 
 lr_mult: 0 
 } 
 param { 
 lr_mult: 0 
 } 
 param { 
 lr_mult: 0 
 } 
 batch_norm_param { 
    use_global_stats: false
 } 
 include { 
  phase: TEST 
 } 
}
layer {
 name: "hourglass1_branch1_level4_branch1_level3_branch1_level2_branch2_res3_branch1_scale2"
 type: "Scale" 
 bottom: "hourglass1_branch1_level4_branch1_level3_branch1_level2_branch2_res3_branch1_bn2" 
 top: "hourglass1_branch1_level4_branch1_level3_branch1_level2_branch2_res3_branch1_scale2" 
 scale_param { 
 bias_term: true 
 } 
 }
layer {
 name: "hourglass1_branch1_level4_branch1_level3_branch1_level2_branch2_res3_branch1_relu2"
 type: "ReLU" 
 bottom: "hourglass1_branch1_level4_branch1_level3_branch1_level2_branch2_res3_branch1_scale2" 
 top: "hourglass1_branch1_level4_branch1_level3_branch1_level2_branch2_res3_branch1_relu2" 
}
layer {
 name: "hourglass1_branch1_level4_branch1_level3_branch1_level2_branch2_res3_branch1_conv2"
 type: "Convolution" 
 bottom: "hourglass1_branch1_level4_branch1_level3_branch1_level2_branch2_res3_branch1_relu2" 
 top: "hourglass1_branch1_level4_branch1_level3_branch1_level2_branch2_res3_branch1_conv2" 
  param {
 	 lr_mult: 1
 	 decay_mult: 1
 }
 param {
 	 lr_mult: 2
 	 decay_mult: 0
 }
 convolution_param { 
 num_output: 256
 pad: 1
 kernel_size: 3
 stride:1
 weight_filler { 
 type: "gaussian"
 std: 0.01
 }
 bias_filler {
 type: "constant"
 }
 }
 }
layer {
 name: "hourglass1_branch1_level4_branch1_level3_branch1_level2_branch2_res3_branch1_bn3"
 type: "BatchNorm" 
…
 type: "BatchNorm" 
 bottom: "hourglass2_branch2_res2_branch1_sub1_conv2" 
 top: "hourglass2_branch2_res2_branch1_sub1_bn3" 
 param { 
 lr_mult: 0 
 } 
 param { 
 lr_mult: 0 
 } 
 param { 
 lr_mult: 0 
 } 
 batch_norm_param { 
    use_global_stats: false
 } 
 include { 
  phase: TRAIN 
 } 
}
layer {
 name: "hourglass2_branch2_res2_branch1_sub1_bn3"
 type: "BatchNorm" 
 bottom: "hourglass2_branch2_res2_branch1_sub1_conv2" 
 top: "hourglass2_branch2_res2_branch1_sub1_bn3" 
 param { 
 lr_mult: 0 
 } 
 param { 
 lr_mult: 0 
 } 
 param { 
 lr_mult: 0 
 } 
 batch_norm_param { 
    use_global_stats: false
 } 
 include { 
  phase: TEST 
 } 
}
layer {
 name: "hourglass2_branch2_res2_branch1_sub1_scale3"
 type: "Scale" 
 bottom: "hourglass2_branch2_res2_branch1_sub1_bn3" 
 top: "hourglass2_branch2_res2_branch1_sub1_scale3" 
 scale_param { 
 bias_term: true 
 } 
 }
layer {
 name: "hourglass2_branch2_res2_branch1_sub1_relu3"
 type: "ReLU" 
 bottom: "hourglass2_branch2_res2_branch1_sub1_scale3" 
 top: "hourglass2_branch2_res2_branch1_sub1_relu3" 
}
layer {
 name: "hourglass2_branch2_res2_branch1_sub1_conv3"
 type: "Convolution" 
 bottom: "hourglass2_branch2_res2_branch1_sub1_relu3" 
 top: "hourglass2_branch2_res2_branch1_sub1_conv3" 
  param {
 	 lr_mult: 1
 	 decay_mult: 1
 }
 param {
 	 lr_mult: 2
 	 decay_mult: 0
 }
 convolution_param { 
 num_output: 128
 pad: 1
 kernel_size: 3
 stride:1
 weight_filler { 
 type: "gaussian"
 std: 0.01
 }
 bias_filler {
 type: "constant"
 }
 }
 }
layer {
 name: "hourglass2_branch2_res2_branch1_sub2_bn1"
 type: "BatchNorm" 
 bottom: "hourglass2_branch2_res1" 
 top: "hourglass2_branch2_res2_branch1_sub2_bn1" 
 param { 
 lr_mult: 0 
 } 
 param { 
 lr_mult: 0 
 } 
 param { 
 lr_mult: 0 
 } 
 batch_norm_param { 
    use_global_stats: false
 } 
 include { 
  phase: TRAIN 
 } 
}
layer {
 name: "hourglass2_branch2_res2_branch1_sub2_bn1"
 type: "BatchNorm" 
 bottom: "hourglass2_branch2_res1" 
 top: "hourglass2_branch2_res2_branch1_sub2_bn1" 
 param { 
 lr_mult: 0 
 } 
 param { 
 lr_mult: 0 
 } 
 param { 
 lr_mult: 0 
 } 
 batch_norm_param { 
    use_global_stats: false
 } 
 include { 
  phase: TEST 
 } 
}
layer {
 name: "hourglass2_branch2_res2_branch1_sub2_scale1"
 type: "Scale" 
 bottom: "hourglass2_branch2_res2_branch1_sub2_bn1" 
 top: "hourglass2_branch2_res2_branch1_sub2_scale1" 
 scale_param { 
 bias_term: true 
 } 
 }
layer {
 name: "hourglass2_branch2_res2_branch1_sub2_relu1"
 type: "ReLU" 
 bottom: "hourglass2_branch2_res2_branch1_sub2_scale1" 
 top: "hourglass2_branch2_res2_branch1_sub2_relu1" 
}
layer {
 name: "hourglass2_branch2_res2_branch1_sub2_conv1"
 type: "Convolution" 
 bottom: "hourglass2_branch2_res2_branch1_sub2_relu1" 
 top: "hourglass2_branch2_res2_branch1_sub2_conv1" 
  param {
 	 lr_mult: 1
 	 decay_mult: 1
 }
 param {
 	 lr_mult: 2
 	 decay_mult: 0
 }
 convolution_param { 
 num_output: 128
 pad: 0
 kernel_size: 1
 stride:1
 weight_filler { 
 type: "gaussian"
 std: 0.01
 }
 bias_filler {
 type: "constant"
 }
 }
 }
layer {
 name: "hourglass2_branch2_res2_branch1_sub2_bn2"
 type: "BatchNorm" 
 bottom: "hourglass2_branch2_res2_branch1_sub2_conv1" 
 top: "hourglass2_branch2_res2_branch1_sub2_bn2" 
 param { 
 lr_mult: 0 
 } 
 param { 
 lr_mult: 0 
 } 
 param { 
 lr_mult: 0 
 } 
 batch_norm_param { 
    use_global_stats: false
 } 
 include { 
  phase: TRAIN 
 } 
}
layer {
 name: "hourglass2_branch2_res2_branch1_sub2_bn2"
 type: "BatchNorm" 
 bottom: "hourglass2_branch2_res2_branch1_sub2_conv1" 
 top: "hourglass2_branch2_res2_branch1_sub2_bn2" 
 param { 
 lr_mult: 0 
 } 
 param { 
 lr_mult: 0 
 } 
 param { 
 lr_mult: 0 
 } 
 batch_norm_param { 
    use_global_stats: false
 } 
 include { 
  phase: TEST 
 } 
}
layer {
 name: "hourglass2_branch2_res2_branch1_sub2_scale2"
 type: "Scale" 
 bottom: "hourglass2_branch2_res2_branch1_sub2_bn2" 
 top: "hourglass2_branch2_res2_branch1_sub2_scale2" 
 scale_param { 
 bias_term: true 
 } 
 }
layer {
 name: "hourglass2_branch2_res2_branch1_sub2_relu2"
 type: "ReLU" 
 bottom: "hourglass2_branch2_res2_branch1_sub2_scale2" 
 top: "hourglass2_branch2_res2_branch1_sub2_relu2" 
}
layer {
 name: "hourglass2_branch2_res2_branch1_sub2_conv2"
 type: "Convolution" 
 bottom: "hourglass2_branch2_res2_branch1_sub2_relu2" 
 top: "hourglass2_branch2_res2_branch1_sub2_conv2" 
  param {
 	 lr_mult: 1
 	 decay_mult: 1
 }
 param {
 	 lr_mult: 2
 	 decay_mult: 0
 }
 convolution_param { 
 num_output: 128
 pad: 1
 kernel_size: 3
 stride:1
 weight_filler { 
 type: "gaussian"
 std: 0.01
 }
 bias_filler {
 type: "constant"
 }
 }
 }
layer {
 name: "hourglass2_branch2_res2_branch1_concat"
 type: "Concat" 
 bottom: "hourglass2_branch2_res2_branch1_sub1_conv3" 
 top: "hourglass2_branch2_res2_branch1_concat" 
 bottom: "hourglass2_branch2_res2_branch1_sub2_conv2"
 concat_param { 
 axis: 1
 } 
}
layer {
 name: "hourglass2_branch2_res2_branch1_conv_linear"
 type: "Convolution" 
 bottom: "hourglass2_branch2_res2_branch1_concat" 
 top: "hourglass2_branch2_res2_branch1_conv_linear" 
  param {
 	 lr_mult: 1
 	 decay_mult: 1
 }
 param {
 	 lr_mult: 2
 	 decay_mult: 0
 }
 convolution_param { 
 num_output: 256
 pad: 0
 kernel_size: 1
 stride:1
 weight_filler { 
 type: "gaussian"
 std: 0.01
 }
 bias_filler {
 type: "constant"
 }
 }
 }
layer {
 name: "hourglass2_branch2_res2_branch1_linear_batch"
 type: "BatchNorm" 
 bottom: "hourglass2_branch2_res2_branch1_conv_linear" 
 top: "hourglass2_branch2_res2_branch1_linear_batch" 
 param { 
 lr_mult: 0 
 } 
 param { 
 lr_mult: 0 
 } 
 param { 
 lr_mult: 0 
 } 
 batch_norm_param { 
    use_global_stats: false
 } 
 include { 
  phase: TRAIN 
 } 
}
layer {
 name: "hourglass2_branch2_res2_branch1_linear_batch"
 type: "BatchNorm" 
 bottom: "hourglass2_branch2_res2_branch1_conv_linear" 
 top: "hourglass2_branch2_res2_branch1_linear_batch" 
 param { 
 lr_mult: 0 
 } 
 param { 
 lr_mult: 0 
 } 
 param { 
 lr_mult: 0 
 } 
 batch_norm_param { 
    use_global_stats: false
 } 
 include { 
  phase: TEST 
 } 
}
layer {
 name: "hourglass2_branch2_res2_branch1_linear_scale"
 type: "Scale" 
 bottom: "hourglass2_branch2_res2_branch1_linear_batch" 
 top: "hourglass2_branch2_res2_branch1_linear_scale" 
 scale_param { 
 bias_term: true 
 } 
 }
layer {
 name: "hourglass2_branch2_res2_branch2_conv"
 type: "Convolution" 
 bottom: "hourglass2_branch2_res1" 
 top: "hourglass2_branch2_res2_branch2_conv" 
  param {
 	 lr_mult: 1
 	 decay_mult: 1
 }
 param {
 	 lr_mult: 2
 	 decay_mult: 0
 }
 convolution_param { 
 num_output: 256
 pad: 0
 kernel_size: 1
 stride:1
 weight_filler { 
 type: "gaussian"
 std: 0.01
 }
 bias_filler {
 type: "constant"
 }
 }
 }
layer {
 name: "hourglass2_branch2_res2"
 type: "Eltwise" 
 bottom: "hourglass2_branch2_res2_branch1_linear_scale" 
 top: "hourglass2_branch2_res2" 
 bottom: "hourglass2_branch2_res2_branch2_conv" 
 eltwise_param { 
 operation: SUM 
 } 
 }
layer {
 name: "hourglass2_branch2_res3_branch1_sub1_bn1"
 type: "BatchNorm" 
 bottom: "hourglass2_branch2_res2" 
 top: "hourglass2_branch2_res3_branch1_sub1_bn1" 
 param { 
 lr_mult: 0 
 } 
 param { 
 lr_mult: 0 
 } 
 param { 
 lr_mult: 0 
 } 
 batch_norm_param { 
    use_global_stats: false
 } 
 include { 
  phase: TRAIN 
 } 
}
layer {
 name: "hourglass2_branch2_res3_branch1_sub1_bn1"
 type: "BatchNorm" 
 bottom: "hourglass2_branch2_res2" 
 top: "hourglass2_branch2_res3_branch1_sub1_bn1" 
 param { 
 lr_mult: 0 
 } 
 param { 
 lr_mult: 0 
 } 
 param { 
 lr_mult: 0 
 } 
 batch_norm_param { 
    use_global_stats: false
 } 
 include { 
  phase: TEST 
 } 
}
layer {
 name: "hourglass2_branch2_res3_branch1_sub1_scale1"
 type: "Scale" 
 bottom: "hourglass2_branch2_res3_branch1_sub1_bn1" 
 top: "hourglass2_branch2_res3_branch1_sub1_scale1" 
 scale_param { 
 bias_term: true 
 } 
 }
layer {
 name: "hourglass2_branch2_res3_branch1_sub1_relu1"
 type: "ReLU" 
 bottom: "hourglass2_branch2_res3_branch1_sub1_scale1" 
 top: "hourglass2_branch2_res3_branch1_sub1_relu1" 
}
layer {
 name: "hourglass2_branch2_res3_branch1_sub1_conv1"
 type: "Convolution" 
 bottom: "hourglass2_branch2_res3_branch1_sub1_relu1" 
 top: "hourglass2_branch2_res3_branch1_sub1_conv1" 
  param {
 	 lr_mult: 1
 	 decay_mult: 1
 }
 param {
 	 lr_mult: 2
 	 decay_mult: 0
 }
 convolution_param { 
 num_output: 256
 pad: 0
 kernel_size: 1
 stride:1
 weight_filler { 
 type: "gaussian"
 std: 0.01
 }
 bias_filler {
 type: "constant"
 }
 }
 }
layer {
 name: "hourglass2_branch2_res3_branch1_sub1_bn2"
 type: "BatchNorm" 
 bottom: "hourglass2_branch2_res3_branch1_sub1_conv1" 
 top: "hourglass2_branch2_res3_branch1_sub1_bn2" 
 param { 
 lr_mult: 0 
 } 
 param { 
 lr_mult: 0 
 } 
 param { 
 lr_mult: 0 
 } 
 batch_norm_param { 
    use_global_stats: false
 } 
 include { 
  phase: TRAIN 
 } 
}
layer {
 name: "hourglass2_branch2_res3_branch1_sub1_bn2"
 type: "BatchNorm" 
 bottom: "hourglass2_branch2_res3_branch1_sub1_conv1" 
 top: "hourglass2_branch2_res3_branch1_sub1_bn2" 
 param { 
 lr_mult: 0 
 } 
 param { 
 lr_mult: 0 
 } 
 param { 
 lr_mult: 0 
 } 
 batch_norm_param { 
    use_global_stats: false
 } 
 include { 
  phase: TEST 
 } 
}
layer {
 name: "hourglass2_branch2_res3_branch1_sub1_scale2"
 type: "Scale" 
 bottom: "hourglass2_branch2_res3_branch1_sub1_bn2" 
 top: "hourglass2_branch2_res3_branch1_sub1_scale2" 
 scale_param { 
 bias_term: true 
 } 
 }
layer {
 name: "hourglass2_branch2_res3_branch1_sub1_relu2"
 type: "ReLU" 
 bottom: "hourglass2_branch2_res3_branch1_sub1_scale2" 
 top: "hourglass2_branch2_res3_branch1_sub1_relu2" 
}
layer {
 name: "hourglass2_branch2_res3_branch1_sub1_conv2"
 type: "Convolution" 
 bottom: "hourglass2_branch2_res3_branch1_sub1_relu2" 
 top: "hourglass2_branch2_res3_branch1_sub1_conv2" 
  param {
 	 lr_mult: 1
 	 decay_mult: 1
 }
 param {
 	 lr_mult: 2
 	 decay_mult: 0
 }
 convolution_param { 
 num_output: 256
 pad: 1
 kernel_size: 3
 stride:1
 weight_filler { 
 type: "gaussian"
 std: 0.01
 }
 bias_filler {
 type: "constant"
 }
 }
 }
layer {
 name: "hourglass2_branch2_res3_branch1_sub1_bn3"
 type: "BatchNorm" 
 bottom: "hourglass2_branch2_res3_branch1_sub1_conv2" 
 top: "hourglass2_branch2_res3_branch1_sub1_bn3" 
 param { 
 lr_mult: 0 
 } 
 param { 
 lr_mult: 0 
 } 
 param { 
 lr_mult: 0 
 } 
 batch_norm_param { 
    use_global_stats: false
 } 
 include { 
  phase: TRAIN 
 } 
}
layer {
 name: "hourglass2_branch2_res3_branch1_sub1_bn3"
 type: "BatchNorm" 
 bottom: "hourglass2_branch2_res3_branch1_sub1_conv2" 
 top: "hourglass2_branch2_res3_branch1_sub1_bn3" 
 param { 
 lr_mult: 0 
 } 
 param { 
 lr_mult: 0 
 } 
 param { 
 lr_mult: 0 
 } 
 batch_norm_param { 
    use_global_stats: false
 } 
 include { 
  phase: TEST 
 } 
}
layer {
 name: "hourglass2_branch2_res3_branch1_sub1_scale3"
 type: "Scale" 
 bottom: "hourglass2_branch2_res3_branch1_sub1_bn3" 
 top: "hourglass2_branch2_res3_branch1_sub1_scale3" 
 scale_param { 
 bias_term: true 
 } 
 }
layer {
 name: "hourglass2_branch2_res3_branch1_sub1_relu3"
 type: "ReLU" 
 bottom: "hourglass2_branch2_res3_branch1_sub1_scale3" 
 top: "hourglass2_branch2_res3_branch1_sub1_relu3" 
}
layer {
 name: "hourglass2_branch2_res3_branch1_sub1_conv3"
 type: "Convolution" 
 bottom: "hourglass2_branch2_res3_branch1_sub1_relu3" 
 top: "hourglass2_branch2_res3_branch1_sub1_conv3" 
  param {
 	 lr_mult: 1
 	 decay_mult: 1
 }
 param {
 	 lr_mult: 2
 	 decay_mult: 0
 }
 convolution_param { 
 num_output: 256
 pad: 1
 kernel_size: 3
 stride:1
 weight_filler { 
 type: "gaussian"
 std: 0.01
 }
 bias_filler {
 type: "constant"
 }
 }
 }
layer {
 name: "hourglass2_branch2_res3_branch1_sub2_bn1"
 type: "BatchNorm" 
 bottom: "hourglass2_branch2_res2" 
 top: "hourglass2_branch2_res3_branch1_sub2_bn1" 
 param { 
 lr_mult: 0 
 } 
 param { 
 lr_mult: 0 
 } 
 param { 
 lr_mult: 0 
 } 
 batch_norm_param { 
    use_global_stats: false
 } 
 include { 
  phase: TRAIN 
 } 
}
layer {
 name: "hourglass2_branch2_res3_branch1_sub2_bn1"
 type: "BatchNorm" 
 bottom: "hourglass2_branch2_res2" 
 top: "hourglass2_branch2_res3_branch1_sub2_bn1" 
 param { 
 lr_mult: 0 
 } 
 param { 
 lr_mult: 0 
 } 
 param { 
 lr_mult: 0 
 } 
 batch_norm_param { 
    use_global_stats: false
 } 
 include { 
  phase: TEST 
 } 
}
layer {
 name: "hourglass2_branch2_res3_branch1_sub2_scale1"
 type: "Scale" 
 bottom: "hourglass2_branch2_res3_branch1_sub2_bn1" 
 top: "hourglass2_branch2_res3_branch1_sub2_scale1" 
 scale_param { 
 bias_term: true 
 } 
 }
layer {
 name: "hourglass2_branch2_res3_branch1_sub2_relu1"
 type: "ReLU" 
 bottom: "hourglass2_branch2_res3_branch1_sub2_scale1" 
 top: "hourglass2_branch2_res3_branch1_sub2_relu1" 
}
layer {
 name: "hourglass2_branch2_res3_branch1_sub2_conv1"
 type: "Convolution" 
 bottom: "hourglass2_branch2_res3_branch1_sub2_relu1" 
 top: "hourglass2_branch2_res3_branch1_sub2_conv1" 
  param {
 	 lr_mult: 1
 	 decay_mult: 1
 }
 param {
 	 lr_mult: 2
 	 decay_mult: 0
 }
 convolution_param { 
 num_output: 256
 pad: 0
 kernel_size: 1
 stride:1
 weight_filler { 
 type: "gaussian"
 std: 0.01
 }
 bias_filler {
 type: "constant"
 }
 }
 }
layer {
 name: "hourglass2_branch2_res3_branch1_sub2_bn2"
 type: "BatchNorm" 
 bottom: "hourglass2_branch2_res3_branch1_sub2_conv1" 
 top: "hourglass2_branch2_res3_branch1_sub2_bn2" 
 param { 
 lr_mult: 0 
 } 
 param { 
 lr_mult: 0 
 } 
 param { 
 lr_mult: 0 
 } 
 batch_norm_param { 
    use_global_stats: false
 } 
 include { 
  phase: TRAIN 
 } 
}
layer {
 name: "hourglass2_branch2_res3_branch1_sub2_bn2"
 type: "BatchNorm" 
 bottom: "hourglass2_branch2_res3_branch1_sub2_conv1" 
 top: "hourglass2_branch2_res3_branch1_sub2_bn2" 
 param { 
 lr_mult: 0 
 } 
 param { 
 lr_mult: 0 
 } 
 param { 
 lr_mult: 0 
 } 
 batch_norm_param { 
    use_global_stats: false
 } 
 include { 
  phase: TEST 
 } 
}
layer {
 name: "hourglass2_branch2_res3_branch1_sub2_scale2"
 type: "Scale" 
 bottom: "hourglass2_branch2_res3_branch1_sub2_bn2" 
 top: "hourglass2_branch2_res3_branch1_sub2_scale2" 
 scale_param { 
 bias_term: true 
 } 
 }
layer {
 name: "hourglass2_branch2_res3_branch1_sub2_relu2"
 type: "ReLU" 
 bottom: "hourglass2_branch2_res3_branch1_sub2_scale2" 
 top: "hourglass2_branch2_res3_branch1_sub2_relu2" 
}
layer {
 name: "hourglass2_branch2_res3_branch1_sub2_conv2"
 type: "Convolution" 
 bottom: "hourglass2_branch2_res3_branch1_sub2_relu2" 
 top: "hourglass2_branch2_res3_branch1_sub2_conv2" 
  param {
 	 lr_mult: 1
 	 decay_mult: 1
 }
 param {
 	 lr_mult: 2
 	 decay_mult: 0
 }
 convolution_param { 
 num_output: 256
 pad: 1
 kernel_size: 3
 stride:1
 weight_filler { 
 type: "gaussian"
 std: 0.01
 }
 bias_filler {
 type: "constant"
 }
 }
 }
layer {
 name: "hourglass2_branch2_res3_branch1_concat"
 type: "Concat" 
 bottom: "hourglass2_branch2_res3_branch1_sub1_conv3" 
 top: "hourglass2_branch2_res3_branch1_concat" 
 bottom: "hourglass2_branch2_res3_branch1_sub2_conv2"
 concat_param { 
 axis: 1
 } 
}
layer {
 name: "hourglass2_branch2_res3_branch1_conv_linear"
 type: "Convolution" 
 bottom: "hourglass2_branch2_res3_branch1_concat" 
 top: "hourglass2_branch2_res3_branch1_conv_linear" 
  param {
 	 lr_mult: 1
 	 decay_mult: 1
 }
 param {
 	 lr_mult: 2
 	 decay_mult: 0
 }
 convolution_param { 
 num_output: 512
 pad: 0
 kernel_size: 1
 stride:1
 weight_filler { 
 type: "gaussian"
 std: 0.01
 }
 bias_filler {
 type: "constant"
 }
 }
 }
layer {
 name: "hourglass2_branch2_res3_branch1_linear_batch"
 type: "BatchNorm" 
 bottom: "hourglass2_branch2_res3_branch1_conv_linear" 
 top: "hourglass2_branch2_res3_branch1_linear_batch" 
 param { 
 lr_mult: 0 
 } 
 param { 
 lr_mult: 0 
 } 
 param { 
 lr_mult: 0 
 } 
 batch_norm_param { 
    use_global_stats: false
 } 
 include { 
  phase: TRAIN 
 } 
}
layer {
 name: "hourglass2_branch2_res3_branch1_linear_batch"
 type: "BatchNorm" 
 bottom: "hourglass2_branch2_res3_branch1_conv_linear" 
 top: "hourglass2_branch2_res3_branch1_linear_batch" 
 param { 
 lr_mult: 0 
 } 
 param { 
 lr_mult: 0 
 } 
 param { 
 lr_mult: 0 
 } 
 batch_norm_param { 
    use_global_stats: false
 } 
 include { 
  phase: TEST 
 } 
}
layer {
 name: "hourglass2_branch2_res3_branch1_linear_scale"
 type: "Scale" 
 bottom: "hourglass2_branch2_res3_branch1_linear_batch" 
 top: "hourglass2_branch2_res3_branch1_linear_scale" 
 scale_param { 
 bias_term: true 
 } 
 }
layer {
 name: "hourglass2_branch2_res3_branch2_conv"
 type: "Convolution" 
 bottom: "hourglass2_branch2_res2" 
 top: "hourglass2_branch2_res3_branch2_conv" 
  param {
 	 lr_mult: 1
 	 decay_mult: 1
 }
 param {
 	 lr_mult: 2
 	 decay_mult: 0
 }
 convolution_param { 
 num_output: 512
 pad: 0
 kernel_size: 1
 stride:1
 weight_filler { 
 type: "gaussian"
 std: 0.01
 }
 bias_filler {
 type: "constant"
 }
 }
 }
layer {
 name: "hourglass2_branch2_res3"
 type: "Eltwise" 
 bottom: "hourglass2_branch2_res3_branch1_linear_scale" 
 top: "hourglass2_branch2_res3" 
 bottom: "hourglass2_branch2_res3_branch2_conv" 
 eltwise_param { 
 operation: SUM 
 } 
 }
layer {
 name: "hourglass2"
 type: "Eltwise" 
 bottom: "hourglass2_upsampling" 
 top: "hourglass2" 
 bottom: "hourglass2_branch2_res3" 
 eltwise_param { 
 operation: SUM 
 } 
 }
layer {
 name: "fc_3"
 type: "Convolution" 
 bottom: "hourglass2" 
 top: "fc_3" 
  param {
 	 lr_mult: 1
 	 decay_mult: 1
 }
 param {
 	 lr_mult: 2
 	 decay_mult: 0
 }
 convolution_param { 
 num_output: 512
 pad: 0
 kernel_size: 1
 stride:1
 weight_filler { 
 type: "gaussian"
 std: 0.01
 }
 bias_filler {
 type: "constant"
 }
 }
 }
layer {
 name: "fc_4"
 type: "Convolution" 
 bottom: "fc_3" 
 top: "fc_4" 
  param {
 	 lr_mult: 1
 	 decay_mult: 1
 }
 param {
 	 lr_mult: 2
 	 decay_mult: 0
 }
 convolution_param { 
 num_output: 256
 pad: 0
 kernel_size: 1
 stride:1
 weight_filler { 
 type: "gaussian"
 std: 0.01
 }
 bias_filler {
 type: "constant"
 }
 }
 }
layer {
 name: "conv_5_d2"
 type: "Convolution" 
 bottom: "fc_4" 
 top: "heatmap2" 
  param {
 	 lr_mult: 1
 	 decay_mult: 1
 }
 param {
 	 lr_mult: 2
 	 decay_mult: 0
 }
 convolution_param { 
 num_output: 32
 pad: 0
 kernel_size: 1
 stride:1
 weight_filler { 
 type: "gaussian"
 std: 0.01
 }
 bias_filler {
 type: "constant"
 }
 }
 }





layer {
  type: "DeepHumanModelArgmaxHM"
  bottom: "heatmap"
  top: "pred_joint_2d_s1_max"
  name: "pred_joint_2d_s1_max"
}



layer {
  type: "JSRegularizationLoss"
  bottom: "heatmap"
  bottom: "label_2dhm"
  name: "js_1_2dhm"
  top: "js_1_2dhm"
  loss_weight: 0.0
   include {
    phase: TRAIN
 }
}


layer {
  type: "JSRegularizationLoss"
  bottom: "heatmap2"
  bottom: "label_3dhm"
  name: "js_2_3dhm"
  top: "js_2_3dhm"
  loss_weight: 0.0
   include {
    phase: TRAIN
 }
}


#normalization
layer {
  bottom: "heatmap"
  top: "heatmap_norm"
  name: "norm_2dhm"
  type: "DeepHumanModelNormalizationResponseV0"
  normalization_response_param {
     hm_threshold: 0.003
  }  
}

#----numerical regression
layer {
  bottom: "heatmap_norm"
  top: "pred_joint_2d_s1_int"
  type: "DeepHumanModelNumericalCoordinateRegression"
  name: "pred_joint_2d_s1_int"
  
}

layer {
	bottom: "pred_joint_2d_s1_int"
	bottom: "crop_gt_joint_2d"
	top: "joint2dloss_s1_int"
	name: "joint2dloss_s1_int"
	type: "EuclideanLoss"
	loss_weight: 0.0
}

layer {
	bottom: "pred_joint_2d_s1_max"
	bottom: "crop_gt_joint_2d"
	top: "joint2dloss_s1_max"
	name: "joint2dloss_s1_max"
	type: "EuclideanLoss"
	loss_weight: 0.0
}




#==================integral 3D heatmap section begins


#=====flat 3d cube -> scale vector -> reshape
layer {
  bottom: "heatmap2"
  top: "heatmap2_flat"
  type: "Flatten"
  name: "heatmap2_flat"
}

#====
layer {
  type: "ScaleVector"
  bottom: "heatmap2_flat"
  top: "heatmap2_flat_scale"
  name: "heatmap2_flat_scale"
  scale_vector_param {
    scale_factor: 50.0
  }
}

layer {
  type: "Reshape"
  bottom: "heatmap2_flat_scale"
  top: "heatmap2_flat_scale_reshape"
  name: "heatmap2_flat_scale_reshape"
  reshape_param {
    shape {
       dim: 0
       dim: 32
       dim: 64
       dim: 64
    }
  }
}

#===================now integral 3d heatmap
layer {
  type: "DeepHumanModelSoftmax3DHM"
  bottom: "heatmap2_flat_scale_reshape"
  top: "heatmap2_norm"
  name: "heatmap2_norm"
  deep_human_model_softmax_3d_hm_param {
      joint_num: 16
      depth_dims: 2
     
  }
}



#-----slice cube 16 joints
layer {
  name: "slice_cube"
  bottom: "heatmap2_norm"
  top: "pred_cube_0"
  top: "pred_cube_1"
  top: "pred_cube_2"
  top: "pred_cube_3"
  top: "pred_cube_4"
  top: "pred_cube_5"
  top: "pred_cube_6"
  top: "pred_cube_7"
  top: "pred_cube_8"
  top: "pred_cube_9"
  top: "pred_cube_10"
  top: "pred_cube_11"
  top: "pred_cube_12"
  top: "pred_cube_13"
  top: "pred_cube_14"
  top: "pred_cube_15"
  type: "Slice"
  slice_param {
     axis: 1   
   slice_point: 2
   slice_point: 4
   slice_point: 6
   slice_point: 8
   slice_point: 10
   slice_point: 12
   slice_point: 14
   slice_point: 16
   slice_point: 18
   slice_point: 20
   slice_point: 22
   slice_point: 24
   slice_point: 26
   slice_point: 28
   slice_point: 30
   
  }
}




#----integral x cube_0
layer {
  name: "integral_x_cube_0_vec"
  type: "DeepHumanModelIntegralX"
  bottom: "pred_cube_0"
  top: "pred_cube_0_x_vec"  
}

layer {
  name: "integral_x_cube_0_vaue"
  type: "DeepHumanModelIntegralVector"
  bottom: "pred_cube_0_x_vec"
  top: "pred_cube_0_x"  
  deep_human_model_integral_vector_param { 
     dim_lb: 0.0
   dim_ub: 1.0
  }
}


#----integral y cube_0
layer {
  name: "integral_y_cube_0_vec"
  type: "DeepHumanModelIntegralY"
  bottom: "pred_cube_0"
  top: "pred_cube_0_y_vec"  
}

layer {
  name: "integral_y_cube_0_vaue"
  type: "DeepHumanModelIntegralVector"
  bottom: "pred_cube_0_y_vec"
  top: "pred_cube_0_y"  
  deep_human_model_integral_vector_param { 
     dim_lb: 0.0
   dim_ub: 1.0
  }
}

#----integral z cube_0
layer {
  name: "integral_z_cube_0_vec"
  type: "DeepHumanModelIntegralZ"
  bottom: "pred_cube_0"
  top: "pred_cube_0_z_vec"  
}

layer {
  name: "integral_z_cube_0_vaue"
  type: "DeepHumanModelIntegralVector"
  bottom: "pred_cube_0_z_vec"
  top: "pred_cube_0_z"  
  deep_human_model_integral_vector_param { 
     dim_lb: 0.0
   dim_ub: 1.0
  }
}




#----integral x cube_1
layer {
  name: "integral_x_cube_1_vec"
  type: "DeepHumanModelIntegralX"
  bottom: "pred_cube_1"
  top: "pred_cube_1_x_vec"  
}

layer {
  name: "integral_x_cube_1_vaue"
  type: "DeepHumanModelIntegralVector"
  bottom: "pred_cube_1_x_vec"
  top: "pred_cube_1_x"  
  deep_human_model_integral_vector_param { 
     dim_lb: 0.0
   dim_ub: 1.0
  }
}


#----integral y cube_1
layer {
  name: "integral_y_cube_1_vec"
  type: "DeepHumanModelIntegralY"
  bottom: "pred_cube_1"
  top: "pred_cube_1_y_vec"  
}

layer {
  name: "integral_y_cube_1_vaue"
  type: "DeepHumanModelIntegralVector"
  bottom: "pred_cube_1_y_vec"
  top: "pred_cube_1_y"  
  deep_human_model_integral_vector_param { 
     dim_lb: 0.0
   dim_ub: 1.0
  }
}

#----integral z cube_1
layer {
  name: "integral_z_cube_1_vec"
  type: "DeepHumanModelIntegralZ"
  bottom: "pred_cube_1"
  top: "pred_cube_1_z_vec"  
}

layer {
  name: "integral_z_cube_1_vaue"
  type: "DeepHumanModelIntegralVector"
  bottom: "pred_cube_1_z_vec"
  top: "pred_cube_1_z"  
  deep_human_model_integral_vector_param { 
     dim_lb: 0.0
   dim_ub: 1.0
  }
}




#----integral x cube_2
layer {
  name: "integral_x_cube_2_vec"
  type: "DeepHumanModelIntegralX"
  bottom: "pred_cube_2"
  top: "pred_cube_2_x_vec"  
}

layer {
  name: "integral_x_cube_2_vaue"
  type: "DeepHumanModelIntegralVector"
  bottom: "pred_cube_2_x_vec"
  top: "pred_cube_2_x"  
  deep_human_model_integral_vector_param { 
     dim_lb: 0.0
   dim_ub: 1.0
  }
}


#----integral y cube_2
layer {
  name: "integral_y_cube_2_vec"
  type: "DeepHumanModelIntegralY"
  bottom: "pred_cube_2"
  top: "pred_cube_2_y_vec"  
}

layer {
  name: "integral_y_cube_2_vaue"
  type: "DeepHumanModelIntegralVector"
  bottom: "pred_cube_2_y_vec"
  top: "pred_cube_2_y"  
  deep_human_model_integral_vector_param { 
     dim_lb: 0.0
   dim_ub: 1.0
  }
}

#----integral z cube_2
layer {
  name: "integral_z_cube_2_vec"
  type: "DeepHumanModelIntegralZ"
  bottom: "pred_cube_2"
  top: "pred_cube_2_z_vec"  
}

layer {
  name: "integral_z_cube_2_vaue"
  type: "DeepHumanModelIntegralVector"
  bottom: "pred_cube_2_z_vec"
  top: "pred_cube_2_z"  
  deep_human_model_integral_vector_param { 
     dim_lb: 0.0
   dim_ub: 1.0
  }
}




#----integral x cube_3
layer {
  name: "integral_x_cube_3_vec"
  type: "DeepHumanModelIntegralX"
  bottom: "pred_cube_3"
  top: "pred_cube_3_x_vec"  
}

layer {
  name: "integral_x_cube_3_vaue"
  type: "DeepHumanModelIntegralVector"
  bottom: "pred_cube_3_x_vec"
  top: "pred_cube_3_x"  
  deep_human_model_integral_vector_param { 
     dim_lb: 0.0
   dim_ub: 1.0
  }
}


#----integral y cube_3
layer {
  name: "integral_y_cube_3_vec"
  type: "DeepHumanModelIntegralY"
  bottom: "pred_cube_3"
  top: "pred_cube_3_y_vec"  
}

layer {
  name: "integral_y_cube_3_vaue"
  type: "DeepHumanModelIntegralVector"
  bottom: "pred_cube_3_y_vec"
  top: "pred_cube_3_y"  
  deep_human_model_integral_vector_param { 
     dim_lb: 0.0
   dim_ub: 1.0
  }
}

#----integral z cube_3
layer {
  name: "integral_z_cube_3_vec"
  type: "DeepHumanModelIntegralZ"
  bottom: "pred_cube_3"
  top: "pred_cube_3_z_vec"  
}

layer {
  name: "integral_z_cube_3_vaue"
  type: "DeepHumanModelIntegralVector"
  bottom: "pred_cube_3_z_vec"
  top: "pred_cube_3_z"  
  deep_human_model_integral_vector_param { 
     dim_lb: 0.0
   dim_ub: 1.0
  }
}




#----integral x cube_4
layer {
  name: "integral_x_cube_4_vec"
  type: "DeepHumanModelIntegralX"
  bottom: "pred_cube_4"
  top: "pred_cube_4_x_vec"  
}

layer {
  name: "integral_x_cube_4_vaue"
  type: "DeepHumanModelIntegralVector"
  bottom: "pred_cube_4_x_vec"
  top: "pred_cube_4_x"  
  deep_human_model_integral_vector_param { 
     dim_lb: 0.0
   dim_ub: 1.0
  }
}


#----integral y cube_4
layer {
  name: "integral_y_cube_4_vec"
  type: "DeepHumanModelIntegralY"
  bottom: "pred_cube_4"
  top: "pred_cube_4_y_vec"  
}

layer {
  name: "integral_y_cube_4_vaue"
  type: "DeepHumanModelIntegralVector"
  bottom: "pred_cube_4_y_vec"
  top: "pred_cube_4_y"  
  deep_human_model_integral_vector_param { 
     dim_lb: 0.0
   dim_ub: 1.0
  }
}

#----integral z cube_4
layer {
  name: "integral_z_cube_4_vec"
  type: "DeepHumanModelIntegralZ"
  bottom: "pred_cube_4"
  top: "pred_cube_4_z_vec"  
}

layer {
  name: "integral_z_cube_4_vaue"
  type: "DeepHumanModelIntegralVector"
  bottom: "pred_cube_4_z_vec"
  top: "pred_cube_4_z"  
  deep_human_model_integral_vector_param { 
     dim_lb: 0.0
   dim_ub: 1.0
  }
}




#----integral x cube_5
layer {
  name: "integral_x_cube_5_vec"
  type: "DeepHumanModelIntegralX"
  bottom: "pred_cube_5"
  top: "pred_cube_5_x_vec"  
}

layer {
  name: "integral_x_cube_5_vaue"
  type: "DeepHumanModelIntegralVector"
  bottom: "pred_cube_5_x_vec"
  top: "pred_cube_5_x"  
  deep_human_model_integral_vector_param { 
     dim_lb: 0.0
   dim_ub: 1.0
  }
}


#----integral y cube_5
layer {
  name: "integral_y_cube_5_vec"
  type: "DeepHumanModelIntegralY"
  bottom: "pred_cube_5"
  top: "pred_cube_5_y_vec"  
}

layer {
  name: "integral_y_cube_5_vaue"
  type: "DeepHumanModelIntegralVector"
  bottom: "pred_cube_5_y_vec"
  top: "pred_cube_5_y"  
  deep_human_model_integral_vector_param { 
     dim_lb: 0.0
   dim_ub: 1.0
  }
}

#----integral z cube_5
layer {
  name: "integral_z_cube_5_vec"
  type: "DeepHumanModelIntegralZ"
  bottom: "pred_cube_5"
  top: "pred_cube_5_z_vec"  
}

layer {
  name: "integral_z_cube_5_vaue"
  type: "DeepHumanModelIntegralVector"
  bottom: "pred_cube_5_z_vec"
  top: "pred_cube_5_z"  
  deep_human_model_integral_vector_param { 
     dim_lb: 0.0
   dim_ub: 1.0
  }
}



#----integral x cube_6
layer {
  name: "integral_x_cube_6_vec"
  type: "DeepHumanModelIntegralX"
  bottom: "pred_cube_6"
  top: "pred_cube_6_x_vec"  
}

layer {
  name: "integral_x_cube_6_vaue"
  type: "DeepHumanModelIntegralVector"
  bottom: "pred_cube_6_x_vec"
  top: "pred_cube_6_x"  
  deep_human_model_integral_vector_param { 
     dim_lb: 0.0
   dim_ub: 1.0
  }
}


#----integral y cube_6
layer {
  name: "integral_y_cube_6_vec"
  type: "DeepHumanModelIntegralY"
  bottom: "pred_cube_6"
  top: "pred_cube_6_y_vec"  
}

layer {
  name: "integral_y_cube_6_vaue"
  type: "DeepHumanModelIntegralVector"
  bottom: "pred_cube_6_y_vec"
  top: "pred_cube_6_y"  
  deep_human_model_integral_vector_param { 
     dim_lb: 0.0
   dim_ub: 1.0
  }
}

#----integral z cube_6
layer {
  name: "integral_z_cube_6_vec"
  type: "DeepHumanModelIntegralZ"
  bottom: "pred_cube_6"
  top: "pred_cube_6_z_vec"  
}

layer {
  name: "integral_z_cube_6_vaue"
  type: "DeepHumanModelIntegralVector"
  bottom: "pred_cube_6_z_vec"
  top: "pred_cube_6_z"  
  deep_human_model_integral_vector_param { 
     dim_lb: 0.0
   dim_ub: 1.0
  }
}






#----integral x cube_7
layer {
  name: "integral_x_cube_7_vec"
  type: "DeepHumanModelIntegralX"
  bottom: "pred_cube_7"
  top: "pred_cube_7_x_vec"  
}

layer {
  name: "integral_x_cube_7_vaue"
  type: "DeepHumanModelIntegralVector"
  bottom: "pred_cube_7_x_vec"
  top: "pred_cube_7_x"  
  deep_human_model_integral_vector_param { 
     dim_lb: 0.0
   dim_ub: 1.0
  }
}


#----integral y cube_7
layer {
  name: "integral_y_cube_7_vec"
  type: "DeepHumanModelIntegralY"
  bottom: "pred_cube_7"
  top: "pred_cube_7_y_vec"  
}

layer {
  name: "integral_y_cube_7_vaue"
  type: "DeepHumanModelIntegralVector"
  bottom: "pred_cube_7_y_vec"
  top: "pred_cube_7_y"  
  deep_human_model_integral_vector_param { 
     dim_lb: 0.0
   dim_ub: 1.0
  }
}

#----integral z cube_7
layer {
  name: "integral_z_cube_7_vec"
  type: "DeepHumanModelIntegralZ"
  bottom: "pred_cube_7"
  top: "pred_cube_7_z_vec"  
}

layer {
  name: "integral_z_cube_7_vaue"
  type: "DeepHumanModelIntegralVector"
  bottom: "pred_cube_7_z_vec"
  top: "pred_cube_7_z"  
  deep_human_model_integral_vector_param { 
     dim_lb: 0.0
   dim_ub: 1.0
  }
}

#----integral x cube_8
layer {
  name: "integral_x_cube_8_vec"
  type: "DeepHumanModelIntegralX"
  bottom: "pred_cube_8"
  top: "pred_cube_8_x_vec"  
}

layer {
  name: "integral_x_cube_8_vaue"
  type: "DeepHumanModelIntegralVector"
  bottom: "pred_cube_8_x_vec"
  top: "pred_cube_8_x"  
  deep_human_model_integral_vector_param { 
     dim_lb: 0.0
   dim_ub: 1.0
  }
}


#----integral y cube_8
layer {
  name: "integral_y_cube_8_vec"
  type: "DeepHumanModelIntegralY"
  bottom: "pred_cube_8"
  top: "pred_cube_8_y_vec"  
}

layer {
  name: "integral_y_cube_8_vaue"
  type: "DeepHumanModelIntegralVector"
  bottom: "pred_cube_8_y_vec"
  top: "pred_cube_8_y"  
  deep_human_model_integral_vector_param { 
     dim_lb: 0.0
   dim_ub: 1.0
  }
}

#----integral z cube_8
layer {
  name: "integral_z_cube_8_vec"
  type: "DeepHumanModelIntegralZ"
  bottom: "pred_cube_8"
  top: "pred_cube_8_z_vec"  
}

layer {
  name: "integral_z_cube_8_vaue"
  type: "DeepHumanModelIntegralVector"
  bottom: "pred_cube_8_z_vec"
  top: "pred_cube_8_z"  
  deep_human_model_integral_vector_param { 
     dim_lb: 0.0
   dim_ub: 1.0
  }
}





#----integral x cube_9
layer {
  name: "integral_x_cube_9_vec"
  type: "DeepHumanModelIntegralX"
  bottom: "pred_cube_9"
  top: "pred_cube_9_x_vec"  
}

layer {
  name: "integral_x_cube_9_vaue"
  type: "DeepHumanModelIntegralVector"
  bottom: "pred_cube_9_x_vec"
  top: "pred_cube_9_x"  
  deep_human_model_integral_vector_param { 
     dim_lb: 0.0
   dim_ub: 1.0
  }
}


#----integral y cube_9
layer {
  name: "integral_y_cube_9_vec"
  type: "DeepHumanModelIntegralY"
  bottom: "pred_cube_9"
  top: "pred_cube_9_y_vec"  
}

layer {
  name: "integral_y_cube_9_vaue"
  type: "DeepHumanModelIntegralVector"
  bottom: "pred_cube_9_y_vec"
  top: "pred_cube_9_y"  
  deep_human_model_integral_vector_param { 
     dim_lb: 0.0
   dim_ub: 1.0
  }
}

#----integral z cube_9
layer {
  name: "integral_z_cube_9_vec"
  type: "DeepHumanModelIntegralZ"
  bottom: "pred_cube_9"
  top: "pred_cube_9_z_vec"  
}

layer {
  name: "integral_z_cube_9_vaue"
  type: "DeepHumanModelIntegralVector"
  bottom: "pred_cube_9_z_vec"
  top: "pred_cube_9_z"  
  deep_human_model_integral_vector_param { 
     dim_lb: 0.0
   dim_ub: 1.0
  }
}



#----integral x cube_10
layer {
  name: "integral_x_cube_10_vec"
  type: "DeepHumanModelIntegralX"
  bottom: "pred_cube_10"
  top: "pred_cube_10_x_vec"  
}

layer {
  name: "integral_x_cube_10_vaue"
  type: "DeepHumanModelIntegralVector"
  bottom: "pred_cube_10_x_vec"
  top: "pred_cube_10_x"  
  deep_human_model_integral_vector_param { 
     dim_lb: 0.0
   dim_ub: 1.0
  }
}


#----integral y cube_10
layer {
  name: "integral_y_cube_10_vec"
  type: "DeepHumanModelIntegralY"
  bottom: "pred_cube_10"
  top: "pred_cube_10_y_vec"  
}

layer {
  name: "integral_y_cube_10_vaue"
  type: "DeepHumanModelIntegralVector"
  bottom: "pred_cube_10_y_vec"
  top: "pred_cube_10_y"  
  deep_human_model_integral_vector_param { 
     dim_lb: 0.0
   dim_ub: 1.0
  }
}

#----integral z cube_10
layer {
  name: "integral_z_cube_10_vec"
  type: "DeepHumanModelIntegralZ"
  bottom: "pred_cube_10"
  top: "pred_cube_10_z_vec"  
}

layer {
  name: "integral_z_cube_10_vaue"
  type: "DeepHumanModelIntegralVector"
  bottom: "pred_cube_10_z_vec"
  top: "pred_cube_10_z"  
  deep_human_model_integral_vector_param { 
     dim_lb: 0.0
   dim_ub: 1.0
  }
}




#----integral x cube_11
layer {
  name: "integral_x_cube_11_vec"
  type: "DeepHumanModelIntegralX"
  bottom: "pred_cube_11"
  top: "pred_cube_11_x_vec"  
}

layer {
  name: "integral_x_cube_11_vaue"
  type: "DeepHumanModelIntegralVector"
  bottom: "pred_cube_11_x_vec"
  top: "pred_cube_11_x"  
  deep_human_model_integral_vector_param { 
     dim_lb: 0.0
   dim_ub: 1.0
  }
}


#----integral y cube_11
layer {
  name: "integral_y_cube_11_vec"
  type: "DeepHumanModelIntegralY"
  bottom: "pred_cube_11"
  top: "pred_cube_11_y_vec"  
}

layer {
  name: "integral_y_cube_11_vaue"
  type: "DeepHumanModelIntegralVector"
  bottom: "pred_cube_11_y_vec"
  top: "pred_cube_11_y"  
  deep_human_model_integral_vector_param { 
     dim_lb: 0.0
   dim_ub: 1.0
  }
}

#----integral z cube_11
layer {
  name: "integral_z_cube_11_vec"
  type: "DeepHumanModelIntegralZ"
  bottom: "pred_cube_11"
  top: "pred_cube_11_z_vec"  
}

layer {
  name: "integral_z_cube_11_vaue"
  type: "DeepHumanModelIntegralVector"
  bottom: "pred_cube_11_z_vec"
  top: "pred_cube_11_z"  
  deep_human_model_integral_vector_param { 
     dim_lb: 0.0
   dim_ub: 1.0
  }
}


#----integral x cube_12
layer {
  name: "integral_x_cube_12_vec"
  type: "DeepHumanModelIntegralX"
  bottom: "pred_cube_12"
  top: "pred_cube_12_x_vec"  
}

layer {
  name: "integral_x_cube_12_vaue"
  type: "DeepHumanModelIntegralVector"
  bottom: "pred_cube_12_x_vec"
  top: "pred_cube_12_x"  
  deep_human_model_integral_vector_param { 
     dim_lb: 0.0
   dim_ub: 1.0
  }
}


#----integral y cube_12
layer {
  name: "integral_y_cube_12_vec"
  type: "DeepHumanModelIntegralY"
  bottom: "pred_cube_12"
  top: "pred_cube_12_y_vec"  
}

layer {
  name: "integral_y_cube_12_vaue"
  type: "DeepHumanModelIntegralVector"
  bottom: "pred_cube_12_y_vec"
  top: "pred_cube_12_y"  
  deep_human_model_integral_vector_param { 
     dim_lb: 0.0
   dim_ub: 1.0
  }
}

#----integral z cube_12
layer {
  name: "integral_z_cube_12_vec"
  type: "DeepHumanModelIntegralZ"
  bottom: "pred_cube_12"
  top: "pred_cube_12_z_vec"  
}

layer {
  name: "integral_z_cube_12_vaue"
  type: "DeepHumanModelIntegralVector"
  bottom: "pred_cube_12_z_vec"
  top: "pred_cube_12_z"  
  deep_human_model_integral_vector_param { 
     dim_lb: 0.0
   dim_ub: 1.0
  }
}




#----integral x cube_13
layer {
  name: "integral_x_cube_13_vec"
  type: "DeepHumanModelIntegralX"
  bottom: "pred_cube_13"
  top: "pred_cube_13_x_vec"  
}

layer {
  name: "integral_x_cube_13_vaue"
  type: "DeepHumanModelIntegralVector"
  bottom: "pred_cube_13_x_vec"
  top: "pred_cube_13_x"  
  deep_human_model_integral_vector_param { 
     dim_lb: 0.0
   dim_ub: 1.0
  }
}


#----integral y cube_13
layer {
  name: "integral_y_cube_13_vec"
  type: "DeepHumanModelIntegralY"
  bottom: "pred_cube_13"
  top: "pred_cube_13_y_vec"  
}

layer {
  name: "integral_y_cube_13_vaue"
  type: "DeepHumanModelIntegralVector"
  bottom: "pred_cube_13_y_vec"
  top: "pred_cube_13_y"  
  deep_human_model_integral_vector_param { 
     dim_lb: 0.0
   dim_ub: 1.0
  }
}

#----integral z cube_13
layer {
  name: "integral_z_cube_13_vec"
  type: "DeepHumanModelIntegralZ"
  bottom: "pred_cube_13"
  top: "pred_cube_13_z_vec"  
}

layer {
  name: "integral_z_cube_13_vaue"
  type: "DeepHumanModelIntegralVector"
  bottom: "pred_cube_13_z_vec"
  top: "pred_cube_13_z"  
  deep_human_model_integral_vector_param { 
     dim_lb: 0.0
   dim_ub: 1.0
  }
}

#----integral x cube_14
layer {
  name: "integral_x_cube_14_vec"
  type: "DeepHumanModelIntegralX"
  bottom: "pred_cube_14"
  top: "pred_cube_14_x_vec"  
}

layer {
  name: "integral_x_cube_14_vaue"
  type: "DeepHumanModelIntegralVector"
  bottom: "pred_cube_14_x_vec"
  top: "pred_cube_14_x"  
  deep_human_model_integral_vector_param { 
     dim_lb: 0.0
   dim_ub: 1.0
  }
}


#----integral y cube_14
layer {
  name: "integral_y_cube_14_vec"
  type: "DeepHumanModelIntegralY"
  bottom: "pred_cube_14"
  top: "pred_cube_14_y_vec"  
}

layer {
  name: "integral_y_cube_14_vaue"
  type: "DeepHumanModelIntegralVector"
  bottom: "pred_cube_14_y_vec"
  top: "pred_cube_14_y"  
  deep_human_model_integral_vector_param { 
     dim_lb: 0.0
   dim_ub: 1.0
  }
}

#----integral z cube_14
layer {
  name: "integral_z_cube_14_vec"
  type: "DeepHumanModelIntegralZ"
  bottom: "pred_cube_14"
  top: "pred_cube_14_z_vec"  
}

layer {
  name: "integral_z_cube_14_vaue"
  type: "DeepHumanModelIntegralVector"
  bottom: "pred_cube_14_z_vec"
  top: "pred_cube_14_z"  
  deep_human_model_integral_vector_param { 
     dim_lb: 0.0
   dim_ub: 1.0
  }
}




#----integral x cube_15
layer {
  name: "integral_x_cube_15_vec"
  type: "DeepHumanModelIntegralX"
  bottom: "pred_cube_15"
  top: "pred_cube_15_x_vec"  
}

layer {
  name: "integral_x_cube_15_vaue"
  type: "DeepHumanModelIntegralVector"
  bottom: "pred_cube_15_x_vec"
  top: "pred_cube_15_x"  
  deep_human_model_integral_vector_param { 
     dim_lb: 0.0
   dim_ub: 1.0
  }
}


#----integral y cube_15
layer {
  name: "integral_y_cube_15_vec"
  type: "DeepHumanModelIntegralY"
  bottom: "pred_cube_15"
  top: "pred_cube_15_y_vec"  
}

layer {
  name: "integral_y_cube_15_vaue"
  type: "DeepHumanModelIntegralVector"
  bottom: "pred_cube_15_y_vec"
  top: "pred_cube_15_y"  
  deep_human_model_integral_vector_param { 
     dim_lb: 0.0
   dim_ub: 1.0
  }
}

#----integral z cube_15
layer {
  name: "integral_z_cube_15_vec"
  type: "DeepHumanModelIntegralZ"
  bottom: "pred_cube_15"
  top: "pred_cube_15_z_vec"  
}

layer {
  name: "integral_z_cube_15_vaue"
  type: "DeepHumanModelIntegralVector"
  bottom: "pred_cube_15_z_vec"
  top: "pred_cube_15_z"  
  deep_human_model_integral_vector_param { 
     dim_lb: 0.0
   dim_ub: 1.0
  }
}


#=====get integral 2D from 3D heatmap

layer {
  name: "gen_pred_joint_2d_fr_3d_hm"
  type: "Concat"
  bottom: "pred_cube_0_x"
  bottom: "pred_cube_0_y"
  bottom: "pred_cube_1_x"
  bottom: "pred_cube_1_y"
  bottom: "pred_cube_2_x"
  bottom: "pred_cube_2_y"
  bottom: "pred_cube_3_x"
  bottom: "pred_cube_3_y"
  bottom: "pred_cube_4_x"
  bottom: "pred_cube_4_y"
  bottom: "pred_cube_5_x"
  bottom: "pred_cube_5_y"
  bottom: "pred_cube_6_x"
  bottom: "pred_cube_6_y"
  bottom: "pred_cube_7_x"
  bottom: "pred_cube_7_y"
  bottom: "pred_cube_8_x"
  bottom: "pred_cube_8_y"
  bottom: "pred_cube_9_x"
  bottom: "pred_cube_9_y"
  bottom: "pred_cube_10_x"
  bottom: "pred_cube_10_y"
  bottom: "pred_cube_11_x"
  bottom: "pred_cube_11_y"
  bottom: "pred_cube_12_x"
  bottom: "pred_cube_12_y"
  bottom: "pred_cube_13_x"
  bottom: "pred_cube_13_y"
  bottom: "pred_cube_14_x"
  bottom: "pred_cube_14_y"
  bottom: "pred_cube_15_x"
  bottom: "pred_cube_15_y"
  top: "pred_joint_2d_s2_int"
}

#=====put loss on integral 2D from 3D heatmap (coordiante in bbx [0, 1])

layer {
  bottom: "pred_joint_2d_s2_int"
  bottom: "crop_gt_joint_2d"
  top: "joint2dloss_s2_int"
  name: "joint2dloss_s2_int"
  type: "EuclideanLoss"
  loss_weight: 0.0
}

#=========get predicted depth from 3D heatmap integral


layer {
  name: "gen_pred_depth_fr_3d_hm"
  type: "Concat"
  bottom: "pred_cube_0_z"  
  bottom: "pred_cube_1_z"  
  bottom: "pred_cube_2_z"  
  bottom: "pred_cube_3_z"  
  bottom: "pred_cube_4_z"  
  bottom: "pred_cube_5_z"  
  bottom: "pred_cube_6_z"  
  bottom: "pred_cube_7_z"  
  bottom: "pred_cube_8_z"  
  bottom: "pred_cube_9_z"  
  bottom: "pred_cube_10_z"  
  bottom: "pred_cube_11_z"  
  bottom: "pred_cube_12_z"  
  bottom: "pred_cube_13_z"  
  bottom: "pred_cube_14_z"  
  bottom: "pred_cube_15_z" 
  top: "pred_depth_s2_int"
}


#=====put loss on predicted depth [-1, 1] int s2
layer {
  type: "EuclideanLoss"
  bottom: "pred_depth_s2_int"
  bottom: "annot_depth"
  top: "depthloss_s2_int"
  name: "depthloss_s2_int"
  loss_weight: 0.0
}

#======integral global space + gt root -> mm error MPJPE

#====== get [-1, 1] predicted depth -> real depth
layer {
  type: "DeepHumanModelConvertDepth"
  bottom: "pred_depth_s2_int"
  #bottom: "annot_depth"
  bottom: "gt_joint_3d_mono_raw"
  top: "pred_depth_s2_int_global"
  name: "pred_depth_s2_int_global"
  convert_depth_param {
     joint_num: 16
     depth_lb:  -950.637313
     depth_ub:   892.544664
     root_joint_id: 0
  }
}



#======get integraled 3D global (pred 3d mono raw)

layer {
  type: "DeepHumanModelH36MGenPredMono3D"
  bottom: "pred_joint_2d_s2_int"
  #bottom: "crop_gt_joint_2d"
  bottom: "pred_depth_s2_int_global"
  #bottom: "annot_depth"
  bottom: "bbx_x1_H36M"
  bottom: "bbx_y1_H36M"
  bottom: "bbx_x2_H36M"
  bottom: "bbx_y2_H36M"
  bottom: "image_index"
  top: "pred_joint_global_s2_int"
  name: "pred_joint_global_s2_int"
  gen_pred_mono_3d_param {
     joint_num: 16
     camera_parameters_prefix: "/data/wqf/h36m/mine/Human3.6M/camera_all/"
  }
}


layer {
  name: "output_annot_depth"
  type: "OutputBlob"
  bottom: "crop_gt_joint_2d"
  bottom: "image_index"
  output_blob_param {
     blob_name: "an"
     save_path: "g/"
  }
}


#=======MPJPE of s2 integral 3D heatmap
layer {
  name: "error(mm)_3d_s2_int"
  type: "Joint3DSquareRootLoss"
  bottom: "pred_joint_global_s2_int"
  bottom: "aug_3d"
 
  top: "error(mm)_3d_s2_int"
  loss_weight: 0.0
  joint_3d_square_root_loss_param {
     joint_num: 16
  }
  
}



#========get argmax on 3D heatmap

layer {
  type: "DeepHumanModelH36MChaGenJointFrXYZHeatmap"
  bottom: "heatmap2"
  top: "pred_joint_3d_s2_max"
  name: "pred_joint_3d_s2_max"
  deep_human_model_h36m_cha_gen_joint_fr_xyz_heatmap_param {
     depth_dims: 2
     map_size: 64
     x_lb: 0.0
     x_ub: 1.0
     y_lb: 0.0
     y_ub: 1.0
     z_lb: 0.0
     z_ub: 1.0
     joint_num: 16
  }
}








#--------------pred joint 3d max
layer {
  name: "slice_pred_joint_3d_s2_max"
  type: "Slice"
  bottom: "pred_joint_3d_s2_max"
  top: "pred_joint_2d_0_s2_max"
  top: "pred_depth_0_s2_max"
  top: "pred_joint_2d_1_s2_max"
  top: "pred_depth_1_s2_max"
  top: "pred_joint_2d_2_s2_max"
  top: "pred_depth_2_s2_max"
  top: "pred_joint_2d_3_s2_max"
  top: "pred_depth_3_s2_max"
  top: "pred_joint_2d_4_s2_max"
  top: "pred_depth_4_s2_max"
  top: "pred_joint_2d_5_s2_max"
  top: "pred_depth_5_s2_max"
  top: "pred_joint_2d_6_s2_max"
  top: "pred_depth_6_s2_max"
  top: "pred_joint_2d_7_s2_max"
  top: "pred_depth_7_s2_max"
  top: "pred_joint_2d_8_s2_max"
  top: "pred_depth_8_s2_max"
  top: "pred_joint_2d_9_s2_max"
  top: "pred_depth_9_s2_max"
  top: "pred_joint_2d_10_s2_max"
  top: "pred_depth_10_s2_max"
  top: "pred_joint_2d_11_s2_max"
  top: "pred_depth_11_s2_max"
  top: "pred_joint_2d_12_s2_max"
  top: "pred_depth_12_s2_max"
  top: "pred_joint_2d_13_s2_max"
  top: "pred_depth_13_s2_max"
  top: "pred_joint_2d_14_s2_max"
  top: "pred_depth_14_s2_max"
  top: "pred_joint_2d_15_s2_max"
  top: "pred_depth_15_s2_max"
  
  
  slice_param {
     axis: 1
   slice_point: 2
   slice_point: 3
   slice_point: 5
   slice_point: 6
   slice_point: 8
   slice_point: 9
   slice_point: 11
   slice_point: 12
   slice_point: 14
   slice_point: 15
   slice_point: 17
   slice_point: 18
   slice_point: 20
   slice_point: 21
   slice_point: 23   
   slice_point: 24
   slice_point: 26
   slice_point: 27
   slice_point: 29
   slice_point: 30
   slice_point: 32
   slice_point: 33
   slice_point: 35
   slice_point: 36
   slice_point: 38
   slice_point: 39
   slice_point: 41
   slice_point: 42
   slice_point: 44
   slice_point: 45
   slice_point: 47
  }  
}


layer {
  type: "Concat"
  bottom: "pred_joint_2d_0_s2_max"
  bottom: "pred_joint_2d_1_s2_max"
  bottom: "pred_joint_2d_2_s2_max"
  bottom: "pred_joint_2d_3_s2_max"
  bottom: "pred_joint_2d_4_s2_max"
  bottom: "pred_joint_2d_5_s2_max"
  bottom: "pred_joint_2d_6_s2_max"
  bottom: "pred_joint_2d_7_s2_max"
  bottom: "pred_joint_2d_8_s2_max"
  bottom: "pred_joint_2d_9_s2_max"
  bottom: "pred_joint_2d_10_s2_max"
  bottom: "pred_joint_2d_11_s2_max"
  bottom: "pred_joint_2d_12_s2_max"
  bottom: "pred_joint_2d_13_s2_max"
  bottom: "pred_joint_2d_14_s2_max"
  bottom: "pred_joint_2d_15_s2_max"
  top: "pred_joint_2d_s2_max"
  name: "pred_joint_2d_s2_max"
}



#=====put loss on argmax 2D from 3D heatmap (coordiante in bbx [0, 1])

layer {
  bottom: "pred_joint_2d_s2_max"
  bottom: "crop_gt_joint_2d"
  top: "joint2dloss_s2_max"
  name: "joint2dloss_s2_max"
  type: "EuclideanLoss"
  loss_weight: 0.0
}


layer {
  type: "Concat"
  bottom: "pred_depth_0_s2_max"
  bottom: "pred_depth_1_s2_max"
  bottom: "pred_depth_2_s2_max"
  bottom: "pred_depth_3_s2_max"
  bottom: "pred_depth_4_s2_max"
  bottom: "pred_depth_5_s2_max"
  bottom: "pred_depth_6_s2_max"
  bottom: "pred_depth_7_s2_max"
  bottom: "pred_depth_8_s2_max"
  bottom: "pred_depth_9_s2_max"
  bottom: "pred_depth_10_s2_max"
  bottom: "pred_depth_11_s2_max"
  bottom: "pred_depth_12_s2_max"
  bottom: "pred_depth_13_s2_max"
  bottom: "pred_depth_14_s2_max"
  bottom: "pred_depth_15_s2_max"
  top: "pred_depth_s2_max"
  name: "pred_depth_s2_max"
}
 


#=====put loss on predicted depth [-1, 1] argmax s2
layer {
  type: "EuclideanLoss"
  bottom: "pred_depth_s2_max"
  bottom: "annot_depth"
  top: "depthloss_s2_max"
  name: "depthloss_s2_max"
  loss_weight: 0.0
}




#======argmax global space + gt root -> mm error MPJPE

#====== get [-1, 1] predicted depth -> real depth
layer {
  type: "DeepHumanModelConvertDepth"
  bottom: "pred_depth_s2_max"
  bottom: "gt_joint_3d_mono_raw"
  top: "pred_depth_s2_max_global"
  name: "pred_depth_s2_max_global"
  convert_depth_param {
     joint_num: 16
     depth_lb:  -950.637313
     depth_ub:   892.544664
     root_joint_id: 0
  }
}

#======get argmax 3D global (pred 3d mono raw)

layer {
  type: "DeepHumanModelH36MGenPredMono3D"
  bottom: "pred_joint_2d_s2_max"
  bottom: "pred_depth_s2_max_global"
  bottom: "bbx_x1_H36M"
  bottom: "bbx_y1_H36M"
  bottom: "bbx_x2_H36M"
  bottom: "bbx_y2_H36M"
  bottom: "image_index"
  top: "pred_joint_global_s2_max"
  name: "pred_joint_global_s2_max"
  gen_pred_mono_3d_param {
     joint_num: 16
     camera_parameters_prefix: "/data/wqf/h36m/mine/Human3.6M/camera_all/"
  }
}


#=======MPJPE of s2 argmax 3D heatmap
layer {
  name: "error(mm)_3d_s2_max"
  type: "Joint3DSquareRootLoss"
  bottom: "pred_joint_global_s2_max"
  bottom: "aug_3d"
 
  top: "error(mm)_3d_s2_max"
  loss_weight: 0.0
  joint_3d_square_root_loss_param {
     joint_num: 16
  }
  
}









#==================integral 3D heatmap section ends



#======= put additional loss e.g. smooth L1 loss

layer {
 name: "loss_2dhm_smoothL1"
 type: "SmoothL1Loss"
 bottom: "heatmap"
 top: "loss_2dhm_smoothL1"
 bottom: "label_2dhm"
 loss_weight: 0.0
}


layer {
 name: "loss_3dhm_smoothL1"
 type: "SmoothL1Loss"
 bottom: "heatmap2"
 top: "loss_3dhm_smoothL1"
 bottom: "label_3dhm"
 loss_weight: 0.00
}






layer {
 type: "MulRGB"
 bottom: "image"
 top: "img_mul"
 name: "img_mul"
 mul_rgb_param {
  mul_factor: 256.0
 }
 include {
   phase: TRAIN
 }
}

layer {
 type: "Flatten"
 bottom: "img_mul"
 top: "img_mul_flatten"
 name: "img_mul_flatten"
 include {
   phase: TRAIN
 }
}


layer {
 type: "AddVectorByConstant"
 bottom: "img_mul_flatten"
 top: "img_mul_flatten_add"
 name: "img_mul_flatten_add"
 
 add_vector_by_constant_param {
  add_value: 128.0
 }
 include {
    phase: TRAIN
 }
}



layer {
  type: "DeepHumanModelOutputJointOnSkeletonMapH36M"
  bottom: "img_mul_flatten_add"
  bottom: "image_index"
  bottom: "pred_joint_2d_s2_int"
  bottom: "crop_gt_joint_2d"
  output_joint_on_skeleton_human_h36m_param {
  
   use_raw_rgb_image: false
   show_gt: false
   save_path: "s1_max/"
   save_size: 224
   skeleton_size: 256
   show_skeleton: true
   is_c2f: false
  }
  include {  
    phase: TRAIN
  }
}


layer {
  type: "DeepHumanModelOutputJointOnSkeletonMapH36M"
  bottom: "img_mul_flatten_add"
  bottom: "image_index"
  bottom: "pred_joint_2d_s1_int"
 
  bottom: "crop_gt_joint_2d"
  output_joint_on_skeleton_human_h36m_param {
  
   use_raw_rgb_image: false
   show_gt: false
   save_path: "s1_int/"
   save_size: 224
   skeleton_size: 256
   show_skeleton: true
   is_c2f: false
  }
  include {  
    phase: TRAIN
  }
}




layer {
 name: "loss_3dhm"
 type: "EuclideanLoss" 
 bottom: "heatmap2" 
 top: "loss_3dhm" 
 bottom: "label_3dhm"
 loss_weight: 0.3
 #loss_weight: 0.1 (d=2)
 #loss_weight: 1.0 (d=1)
 
}

#===============Flat all pred / gt blobs
layer {
  bottom: "heatmap"
  top: "heatmap_flatten"
  name: "heatmap_flatten"
  type: "Flatten"
}

layer {
  bottom: "heatmap2"
  top: "heatmap2_flatten"
  name: "heatmap2_flatten"
  type: "Flatten"
}

layer {
  bottom: "label_2dhm"
  top: "label_2dhm_flatten"
  name: "label_2dhm_flatten"
  type: "Flatten"
}

layer {
  bottom: "label_3dhm"
  top: "label_3dhm_flatten"
  name: "label_3dhm_flatten"
  type: "Flatten"
}

#======adaptive loss
layer {
  name: "ada_loss"
  type: "AdaptiveWeightEucLoss"
  top: "ada_loss"
  bottom: "heatmap_flatten"
  bottom: "label_2dhm_flatten"
  bottom: "heatmap2_flatten"
  bottom: "label_3dhm_flatten"
  loss_weight: 0.0
}